#loc = loc("/home/charlley/Code/Triton-Pass-Analysis/snn_compiler/kernels/fused.py":50:0)
#loc28 = loc("y_ptr"(#loc))
#loc29 = loc("bias_ptr"(#loc))
#loc30 = loc("residual_ptr"(#loc))
#loc31 = loc("spike_ptr"(#loc))
#loc32 = loc("v_th_ptr"(#loc))
module {
  tt.func public @_bias_if_lif_kernel(%y_ptr: !tt.ptr<f32> {tt.divisibility = 16 : i32} loc("y_ptr"(#loc)), %bias_ptr: !tt.ptr<f32> {tt.divisibility = 16 : i32} loc("bias_ptr"(#loc)), %residual_ptr: !tt.ptr<f32> {tt.divisibility = 16 : i32} loc("residual_ptr"(#loc)), %spike_ptr: !tt.ptr<f32> {tt.divisibility = 16 : i32} loc("spike_ptr"(#loc)), %v_th_ptr: !tt.ptr<f32> {tt.divisibility = 16 : i32} loc("v_th_ptr"(#loc))) attributes {noinline = false} {
    %c101957632_i32 = arith.constant 101957632 : i32 loc(#loc1)
    %c101154816_i32 = arith.constant 101154816 : i32 loc(#loc1)
    %c100352000_i32 = arith.constant 100352000 : i32 loc(#loc1)
    %c99549184_i32 = arith.constant 99549184 : i32 loc(#loc1)
    %c98746368_i32 = arith.constant 98746368 : i32 loc(#loc1)
    %c97943552_i32 = arith.constant 97943552 : i32 loc(#loc1)
    %c97140736_i32 = arith.constant 97140736 : i32 loc(#loc1)
    %c96337920_i32 = arith.constant 96337920 : i32 loc(#loc1)
    %c95535104_i32 = arith.constant 95535104 : i32 loc(#loc1)
    %c94732288_i32 = arith.constant 94732288 : i32 loc(#loc1)
    %c93929472_i32 = arith.constant 93929472 : i32 loc(#loc1)
    %c93126656_i32 = arith.constant 93126656 : i32 loc(#loc1)
    %c92323840_i32 = arith.constant 92323840 : i32 loc(#loc1)
    %c91521024_i32 = arith.constant 91521024 : i32 loc(#loc1)
    %c90718208_i32 = arith.constant 90718208 : i32 loc(#loc1)
    %c89915392_i32 = arith.constant 89915392 : i32 loc(#loc1)
    %c89112576_i32 = arith.constant 89112576 : i32 loc(#loc1)
    %c88309760_i32 = arith.constant 88309760 : i32 loc(#loc1)
    %c87506944_i32 = arith.constant 87506944 : i32 loc(#loc1)
    %c86704128_i32 = arith.constant 86704128 : i32 loc(#loc1)
    %c85901312_i32 = arith.constant 85901312 : i32 loc(#loc1)
    %c85098496_i32 = arith.constant 85098496 : i32 loc(#loc1)
    %c84295680_i32 = arith.constant 84295680 : i32 loc(#loc1)
    %c83492864_i32 = arith.constant 83492864 : i32 loc(#loc1)
    %c82690048_i32 = arith.constant 82690048 : i32 loc(#loc1)
    %c81887232_i32 = arith.constant 81887232 : i32 loc(#loc1)
    %c81084416_i32 = arith.constant 81084416 : i32 loc(#loc1)
    %c80281600_i32 = arith.constant 80281600 : i32 loc(#loc1)
    %c79478784_i32 = arith.constant 79478784 : i32 loc(#loc1)
    %c78675968_i32 = arith.constant 78675968 : i32 loc(#loc1)
    %c77873152_i32 = arith.constant 77873152 : i32 loc(#loc1)
    %c77070336_i32 = arith.constant 77070336 : i32 loc(#loc1)
    %c76267520_i32 = arith.constant 76267520 : i32 loc(#loc1)
    %c75464704_i32 = arith.constant 75464704 : i32 loc(#loc1)
    %c74661888_i32 = arith.constant 74661888 : i32 loc(#loc1)
    %c73859072_i32 = arith.constant 73859072 : i32 loc(#loc1)
    %c73056256_i32 = arith.constant 73056256 : i32 loc(#loc1)
    %c72253440_i32 = arith.constant 72253440 : i32 loc(#loc1)
    %c71450624_i32 = arith.constant 71450624 : i32 loc(#loc1)
    %c70647808_i32 = arith.constant 70647808 : i32 loc(#loc1)
    %c69844992_i32 = arith.constant 69844992 : i32 loc(#loc1)
    %c69042176_i32 = arith.constant 69042176 : i32 loc(#loc1)
    %c68239360_i32 = arith.constant 68239360 : i32 loc(#loc1)
    %c67436544_i32 = arith.constant 67436544 : i32 loc(#loc1)
    %c66633728_i32 = arith.constant 66633728 : i32 loc(#loc1)
    %c65830912_i32 = arith.constant 65830912 : i32 loc(#loc1)
    %c65028096_i32 = arith.constant 65028096 : i32 loc(#loc1)
    %c64225280_i32 = arith.constant 64225280 : i32 loc(#loc1)
    %c63422464_i32 = arith.constant 63422464 : i32 loc(#loc1)
    %c62619648_i32 = arith.constant 62619648 : i32 loc(#loc1)
    %c61816832_i32 = arith.constant 61816832 : i32 loc(#loc1)
    %c61014016_i32 = arith.constant 61014016 : i32 loc(#loc1)
    %c60211200_i32 = arith.constant 60211200 : i32 loc(#loc1)
    %c59408384_i32 = arith.constant 59408384 : i32 loc(#loc1)
    %c58605568_i32 = arith.constant 58605568 : i32 loc(#loc1)
    %c57802752_i32 = arith.constant 57802752 : i32 loc(#loc1)
    %c56999936_i32 = arith.constant 56999936 : i32 loc(#loc1)
    %c56197120_i32 = arith.constant 56197120 : i32 loc(#loc1)
    %c55394304_i32 = arith.constant 55394304 : i32 loc(#loc1)
    %c54591488_i32 = arith.constant 54591488 : i32 loc(#loc1)
    %c53788672_i32 = arith.constant 53788672 : i32 loc(#loc1)
    %c52985856_i32 = arith.constant 52985856 : i32 loc(#loc1)
    %c52183040_i32 = arith.constant 52183040 : i32 loc(#loc1)
    %c51380224_i32 = arith.constant 51380224 : i32 loc(#loc1)
    %c50577408_i32 = arith.constant 50577408 : i32 loc(#loc1)
    %c49774592_i32 = arith.constant 49774592 : i32 loc(#loc1)
    %c48971776_i32 = arith.constant 48971776 : i32 loc(#loc1)
    %c48168960_i32 = arith.constant 48168960 : i32 loc(#loc1)
    %c47366144_i32 = arith.constant 47366144 : i32 loc(#loc1)
    %c46563328_i32 = arith.constant 46563328 : i32 loc(#loc1)
    %c45760512_i32 = arith.constant 45760512 : i32 loc(#loc1)
    %c44957696_i32 = arith.constant 44957696 : i32 loc(#loc1)
    %c44154880_i32 = arith.constant 44154880 : i32 loc(#loc1)
    %c43352064_i32 = arith.constant 43352064 : i32 loc(#loc1)
    %c42549248_i32 = arith.constant 42549248 : i32 loc(#loc1)
    %c41746432_i32 = arith.constant 41746432 : i32 loc(#loc1)
    %c40943616_i32 = arith.constant 40943616 : i32 loc(#loc1)
    %c40140800_i32 = arith.constant 40140800 : i32 loc(#loc1)
    %c39337984_i32 = arith.constant 39337984 : i32 loc(#loc1)
    %c38535168_i32 = arith.constant 38535168 : i32 loc(#loc1)
    %c37732352_i32 = arith.constant 37732352 : i32 loc(#loc1)
    %c36929536_i32 = arith.constant 36929536 : i32 loc(#loc1)
    %c36126720_i32 = arith.constant 36126720 : i32 loc(#loc1)
    %c35323904_i32 = arith.constant 35323904 : i32 loc(#loc1)
    %c34521088_i32 = arith.constant 34521088 : i32 loc(#loc1)
    %c33718272_i32 = arith.constant 33718272 : i32 loc(#loc1)
    %c32915456_i32 = arith.constant 32915456 : i32 loc(#loc1)
    %c32112640_i32 = arith.constant 32112640 : i32 loc(#loc1)
    %c31309824_i32 = arith.constant 31309824 : i32 loc(#loc1)
    %c30507008_i32 = arith.constant 30507008 : i32 loc(#loc1)
    %c29704192_i32 = arith.constant 29704192 : i32 loc(#loc1)
    %c28901376_i32 = arith.constant 28901376 : i32 loc(#loc1)
    %c28098560_i32 = arith.constant 28098560 : i32 loc(#loc1)
    %c27295744_i32 = arith.constant 27295744 : i32 loc(#loc1)
    %c26492928_i32 = arith.constant 26492928 : i32 loc(#loc1)
    %c25690112_i32 = arith.constant 25690112 : i32 loc(#loc1)
    %c24887296_i32 = arith.constant 24887296 : i32 loc(#loc1)
    %c24084480_i32 = arith.constant 24084480 : i32 loc(#loc1)
    %c23281664_i32 = arith.constant 23281664 : i32 loc(#loc1)
    %c22478848_i32 = arith.constant 22478848 : i32 loc(#loc1)
    %c21676032_i32 = arith.constant 21676032 : i32 loc(#loc1)
    %c20873216_i32 = arith.constant 20873216 : i32 loc(#loc1)
    %c20070400_i32 = arith.constant 20070400 : i32 loc(#loc1)
    %c19267584_i32 = arith.constant 19267584 : i32 loc(#loc1)
    %c18464768_i32 = arith.constant 18464768 : i32 loc(#loc1)
    %c17661952_i32 = arith.constant 17661952 : i32 loc(#loc1)
    %c16859136_i32 = arith.constant 16859136 : i32 loc(#loc1)
    %c16056320_i32 = arith.constant 16056320 : i32 loc(#loc1)
    %c15253504_i32 = arith.constant 15253504 : i32 loc(#loc1)
    %c14450688_i32 = arith.constant 14450688 : i32 loc(#loc1)
    %c13647872_i32 = arith.constant 13647872 : i32 loc(#loc1)
    %c12845056_i32 = arith.constant 12845056 : i32 loc(#loc1)
    %c12042240_i32 = arith.constant 12042240 : i32 loc(#loc1)
    %c11239424_i32 = arith.constant 11239424 : i32 loc(#loc1)
    %c10436608_i32 = arith.constant 10436608 : i32 loc(#loc1)
    %c9633792_i32 = arith.constant 9633792 : i32 loc(#loc1)
    %c8830976_i32 = arith.constant 8830976 : i32 loc(#loc1)
    %c8028160_i32 = arith.constant 8028160 : i32 loc(#loc1)
    %c7225344_i32 = arith.constant 7225344 : i32 loc(#loc1)
    %c6422528_i32 = arith.constant 6422528 : i32 loc(#loc1)
    %c5619712_i32 = arith.constant 5619712 : i32 loc(#loc1)
    %c4816896_i32 = arith.constant 4816896 : i32 loc(#loc1)
    %c4014080_i32 = arith.constant 4014080 : i32 loc(#loc1)
    %c3211264_i32 = arith.constant 3211264 : i32 loc(#loc1)
    %c2408448_i32 = arith.constant 2408448 : i32 loc(#loc1)
    %c1605632_i32 = arith.constant 1605632 : i32 loc(#loc1)
    %cst = arith.constant dense<1.000000e+00> : tensor<1024xf32> loc(#loc1)
    %cst_0 = arith.constant dense<5.000000e-01> : tensor<1024xf32> loc(#loc1)
    %cst_1 = arith.constant dense<0.000000e+00> : tensor<1024xf32> loc(#loc1)
    %c_idx = arith.constant dense<64> : tensor<1024xi32> loc(#loc33)
    %c_idx_2 = arith.constant dense<3136> : tensor<1024xi32> loc(#loc34)
    %mask = arith.constant dense<802816> : tensor<1024xi32> loc(#loc35)
    %c802816_i32 = arith.constant 802816 : i32 loc(#loc1)
    %c1024_i32 = arith.constant 1024 : i32 loc(#loc1)
    %pid = tt.get_program_id x : i32 loc(#loc36)
    %ncl_idx = arith.muli %pid, %c1024_i32 : i32 loc(#loc37)
    %ncl_idx_3 = tt.make_range {end = 1024 : i32, start = 0 : i32} : tensor<1024xi32> loc(#loc38)
    %ncl_idx_4 = tt.splat %ncl_idx : i32 -> tensor<1024xi32> loc(#loc39)
    %ncl_idx_5 = arith.addi %ncl_idx_4, %ncl_idx_3 : tensor<1024xi32> loc(#loc39)
    %mask_6 = arith.cmpi slt, %ncl_idx_5, %mask : tensor<1024xi32> loc(#loc35)
    %c_idx_7 = arith.divsi %ncl_idx_5, %c_idx_2 : tensor<1024xi32> loc(#loc34)
    %c_idx_8 = arith.remsi %c_idx_7, %c_idx : tensor<1024xi32> loc(#loc33)
    %bias = tt.splat %bias_ptr : !tt.ptr<f32> -> tensor<1024x!tt.ptr<f32>> loc(#loc40)
    %bias_9 = tt.addptr %bias, %c_idx_8 : tensor<1024x!tt.ptr<f32>>, tensor<1024xi32> loc(#loc40)
    %bias_10 = tt.load %bias_9, %mask_6, %cst_1 : tensor<1024x!tt.ptr<f32>> loc(#loc41)
    %y_t = tt.splat %y_ptr : !tt.ptr<f32> -> tensor<1024x!tt.ptr<f32>> loc(#loc42)
    %y_t_11 = tt.addptr %y_t, %ncl_idx_5 : tensor<1024x!tt.ptr<f32>>, tensor<1024xi32> loc(#loc42)
    %y_t_12 = tt.load %y_t_11, %mask_6, %cst_1 : tensor<1024x!tt.ptr<f32>> loc(#loc43)
    %v = arith.addf %y_t_12, %bias_10 : tensor<1024xf32> loc(#loc44)
    %v_13 = arith.mulf %v, %cst_0 : tensor<1024xf32> loc(#loc45)
    %v_14 = arith.addf %v_13, %cst_1 : tensor<1024xf32> loc(#loc46)
    %spike = arith.cmpf oge, %v_14, %cst : tensor<1024xf32> loc(#loc47)
    %spike_15 = arith.uitofp %spike : tensor<1024xi1> to tensor<1024xf32> loc(#loc48)
    %v_16 = arith.subf %cst, %spike_15 : tensor<1024xf32> loc(#loc49)
    %v_17 = arith.mulf %v_14, %v_16 : tensor<1024xf32> loc(#loc50)
    %v_18 = arith.mulf %spike_15, %cst_1 : tensor<1024xf32> loc(#loc51)
    %v_19 = arith.addf %v_17, %v_18 : tensor<1024xf32> loc(#loc52)
    %0 = tt.splat %spike_ptr : !tt.ptr<f32> -> tensor<1024x!tt.ptr<f32>> loc(#loc22)
    %1 = tt.addptr %0, %ncl_idx_5 : tensor<1024x!tt.ptr<f32>>, tensor<1024xi32> loc(#loc22)
    tt.store %1, %spike_15, %mask_6 : tensor<1024x!tt.ptr<f32>> loc(#loc23)
    %y_t_20 = tt.addptr %y_ptr, %c802816_i32 : !tt.ptr<f32>, i32 loc(#loc53)
    %y_t_21 = tt.splat %y_t_20 : !tt.ptr<f32> -> tensor<1024x!tt.ptr<f32>> loc(#loc42)
    %y_t_22 = tt.addptr %y_t_21, %ncl_idx_5 : tensor<1024x!tt.ptr<f32>>, tensor<1024xi32> loc(#loc42)
    %y_t_23 = tt.load %y_t_22, %mask_6, %cst_1 : tensor<1024x!tt.ptr<f32>> loc(#loc43)
    %v_24 = arith.mulf %v_19, %cst_0 : tensor<1024xf32> loc(#loc54)
    %v_25 = arith.addf %y_t_23, %bias_10 : tensor<1024xf32> loc(#loc44)
    %v_26 = arith.mulf %v_25, %cst_0 : tensor<1024xf32> loc(#loc45)
    %v_27 = arith.addf %v_24, %v_26 : tensor<1024xf32> loc(#loc46)
    %spike_28 = arith.cmpf oge, %v_27, %cst : tensor<1024xf32> loc(#loc47)
    %spike_29 = arith.uitofp %spike_28 : tensor<1024xi1> to tensor<1024xf32> loc(#loc48)
    %v_30 = arith.subf %cst, %spike_29 : tensor<1024xf32> loc(#loc49)
    %v_31 = arith.mulf %v_27, %v_30 : tensor<1024xf32> loc(#loc50)
    %v_32 = arith.mulf %spike_29, %cst_1 : tensor<1024xf32> loc(#loc51)
    %v_33 = arith.addf %v_31, %v_32 : tensor<1024xf32> loc(#loc52)
    %2 = tt.addptr %spike_ptr, %c802816_i32 : !tt.ptr<f32>, i32 loc(#loc26)
    %3 = tt.splat %2 : !tt.ptr<f32> -> tensor<1024x!tt.ptr<f32>> loc(#loc22)
    %4 = tt.addptr %3, %ncl_idx_5 : tensor<1024x!tt.ptr<f32>>, tensor<1024xi32> loc(#loc22)
    tt.store %4, %spike_29, %mask_6 : tensor<1024x!tt.ptr<f32>> loc(#loc23)
    %y_t_34 = tt.addptr %y_ptr, %c1605632_i32 : !tt.ptr<f32>, i32 loc(#loc53)
    %y_t_35 = tt.splat %y_t_34 : !tt.ptr<f32> -> tensor<1024x!tt.ptr<f32>> loc(#loc42)
    %y_t_36 = tt.addptr %y_t_35, %ncl_idx_5 : tensor<1024x!tt.ptr<f32>>, tensor<1024xi32> loc(#loc42)
    %y_t_37 = tt.load %y_t_36, %mask_6, %cst_1 : tensor<1024x!tt.ptr<f32>> loc(#loc43)
    %v_38 = arith.mulf %v_33, %cst_0 : tensor<1024xf32> loc(#loc54)
    %v_39 = arith.addf %y_t_37, %bias_10 : tensor<1024xf32> loc(#loc44)
    %v_40 = arith.mulf %v_39, %cst_0 : tensor<1024xf32> loc(#loc45)
    %v_41 = arith.addf %v_38, %v_40 : tensor<1024xf32> loc(#loc46)
    %spike_42 = arith.cmpf oge, %v_41, %cst : tensor<1024xf32> loc(#loc47)
    %spike_43 = arith.uitofp %spike_42 : tensor<1024xi1> to tensor<1024xf32> loc(#loc48)
    %v_44 = arith.subf %cst, %spike_43 : tensor<1024xf32> loc(#loc49)
    %v_45 = arith.mulf %v_41, %v_44 : tensor<1024xf32> loc(#loc50)
    %v_46 = arith.mulf %spike_43, %cst_1 : tensor<1024xf32> loc(#loc51)
    %v_47 = arith.addf %v_45, %v_46 : tensor<1024xf32> loc(#loc52)
    %5 = tt.addptr %spike_ptr, %c1605632_i32 : !tt.ptr<f32>, i32 loc(#loc26)
    %6 = tt.splat %5 : !tt.ptr<f32> -> tensor<1024x!tt.ptr<f32>> loc(#loc22)
    %7 = tt.addptr %6, %ncl_idx_5 : tensor<1024x!tt.ptr<f32>>, tensor<1024xi32> loc(#loc22)
    tt.store %7, %spike_43, %mask_6 : tensor<1024x!tt.ptr<f32>> loc(#loc23)
    %y_t_48 = tt.addptr %y_ptr, %c2408448_i32 : !tt.ptr<f32>, i32 loc(#loc53)
    %y_t_49 = tt.splat %y_t_48 : !tt.ptr<f32> -> tensor<1024x!tt.ptr<f32>> loc(#loc42)
    %y_t_50 = tt.addptr %y_t_49, %ncl_idx_5 : tensor<1024x!tt.ptr<f32>>, tensor<1024xi32> loc(#loc42)
    %y_t_51 = tt.load %y_t_50, %mask_6, %cst_1 : tensor<1024x!tt.ptr<f32>> loc(#loc43)
    %v_52 = arith.mulf %v_47, %cst_0 : tensor<1024xf32> loc(#loc54)
    %v_53 = arith.addf %y_t_51, %bias_10 : tensor<1024xf32> loc(#loc44)
    %v_54 = arith.mulf %v_53, %cst_0 : tensor<1024xf32> loc(#loc45)
    %v_55 = arith.addf %v_52, %v_54 : tensor<1024xf32> loc(#loc46)
    %spike_56 = arith.cmpf oge, %v_55, %cst : tensor<1024xf32> loc(#loc47)
    %spike_57 = arith.uitofp %spike_56 : tensor<1024xi1> to tensor<1024xf32> loc(#loc48)
    %v_58 = arith.subf %cst, %spike_57 : tensor<1024xf32> loc(#loc49)
    %v_59 = arith.mulf %v_55, %v_58 : tensor<1024xf32> loc(#loc50)
    %v_60 = arith.mulf %spike_57, %cst_1 : tensor<1024xf32> loc(#loc51)
    %v_61 = arith.addf %v_59, %v_60 : tensor<1024xf32> loc(#loc52)
    %8 = tt.addptr %spike_ptr, %c2408448_i32 : !tt.ptr<f32>, i32 loc(#loc26)
    %9 = tt.splat %8 : !tt.ptr<f32> -> tensor<1024x!tt.ptr<f32>> loc(#loc22)
    %10 = tt.addptr %9, %ncl_idx_5 : tensor<1024x!tt.ptr<f32>>, tensor<1024xi32> loc(#loc22)
    tt.store %10, %spike_57, %mask_6 : tensor<1024x!tt.ptr<f32>> loc(#loc23)
    %y_t_62 = tt.addptr %y_ptr, %c3211264_i32 : !tt.ptr<f32>, i32 loc(#loc53)
    %y_t_63 = tt.splat %y_t_62 : !tt.ptr<f32> -> tensor<1024x!tt.ptr<f32>> loc(#loc42)
    %y_t_64 = tt.addptr %y_t_63, %ncl_idx_5 : tensor<1024x!tt.ptr<f32>>, tensor<1024xi32> loc(#loc42)
    %y_t_65 = tt.load %y_t_64, %mask_6, %cst_1 : tensor<1024x!tt.ptr<f32>> loc(#loc43)
    %v_66 = arith.mulf %v_61, %cst_0 : tensor<1024xf32> loc(#loc54)
    %v_67 = arith.addf %y_t_65, %bias_10 : tensor<1024xf32> loc(#loc44)
    %v_68 = arith.mulf %v_67, %cst_0 : tensor<1024xf32> loc(#loc45)
    %v_69 = arith.addf %v_66, %v_68 : tensor<1024xf32> loc(#loc46)
    %spike_70 = arith.cmpf oge, %v_69, %cst : tensor<1024xf32> loc(#loc47)
    %spike_71 = arith.uitofp %spike_70 : tensor<1024xi1> to tensor<1024xf32> loc(#loc48)
    %v_72 = arith.subf %cst, %spike_71 : tensor<1024xf32> loc(#loc49)
    %v_73 = arith.mulf %v_69, %v_72 : tensor<1024xf32> loc(#loc50)
    %v_74 = arith.mulf %spike_71, %cst_1 : tensor<1024xf32> loc(#loc51)
    %v_75 = arith.addf %v_73, %v_74 : tensor<1024xf32> loc(#loc52)
    %11 = tt.addptr %spike_ptr, %c3211264_i32 : !tt.ptr<f32>, i32 loc(#loc26)
    %12 = tt.splat %11 : !tt.ptr<f32> -> tensor<1024x!tt.ptr<f32>> loc(#loc22)
    %13 = tt.addptr %12, %ncl_idx_5 : tensor<1024x!tt.ptr<f32>>, tensor<1024xi32> loc(#loc22)
    tt.store %13, %spike_71, %mask_6 : tensor<1024x!tt.ptr<f32>> loc(#loc23)
    %y_t_76 = tt.addptr %y_ptr, %c4014080_i32 : !tt.ptr<f32>, i32 loc(#loc53)
    %y_t_77 = tt.splat %y_t_76 : !tt.ptr<f32> -> tensor<1024x!tt.ptr<f32>> loc(#loc42)
    %y_t_78 = tt.addptr %y_t_77, %ncl_idx_5 : tensor<1024x!tt.ptr<f32>>, tensor<1024xi32> loc(#loc42)
    %y_t_79 = tt.load %y_t_78, %mask_6, %cst_1 : tensor<1024x!tt.ptr<f32>> loc(#loc43)
    %v_80 = arith.mulf %v_75, %cst_0 : tensor<1024xf32> loc(#loc54)
    %v_81 = arith.addf %y_t_79, %bias_10 : tensor<1024xf32> loc(#loc44)
    %v_82 = arith.mulf %v_81, %cst_0 : tensor<1024xf32> loc(#loc45)
    %v_83 = arith.addf %v_80, %v_82 : tensor<1024xf32> loc(#loc46)
    %spike_84 = arith.cmpf oge, %v_83, %cst : tensor<1024xf32> loc(#loc47)
    %spike_85 = arith.uitofp %spike_84 : tensor<1024xi1> to tensor<1024xf32> loc(#loc48)
    %v_86 = arith.subf %cst, %spike_85 : tensor<1024xf32> loc(#loc49)
    %v_87 = arith.mulf %v_83, %v_86 : tensor<1024xf32> loc(#loc50)
    %v_88 = arith.mulf %spike_85, %cst_1 : tensor<1024xf32> loc(#loc51)
    %v_89 = arith.addf %v_87, %v_88 : tensor<1024xf32> loc(#loc52)
    %14 = tt.addptr %spike_ptr, %c4014080_i32 : !tt.ptr<f32>, i32 loc(#loc26)
    %15 = tt.splat %14 : !tt.ptr<f32> -> tensor<1024x!tt.ptr<f32>> loc(#loc22)
    %16 = tt.addptr %15, %ncl_idx_5 : tensor<1024x!tt.ptr<f32>>, tensor<1024xi32> loc(#loc22)
    tt.store %16, %spike_85, %mask_6 : tensor<1024x!tt.ptr<f32>> loc(#loc23)
    %y_t_90 = tt.addptr %y_ptr, %c4816896_i32 : !tt.ptr<f32>, i32 loc(#loc53)
    %y_t_91 = tt.splat %y_t_90 : !tt.ptr<f32> -> tensor<1024x!tt.ptr<f32>> loc(#loc42)
    %y_t_92 = tt.addptr %y_t_91, %ncl_idx_5 : tensor<1024x!tt.ptr<f32>>, tensor<1024xi32> loc(#loc42)
    %y_t_93 = tt.load %y_t_92, %mask_6, %cst_1 : tensor<1024x!tt.ptr<f32>> loc(#loc43)
    %v_94 = arith.mulf %v_89, %cst_0 : tensor<1024xf32> loc(#loc54)
    %v_95 = arith.addf %y_t_93, %bias_10 : tensor<1024xf32> loc(#loc44)
    %v_96 = arith.mulf %v_95, %cst_0 : tensor<1024xf32> loc(#loc45)
    %v_97 = arith.addf %v_94, %v_96 : tensor<1024xf32> loc(#loc46)
    %spike_98 = arith.cmpf oge, %v_97, %cst : tensor<1024xf32> loc(#loc47)
    %spike_99 = arith.uitofp %spike_98 : tensor<1024xi1> to tensor<1024xf32> loc(#loc48)
    %v_100 = arith.subf %cst, %spike_99 : tensor<1024xf32> loc(#loc49)
    %v_101 = arith.mulf %v_97, %v_100 : tensor<1024xf32> loc(#loc50)
    %v_102 = arith.mulf %spike_99, %cst_1 : tensor<1024xf32> loc(#loc51)
    %v_103 = arith.addf %v_101, %v_102 : tensor<1024xf32> loc(#loc52)
    %17 = tt.addptr %spike_ptr, %c4816896_i32 : !tt.ptr<f32>, i32 loc(#loc26)
    %18 = tt.splat %17 : !tt.ptr<f32> -> tensor<1024x!tt.ptr<f32>> loc(#loc22)
    %19 = tt.addptr %18, %ncl_idx_5 : tensor<1024x!tt.ptr<f32>>, tensor<1024xi32> loc(#loc22)
    tt.store %19, %spike_99, %mask_6 : tensor<1024x!tt.ptr<f32>> loc(#loc23)
    %y_t_104 = tt.addptr %y_ptr, %c5619712_i32 : !tt.ptr<f32>, i32 loc(#loc53)
    %y_t_105 = tt.splat %y_t_104 : !tt.ptr<f32> -> tensor<1024x!tt.ptr<f32>> loc(#loc42)
    %y_t_106 = tt.addptr %y_t_105, %ncl_idx_5 : tensor<1024x!tt.ptr<f32>>, tensor<1024xi32> loc(#loc42)
    %y_t_107 = tt.load %y_t_106, %mask_6, %cst_1 : tensor<1024x!tt.ptr<f32>> loc(#loc43)
    %v_108 = arith.mulf %v_103, %cst_0 : tensor<1024xf32> loc(#loc54)
    %v_109 = arith.addf %y_t_107, %bias_10 : tensor<1024xf32> loc(#loc44)
    %v_110 = arith.mulf %v_109, %cst_0 : tensor<1024xf32> loc(#loc45)
    %v_111 = arith.addf %v_108, %v_110 : tensor<1024xf32> loc(#loc46)
    %spike_112 = arith.cmpf oge, %v_111, %cst : tensor<1024xf32> loc(#loc47)
    %spike_113 = arith.uitofp %spike_112 : tensor<1024xi1> to tensor<1024xf32> loc(#loc48)
    %v_114 = arith.subf %cst, %spike_113 : tensor<1024xf32> loc(#loc49)
    %v_115 = arith.mulf %v_111, %v_114 : tensor<1024xf32> loc(#loc50)
    %v_116 = arith.mulf %spike_113, %cst_1 : tensor<1024xf32> loc(#loc51)
    %v_117 = arith.addf %v_115, %v_116 : tensor<1024xf32> loc(#loc52)
    %20 = tt.addptr %spike_ptr, %c5619712_i32 : !tt.ptr<f32>, i32 loc(#loc26)
    %21 = tt.splat %20 : !tt.ptr<f32> -> tensor<1024x!tt.ptr<f32>> loc(#loc22)
    %22 = tt.addptr %21, %ncl_idx_5 : tensor<1024x!tt.ptr<f32>>, tensor<1024xi32> loc(#loc22)
    tt.store %22, %spike_113, %mask_6 : tensor<1024x!tt.ptr<f32>> loc(#loc23)
    %y_t_118 = tt.addptr %y_ptr, %c6422528_i32 : !tt.ptr<f32>, i32 loc(#loc53)
    %y_t_119 = tt.splat %y_t_118 : !tt.ptr<f32> -> tensor<1024x!tt.ptr<f32>> loc(#loc42)
    %y_t_120 = tt.addptr %y_t_119, %ncl_idx_5 : tensor<1024x!tt.ptr<f32>>, tensor<1024xi32> loc(#loc42)
    %y_t_121 = tt.load %y_t_120, %mask_6, %cst_1 : tensor<1024x!tt.ptr<f32>> loc(#loc43)
    %v_122 = arith.mulf %v_117, %cst_0 : tensor<1024xf32> loc(#loc54)
    %v_123 = arith.addf %y_t_121, %bias_10 : tensor<1024xf32> loc(#loc44)
    %v_124 = arith.mulf %v_123, %cst_0 : tensor<1024xf32> loc(#loc45)
    %v_125 = arith.addf %v_122, %v_124 : tensor<1024xf32> loc(#loc46)
    %spike_126 = arith.cmpf oge, %v_125, %cst : tensor<1024xf32> loc(#loc47)
    %spike_127 = arith.uitofp %spike_126 : tensor<1024xi1> to tensor<1024xf32> loc(#loc48)
    %v_128 = arith.subf %cst, %spike_127 : tensor<1024xf32> loc(#loc49)
    %v_129 = arith.mulf %v_125, %v_128 : tensor<1024xf32> loc(#loc50)
    %v_130 = arith.mulf %spike_127, %cst_1 : tensor<1024xf32> loc(#loc51)
    %v_131 = arith.addf %v_129, %v_130 : tensor<1024xf32> loc(#loc52)
    %23 = tt.addptr %spike_ptr, %c6422528_i32 : !tt.ptr<f32>, i32 loc(#loc26)
    %24 = tt.splat %23 : !tt.ptr<f32> -> tensor<1024x!tt.ptr<f32>> loc(#loc22)
    %25 = tt.addptr %24, %ncl_idx_5 : tensor<1024x!tt.ptr<f32>>, tensor<1024xi32> loc(#loc22)
    tt.store %25, %spike_127, %mask_6 : tensor<1024x!tt.ptr<f32>> loc(#loc23)
    %y_t_132 = tt.addptr %y_ptr, %c7225344_i32 : !tt.ptr<f32>, i32 loc(#loc53)
    %y_t_133 = tt.splat %y_t_132 : !tt.ptr<f32> -> tensor<1024x!tt.ptr<f32>> loc(#loc42)
    %y_t_134 = tt.addptr %y_t_133, %ncl_idx_5 : tensor<1024x!tt.ptr<f32>>, tensor<1024xi32> loc(#loc42)
    %y_t_135 = tt.load %y_t_134, %mask_6, %cst_1 : tensor<1024x!tt.ptr<f32>> loc(#loc43)
    %v_136 = arith.mulf %v_131, %cst_0 : tensor<1024xf32> loc(#loc54)
    %v_137 = arith.addf %y_t_135, %bias_10 : tensor<1024xf32> loc(#loc44)
    %v_138 = arith.mulf %v_137, %cst_0 : tensor<1024xf32> loc(#loc45)
    %v_139 = arith.addf %v_136, %v_138 : tensor<1024xf32> loc(#loc46)
    %spike_140 = arith.cmpf oge, %v_139, %cst : tensor<1024xf32> loc(#loc47)
    %spike_141 = arith.uitofp %spike_140 : tensor<1024xi1> to tensor<1024xf32> loc(#loc48)
    %v_142 = arith.subf %cst, %spike_141 : tensor<1024xf32> loc(#loc49)
    %v_143 = arith.mulf %v_139, %v_142 : tensor<1024xf32> loc(#loc50)
    %v_144 = arith.mulf %spike_141, %cst_1 : tensor<1024xf32> loc(#loc51)
    %v_145 = arith.addf %v_143, %v_144 : tensor<1024xf32> loc(#loc52)
    %26 = tt.addptr %spike_ptr, %c7225344_i32 : !tt.ptr<f32>, i32 loc(#loc26)
    %27 = tt.splat %26 : !tt.ptr<f32> -> tensor<1024x!tt.ptr<f32>> loc(#loc22)
    %28 = tt.addptr %27, %ncl_idx_5 : tensor<1024x!tt.ptr<f32>>, tensor<1024xi32> loc(#loc22)
    tt.store %28, %spike_141, %mask_6 : tensor<1024x!tt.ptr<f32>> loc(#loc23)
    %y_t_146 = tt.addptr %y_ptr, %c8028160_i32 : !tt.ptr<f32>, i32 loc(#loc53)
    %y_t_147 = tt.splat %y_t_146 : !tt.ptr<f32> -> tensor<1024x!tt.ptr<f32>> loc(#loc42)
    %y_t_148 = tt.addptr %y_t_147, %ncl_idx_5 : tensor<1024x!tt.ptr<f32>>, tensor<1024xi32> loc(#loc42)
    %y_t_149 = tt.load %y_t_148, %mask_6, %cst_1 : tensor<1024x!tt.ptr<f32>> loc(#loc43)
    %v_150 = arith.mulf %v_145, %cst_0 : tensor<1024xf32> loc(#loc54)
    %v_151 = arith.addf %y_t_149, %bias_10 : tensor<1024xf32> loc(#loc44)
    %v_152 = arith.mulf %v_151, %cst_0 : tensor<1024xf32> loc(#loc45)
    %v_153 = arith.addf %v_150, %v_152 : tensor<1024xf32> loc(#loc46)
    %spike_154 = arith.cmpf oge, %v_153, %cst : tensor<1024xf32> loc(#loc47)
    %spike_155 = arith.uitofp %spike_154 : tensor<1024xi1> to tensor<1024xf32> loc(#loc48)
    %v_156 = arith.subf %cst, %spike_155 : tensor<1024xf32> loc(#loc49)
    %v_157 = arith.mulf %v_153, %v_156 : tensor<1024xf32> loc(#loc50)
    %v_158 = arith.mulf %spike_155, %cst_1 : tensor<1024xf32> loc(#loc51)
    %v_159 = arith.addf %v_157, %v_158 : tensor<1024xf32> loc(#loc52)
    %29 = tt.addptr %spike_ptr, %c8028160_i32 : !tt.ptr<f32>, i32 loc(#loc26)
    %30 = tt.splat %29 : !tt.ptr<f32> -> tensor<1024x!tt.ptr<f32>> loc(#loc22)
    %31 = tt.addptr %30, %ncl_idx_5 : tensor<1024x!tt.ptr<f32>>, tensor<1024xi32> loc(#loc22)
    tt.store %31, %spike_155, %mask_6 : tensor<1024x!tt.ptr<f32>> loc(#loc23)
    %y_t_160 = tt.addptr %y_ptr, %c8830976_i32 : !tt.ptr<f32>, i32 loc(#loc53)
    %y_t_161 = tt.splat %y_t_160 : !tt.ptr<f32> -> tensor<1024x!tt.ptr<f32>> loc(#loc42)
    %y_t_162 = tt.addptr %y_t_161, %ncl_idx_5 : tensor<1024x!tt.ptr<f32>>, tensor<1024xi32> loc(#loc42)
    %y_t_163 = tt.load %y_t_162, %mask_6, %cst_1 : tensor<1024x!tt.ptr<f32>> loc(#loc43)
    %v_164 = arith.mulf %v_159, %cst_0 : tensor<1024xf32> loc(#loc54)
    %v_165 = arith.addf %y_t_163, %bias_10 : tensor<1024xf32> loc(#loc44)
    %v_166 = arith.mulf %v_165, %cst_0 : tensor<1024xf32> loc(#loc45)
    %v_167 = arith.addf %v_164, %v_166 : tensor<1024xf32> loc(#loc46)
    %spike_168 = arith.cmpf oge, %v_167, %cst : tensor<1024xf32> loc(#loc47)
    %spike_169 = arith.uitofp %spike_168 : tensor<1024xi1> to tensor<1024xf32> loc(#loc48)
    %v_170 = arith.subf %cst, %spike_169 : tensor<1024xf32> loc(#loc49)
    %v_171 = arith.mulf %v_167, %v_170 : tensor<1024xf32> loc(#loc50)
    %v_172 = arith.mulf %spike_169, %cst_1 : tensor<1024xf32> loc(#loc51)
    %v_173 = arith.addf %v_171, %v_172 : tensor<1024xf32> loc(#loc52)
    %32 = tt.addptr %spike_ptr, %c8830976_i32 : !tt.ptr<f32>, i32 loc(#loc26)
    %33 = tt.splat %32 : !tt.ptr<f32> -> tensor<1024x!tt.ptr<f32>> loc(#loc22)
    %34 = tt.addptr %33, %ncl_idx_5 : tensor<1024x!tt.ptr<f32>>, tensor<1024xi32> loc(#loc22)
    tt.store %34, %spike_169, %mask_6 : tensor<1024x!tt.ptr<f32>> loc(#loc23)
    %y_t_174 = tt.addptr %y_ptr, %c9633792_i32 : !tt.ptr<f32>, i32 loc(#loc53)
    %y_t_175 = tt.splat %y_t_174 : !tt.ptr<f32> -> tensor<1024x!tt.ptr<f32>> loc(#loc42)
    %y_t_176 = tt.addptr %y_t_175, %ncl_idx_5 : tensor<1024x!tt.ptr<f32>>, tensor<1024xi32> loc(#loc42)
    %y_t_177 = tt.load %y_t_176, %mask_6, %cst_1 : tensor<1024x!tt.ptr<f32>> loc(#loc43)
    %v_178 = arith.mulf %v_173, %cst_0 : tensor<1024xf32> loc(#loc54)
    %v_179 = arith.addf %y_t_177, %bias_10 : tensor<1024xf32> loc(#loc44)
    %v_180 = arith.mulf %v_179, %cst_0 : tensor<1024xf32> loc(#loc45)
    %v_181 = arith.addf %v_178, %v_180 : tensor<1024xf32> loc(#loc46)
    %spike_182 = arith.cmpf oge, %v_181, %cst : tensor<1024xf32> loc(#loc47)
    %spike_183 = arith.uitofp %spike_182 : tensor<1024xi1> to tensor<1024xf32> loc(#loc48)
    %v_184 = arith.subf %cst, %spike_183 : tensor<1024xf32> loc(#loc49)
    %v_185 = arith.mulf %v_181, %v_184 : tensor<1024xf32> loc(#loc50)
    %v_186 = arith.mulf %spike_183, %cst_1 : tensor<1024xf32> loc(#loc51)
    %v_187 = arith.addf %v_185, %v_186 : tensor<1024xf32> loc(#loc52)
    %35 = tt.addptr %spike_ptr, %c9633792_i32 : !tt.ptr<f32>, i32 loc(#loc26)
    %36 = tt.splat %35 : !tt.ptr<f32> -> tensor<1024x!tt.ptr<f32>> loc(#loc22)
    %37 = tt.addptr %36, %ncl_idx_5 : tensor<1024x!tt.ptr<f32>>, tensor<1024xi32> loc(#loc22)
    tt.store %37, %spike_183, %mask_6 : tensor<1024x!tt.ptr<f32>> loc(#loc23)
    %y_t_188 = tt.addptr %y_ptr, %c10436608_i32 : !tt.ptr<f32>, i32 loc(#loc53)
    %y_t_189 = tt.splat %y_t_188 : !tt.ptr<f32> -> tensor<1024x!tt.ptr<f32>> loc(#loc42)
    %y_t_190 = tt.addptr %y_t_189, %ncl_idx_5 : tensor<1024x!tt.ptr<f32>>, tensor<1024xi32> loc(#loc42)
    %y_t_191 = tt.load %y_t_190, %mask_6, %cst_1 : tensor<1024x!tt.ptr<f32>> loc(#loc43)
    %v_192 = arith.mulf %v_187, %cst_0 : tensor<1024xf32> loc(#loc54)
    %v_193 = arith.addf %y_t_191, %bias_10 : tensor<1024xf32> loc(#loc44)
    %v_194 = arith.mulf %v_193, %cst_0 : tensor<1024xf32> loc(#loc45)
    %v_195 = arith.addf %v_192, %v_194 : tensor<1024xf32> loc(#loc46)
    %spike_196 = arith.cmpf oge, %v_195, %cst : tensor<1024xf32> loc(#loc47)
    %spike_197 = arith.uitofp %spike_196 : tensor<1024xi1> to tensor<1024xf32> loc(#loc48)
    %v_198 = arith.subf %cst, %spike_197 : tensor<1024xf32> loc(#loc49)
    %v_199 = arith.mulf %v_195, %v_198 : tensor<1024xf32> loc(#loc50)
    %v_200 = arith.mulf %spike_197, %cst_1 : tensor<1024xf32> loc(#loc51)
    %v_201 = arith.addf %v_199, %v_200 : tensor<1024xf32> loc(#loc52)
    %38 = tt.addptr %spike_ptr, %c10436608_i32 : !tt.ptr<f32>, i32 loc(#loc26)
    %39 = tt.splat %38 : !tt.ptr<f32> -> tensor<1024x!tt.ptr<f32>> loc(#loc22)
    %40 = tt.addptr %39, %ncl_idx_5 : tensor<1024x!tt.ptr<f32>>, tensor<1024xi32> loc(#loc22)
    tt.store %40, %spike_197, %mask_6 : tensor<1024x!tt.ptr<f32>> loc(#loc23)
    %y_t_202 = tt.addptr %y_ptr, %c11239424_i32 : !tt.ptr<f32>, i32 loc(#loc53)
    %y_t_203 = tt.splat %y_t_202 : !tt.ptr<f32> -> tensor<1024x!tt.ptr<f32>> loc(#loc42)
    %y_t_204 = tt.addptr %y_t_203, %ncl_idx_5 : tensor<1024x!tt.ptr<f32>>, tensor<1024xi32> loc(#loc42)
    %y_t_205 = tt.load %y_t_204, %mask_6, %cst_1 : tensor<1024x!tt.ptr<f32>> loc(#loc43)
    %v_206 = arith.mulf %v_201, %cst_0 : tensor<1024xf32> loc(#loc54)
    %v_207 = arith.addf %y_t_205, %bias_10 : tensor<1024xf32> loc(#loc44)
    %v_208 = arith.mulf %v_207, %cst_0 : tensor<1024xf32> loc(#loc45)
    %v_209 = arith.addf %v_206, %v_208 : tensor<1024xf32> loc(#loc46)
    %spike_210 = arith.cmpf oge, %v_209, %cst : tensor<1024xf32> loc(#loc47)
    %spike_211 = arith.uitofp %spike_210 : tensor<1024xi1> to tensor<1024xf32> loc(#loc48)
    %v_212 = arith.subf %cst, %spike_211 : tensor<1024xf32> loc(#loc49)
    %v_213 = arith.mulf %v_209, %v_212 : tensor<1024xf32> loc(#loc50)
    %v_214 = arith.mulf %spike_211, %cst_1 : tensor<1024xf32> loc(#loc51)
    %v_215 = arith.addf %v_213, %v_214 : tensor<1024xf32> loc(#loc52)
    %41 = tt.addptr %spike_ptr, %c11239424_i32 : !tt.ptr<f32>, i32 loc(#loc26)
    %42 = tt.splat %41 : !tt.ptr<f32> -> tensor<1024x!tt.ptr<f32>> loc(#loc22)
    %43 = tt.addptr %42, %ncl_idx_5 : tensor<1024x!tt.ptr<f32>>, tensor<1024xi32> loc(#loc22)
    tt.store %43, %spike_211, %mask_6 : tensor<1024x!tt.ptr<f32>> loc(#loc23)
    %y_t_216 = tt.addptr %y_ptr, %c12042240_i32 : !tt.ptr<f32>, i32 loc(#loc53)
    %y_t_217 = tt.splat %y_t_216 : !tt.ptr<f32> -> tensor<1024x!tt.ptr<f32>> loc(#loc42)
    %y_t_218 = tt.addptr %y_t_217, %ncl_idx_5 : tensor<1024x!tt.ptr<f32>>, tensor<1024xi32> loc(#loc42)
    %y_t_219 = tt.load %y_t_218, %mask_6, %cst_1 : tensor<1024x!tt.ptr<f32>> loc(#loc43)
    %v_220 = arith.mulf %v_215, %cst_0 : tensor<1024xf32> loc(#loc54)
    %v_221 = arith.addf %y_t_219, %bias_10 : tensor<1024xf32> loc(#loc44)
    %v_222 = arith.mulf %v_221, %cst_0 : tensor<1024xf32> loc(#loc45)
    %v_223 = arith.addf %v_220, %v_222 : tensor<1024xf32> loc(#loc46)
    %spike_224 = arith.cmpf oge, %v_223, %cst : tensor<1024xf32> loc(#loc47)
    %spike_225 = arith.uitofp %spike_224 : tensor<1024xi1> to tensor<1024xf32> loc(#loc48)
    %v_226 = arith.subf %cst, %spike_225 : tensor<1024xf32> loc(#loc49)
    %v_227 = arith.mulf %v_223, %v_226 : tensor<1024xf32> loc(#loc50)
    %v_228 = arith.mulf %spike_225, %cst_1 : tensor<1024xf32> loc(#loc51)
    %v_229 = arith.addf %v_227, %v_228 : tensor<1024xf32> loc(#loc52)
    %44 = tt.addptr %spike_ptr, %c12042240_i32 : !tt.ptr<f32>, i32 loc(#loc26)
    %45 = tt.splat %44 : !tt.ptr<f32> -> tensor<1024x!tt.ptr<f32>> loc(#loc22)
    %46 = tt.addptr %45, %ncl_idx_5 : tensor<1024x!tt.ptr<f32>>, tensor<1024xi32> loc(#loc22)
    tt.store %46, %spike_225, %mask_6 : tensor<1024x!tt.ptr<f32>> loc(#loc23)
    %y_t_230 = tt.addptr %y_ptr, %c12845056_i32 : !tt.ptr<f32>, i32 loc(#loc53)
    %y_t_231 = tt.splat %y_t_230 : !tt.ptr<f32> -> tensor<1024x!tt.ptr<f32>> loc(#loc42)
    %y_t_232 = tt.addptr %y_t_231, %ncl_idx_5 : tensor<1024x!tt.ptr<f32>>, tensor<1024xi32> loc(#loc42)
    %y_t_233 = tt.load %y_t_232, %mask_6, %cst_1 : tensor<1024x!tt.ptr<f32>> loc(#loc43)
    %v_234 = arith.mulf %v_229, %cst_0 : tensor<1024xf32> loc(#loc54)
    %v_235 = arith.addf %y_t_233, %bias_10 : tensor<1024xf32> loc(#loc44)
    %v_236 = arith.mulf %v_235, %cst_0 : tensor<1024xf32> loc(#loc45)
    %v_237 = arith.addf %v_234, %v_236 : tensor<1024xf32> loc(#loc46)
    %spike_238 = arith.cmpf oge, %v_237, %cst : tensor<1024xf32> loc(#loc47)
    %spike_239 = arith.uitofp %spike_238 : tensor<1024xi1> to tensor<1024xf32> loc(#loc48)
    %v_240 = arith.subf %cst, %spike_239 : tensor<1024xf32> loc(#loc49)
    %v_241 = arith.mulf %v_237, %v_240 : tensor<1024xf32> loc(#loc50)
    %v_242 = arith.mulf %spike_239, %cst_1 : tensor<1024xf32> loc(#loc51)
    %v_243 = arith.addf %v_241, %v_242 : tensor<1024xf32> loc(#loc52)
    %47 = tt.addptr %spike_ptr, %c12845056_i32 : !tt.ptr<f32>, i32 loc(#loc26)
    %48 = tt.splat %47 : !tt.ptr<f32> -> tensor<1024x!tt.ptr<f32>> loc(#loc22)
    %49 = tt.addptr %48, %ncl_idx_5 : tensor<1024x!tt.ptr<f32>>, tensor<1024xi32> loc(#loc22)
    tt.store %49, %spike_239, %mask_6 : tensor<1024x!tt.ptr<f32>> loc(#loc23)
    %y_t_244 = tt.addptr %y_ptr, %c13647872_i32 : !tt.ptr<f32>, i32 loc(#loc53)
    %y_t_245 = tt.splat %y_t_244 : !tt.ptr<f32> -> tensor<1024x!tt.ptr<f32>> loc(#loc42)
    %y_t_246 = tt.addptr %y_t_245, %ncl_idx_5 : tensor<1024x!tt.ptr<f32>>, tensor<1024xi32> loc(#loc42)
    %y_t_247 = tt.load %y_t_246, %mask_6, %cst_1 : tensor<1024x!tt.ptr<f32>> loc(#loc43)
    %v_248 = arith.mulf %v_243, %cst_0 : tensor<1024xf32> loc(#loc54)
    %v_249 = arith.addf %y_t_247, %bias_10 : tensor<1024xf32> loc(#loc44)
    %v_250 = arith.mulf %v_249, %cst_0 : tensor<1024xf32> loc(#loc45)
    %v_251 = arith.addf %v_248, %v_250 : tensor<1024xf32> loc(#loc46)
    %spike_252 = arith.cmpf oge, %v_251, %cst : tensor<1024xf32> loc(#loc47)
    %spike_253 = arith.uitofp %spike_252 : tensor<1024xi1> to tensor<1024xf32> loc(#loc48)
    %v_254 = arith.subf %cst, %spike_253 : tensor<1024xf32> loc(#loc49)
    %v_255 = arith.mulf %v_251, %v_254 : tensor<1024xf32> loc(#loc50)
    %v_256 = arith.mulf %spike_253, %cst_1 : tensor<1024xf32> loc(#loc51)
    %v_257 = arith.addf %v_255, %v_256 : tensor<1024xf32> loc(#loc52)
    %50 = tt.addptr %spike_ptr, %c13647872_i32 : !tt.ptr<f32>, i32 loc(#loc26)
    %51 = tt.splat %50 : !tt.ptr<f32> -> tensor<1024x!tt.ptr<f32>> loc(#loc22)
    %52 = tt.addptr %51, %ncl_idx_5 : tensor<1024x!tt.ptr<f32>>, tensor<1024xi32> loc(#loc22)
    tt.store %52, %spike_253, %mask_6 : tensor<1024x!tt.ptr<f32>> loc(#loc23)
    %y_t_258 = tt.addptr %y_ptr, %c14450688_i32 : !tt.ptr<f32>, i32 loc(#loc53)
    %y_t_259 = tt.splat %y_t_258 : !tt.ptr<f32> -> tensor<1024x!tt.ptr<f32>> loc(#loc42)
    %y_t_260 = tt.addptr %y_t_259, %ncl_idx_5 : tensor<1024x!tt.ptr<f32>>, tensor<1024xi32> loc(#loc42)
    %y_t_261 = tt.load %y_t_260, %mask_6, %cst_1 : tensor<1024x!tt.ptr<f32>> loc(#loc43)
    %v_262 = arith.mulf %v_257, %cst_0 : tensor<1024xf32> loc(#loc54)
    %v_263 = arith.addf %y_t_261, %bias_10 : tensor<1024xf32> loc(#loc44)
    %v_264 = arith.mulf %v_263, %cst_0 : tensor<1024xf32> loc(#loc45)
    %v_265 = arith.addf %v_262, %v_264 : tensor<1024xf32> loc(#loc46)
    %spike_266 = arith.cmpf oge, %v_265, %cst : tensor<1024xf32> loc(#loc47)
    %spike_267 = arith.uitofp %spike_266 : tensor<1024xi1> to tensor<1024xf32> loc(#loc48)
    %v_268 = arith.subf %cst, %spike_267 : tensor<1024xf32> loc(#loc49)
    %v_269 = arith.mulf %v_265, %v_268 : tensor<1024xf32> loc(#loc50)
    %v_270 = arith.mulf %spike_267, %cst_1 : tensor<1024xf32> loc(#loc51)
    %v_271 = arith.addf %v_269, %v_270 : tensor<1024xf32> loc(#loc52)
    %53 = tt.addptr %spike_ptr, %c14450688_i32 : !tt.ptr<f32>, i32 loc(#loc26)
    %54 = tt.splat %53 : !tt.ptr<f32> -> tensor<1024x!tt.ptr<f32>> loc(#loc22)
    %55 = tt.addptr %54, %ncl_idx_5 : tensor<1024x!tt.ptr<f32>>, tensor<1024xi32> loc(#loc22)
    tt.store %55, %spike_267, %mask_6 : tensor<1024x!tt.ptr<f32>> loc(#loc23)
    %y_t_272 = tt.addptr %y_ptr, %c15253504_i32 : !tt.ptr<f32>, i32 loc(#loc53)
    %y_t_273 = tt.splat %y_t_272 : !tt.ptr<f32> -> tensor<1024x!tt.ptr<f32>> loc(#loc42)
    %y_t_274 = tt.addptr %y_t_273, %ncl_idx_5 : tensor<1024x!tt.ptr<f32>>, tensor<1024xi32> loc(#loc42)
    %y_t_275 = tt.load %y_t_274, %mask_6, %cst_1 : tensor<1024x!tt.ptr<f32>> loc(#loc43)
    %v_276 = arith.mulf %v_271, %cst_0 : tensor<1024xf32> loc(#loc54)
    %v_277 = arith.addf %y_t_275, %bias_10 : tensor<1024xf32> loc(#loc44)
    %v_278 = arith.mulf %v_277, %cst_0 : tensor<1024xf32> loc(#loc45)
    %v_279 = arith.addf %v_276, %v_278 : tensor<1024xf32> loc(#loc46)
    %spike_280 = arith.cmpf oge, %v_279, %cst : tensor<1024xf32> loc(#loc47)
    %spike_281 = arith.uitofp %spike_280 : tensor<1024xi1> to tensor<1024xf32> loc(#loc48)
    %v_282 = arith.subf %cst, %spike_281 : tensor<1024xf32> loc(#loc49)
    %v_283 = arith.mulf %v_279, %v_282 : tensor<1024xf32> loc(#loc50)
    %v_284 = arith.mulf %spike_281, %cst_1 : tensor<1024xf32> loc(#loc51)
    %v_285 = arith.addf %v_283, %v_284 : tensor<1024xf32> loc(#loc52)
    %56 = tt.addptr %spike_ptr, %c15253504_i32 : !tt.ptr<f32>, i32 loc(#loc26)
    %57 = tt.splat %56 : !tt.ptr<f32> -> tensor<1024x!tt.ptr<f32>> loc(#loc22)
    %58 = tt.addptr %57, %ncl_idx_5 : tensor<1024x!tt.ptr<f32>>, tensor<1024xi32> loc(#loc22)
    tt.store %58, %spike_281, %mask_6 : tensor<1024x!tt.ptr<f32>> loc(#loc23)
    %y_t_286 = tt.addptr %y_ptr, %c16056320_i32 : !tt.ptr<f32>, i32 loc(#loc53)
    %y_t_287 = tt.splat %y_t_286 : !tt.ptr<f32> -> tensor<1024x!tt.ptr<f32>> loc(#loc42)
    %y_t_288 = tt.addptr %y_t_287, %ncl_idx_5 : tensor<1024x!tt.ptr<f32>>, tensor<1024xi32> loc(#loc42)
    %y_t_289 = tt.load %y_t_288, %mask_6, %cst_1 : tensor<1024x!tt.ptr<f32>> loc(#loc43)
    %v_290 = arith.mulf %v_285, %cst_0 : tensor<1024xf32> loc(#loc54)
    %v_291 = arith.addf %y_t_289, %bias_10 : tensor<1024xf32> loc(#loc44)
    %v_292 = arith.mulf %v_291, %cst_0 : tensor<1024xf32> loc(#loc45)
    %v_293 = arith.addf %v_290, %v_292 : tensor<1024xf32> loc(#loc46)
    %spike_294 = arith.cmpf oge, %v_293, %cst : tensor<1024xf32> loc(#loc47)
    %spike_295 = arith.uitofp %spike_294 : tensor<1024xi1> to tensor<1024xf32> loc(#loc48)
    %v_296 = arith.subf %cst, %spike_295 : tensor<1024xf32> loc(#loc49)
    %v_297 = arith.mulf %v_293, %v_296 : tensor<1024xf32> loc(#loc50)
    %v_298 = arith.mulf %spike_295, %cst_1 : tensor<1024xf32> loc(#loc51)
    %v_299 = arith.addf %v_297, %v_298 : tensor<1024xf32> loc(#loc52)
    %59 = tt.addptr %spike_ptr, %c16056320_i32 : !tt.ptr<f32>, i32 loc(#loc26)
    %60 = tt.splat %59 : !tt.ptr<f32> -> tensor<1024x!tt.ptr<f32>> loc(#loc22)
    %61 = tt.addptr %60, %ncl_idx_5 : tensor<1024x!tt.ptr<f32>>, tensor<1024xi32> loc(#loc22)
    tt.store %61, %spike_295, %mask_6 : tensor<1024x!tt.ptr<f32>> loc(#loc23)
    %y_t_300 = tt.addptr %y_ptr, %c16859136_i32 : !tt.ptr<f32>, i32 loc(#loc53)
    %y_t_301 = tt.splat %y_t_300 : !tt.ptr<f32> -> tensor<1024x!tt.ptr<f32>> loc(#loc42)
    %y_t_302 = tt.addptr %y_t_301, %ncl_idx_5 : tensor<1024x!tt.ptr<f32>>, tensor<1024xi32> loc(#loc42)
    %y_t_303 = tt.load %y_t_302, %mask_6, %cst_1 : tensor<1024x!tt.ptr<f32>> loc(#loc43)
    %v_304 = arith.mulf %v_299, %cst_0 : tensor<1024xf32> loc(#loc54)
    %v_305 = arith.addf %y_t_303, %bias_10 : tensor<1024xf32> loc(#loc44)
    %v_306 = arith.mulf %v_305, %cst_0 : tensor<1024xf32> loc(#loc45)
    %v_307 = arith.addf %v_304, %v_306 : tensor<1024xf32> loc(#loc46)
    %spike_308 = arith.cmpf oge, %v_307, %cst : tensor<1024xf32> loc(#loc47)
    %spike_309 = arith.uitofp %spike_308 : tensor<1024xi1> to tensor<1024xf32> loc(#loc48)
    %v_310 = arith.subf %cst, %spike_309 : tensor<1024xf32> loc(#loc49)
    %v_311 = arith.mulf %v_307, %v_310 : tensor<1024xf32> loc(#loc50)
    %v_312 = arith.mulf %spike_309, %cst_1 : tensor<1024xf32> loc(#loc51)
    %v_313 = arith.addf %v_311, %v_312 : tensor<1024xf32> loc(#loc52)
    %62 = tt.addptr %spike_ptr, %c16859136_i32 : !tt.ptr<f32>, i32 loc(#loc26)
    %63 = tt.splat %62 : !tt.ptr<f32> -> tensor<1024x!tt.ptr<f32>> loc(#loc22)
    %64 = tt.addptr %63, %ncl_idx_5 : tensor<1024x!tt.ptr<f32>>, tensor<1024xi32> loc(#loc22)
    tt.store %64, %spike_309, %mask_6 : tensor<1024x!tt.ptr<f32>> loc(#loc23)
    %y_t_314 = tt.addptr %y_ptr, %c17661952_i32 : !tt.ptr<f32>, i32 loc(#loc53)
    %y_t_315 = tt.splat %y_t_314 : !tt.ptr<f32> -> tensor<1024x!tt.ptr<f32>> loc(#loc42)
    %y_t_316 = tt.addptr %y_t_315, %ncl_idx_5 : tensor<1024x!tt.ptr<f32>>, tensor<1024xi32> loc(#loc42)
    %y_t_317 = tt.load %y_t_316, %mask_6, %cst_1 : tensor<1024x!tt.ptr<f32>> loc(#loc43)
    %v_318 = arith.mulf %v_313, %cst_0 : tensor<1024xf32> loc(#loc54)
    %v_319 = arith.addf %y_t_317, %bias_10 : tensor<1024xf32> loc(#loc44)
    %v_320 = arith.mulf %v_319, %cst_0 : tensor<1024xf32> loc(#loc45)
    %v_321 = arith.addf %v_318, %v_320 : tensor<1024xf32> loc(#loc46)
    %spike_322 = arith.cmpf oge, %v_321, %cst : tensor<1024xf32> loc(#loc47)
    %spike_323 = arith.uitofp %spike_322 : tensor<1024xi1> to tensor<1024xf32> loc(#loc48)
    %v_324 = arith.subf %cst, %spike_323 : tensor<1024xf32> loc(#loc49)
    %v_325 = arith.mulf %v_321, %v_324 : tensor<1024xf32> loc(#loc50)
    %v_326 = arith.mulf %spike_323, %cst_1 : tensor<1024xf32> loc(#loc51)
    %v_327 = arith.addf %v_325, %v_326 : tensor<1024xf32> loc(#loc52)
    %65 = tt.addptr %spike_ptr, %c17661952_i32 : !tt.ptr<f32>, i32 loc(#loc26)
    %66 = tt.splat %65 : !tt.ptr<f32> -> tensor<1024x!tt.ptr<f32>> loc(#loc22)
    %67 = tt.addptr %66, %ncl_idx_5 : tensor<1024x!tt.ptr<f32>>, tensor<1024xi32> loc(#loc22)
    tt.store %67, %spike_323, %mask_6 : tensor<1024x!tt.ptr<f32>> loc(#loc23)
    %y_t_328 = tt.addptr %y_ptr, %c18464768_i32 : !tt.ptr<f32>, i32 loc(#loc53)
    %y_t_329 = tt.splat %y_t_328 : !tt.ptr<f32> -> tensor<1024x!tt.ptr<f32>> loc(#loc42)
    %y_t_330 = tt.addptr %y_t_329, %ncl_idx_5 : tensor<1024x!tt.ptr<f32>>, tensor<1024xi32> loc(#loc42)
    %y_t_331 = tt.load %y_t_330, %mask_6, %cst_1 : tensor<1024x!tt.ptr<f32>> loc(#loc43)
    %v_332 = arith.mulf %v_327, %cst_0 : tensor<1024xf32> loc(#loc54)
    %v_333 = arith.addf %y_t_331, %bias_10 : tensor<1024xf32> loc(#loc44)
    %v_334 = arith.mulf %v_333, %cst_0 : tensor<1024xf32> loc(#loc45)
    %v_335 = arith.addf %v_332, %v_334 : tensor<1024xf32> loc(#loc46)
    %spike_336 = arith.cmpf oge, %v_335, %cst : tensor<1024xf32> loc(#loc47)
    %spike_337 = arith.uitofp %spike_336 : tensor<1024xi1> to tensor<1024xf32> loc(#loc48)
    %v_338 = arith.subf %cst, %spike_337 : tensor<1024xf32> loc(#loc49)
    %v_339 = arith.mulf %v_335, %v_338 : tensor<1024xf32> loc(#loc50)
    %v_340 = arith.mulf %spike_337, %cst_1 : tensor<1024xf32> loc(#loc51)
    %v_341 = arith.addf %v_339, %v_340 : tensor<1024xf32> loc(#loc52)
    %68 = tt.addptr %spike_ptr, %c18464768_i32 : !tt.ptr<f32>, i32 loc(#loc26)
    %69 = tt.splat %68 : !tt.ptr<f32> -> tensor<1024x!tt.ptr<f32>> loc(#loc22)
    %70 = tt.addptr %69, %ncl_idx_5 : tensor<1024x!tt.ptr<f32>>, tensor<1024xi32> loc(#loc22)
    tt.store %70, %spike_337, %mask_6 : tensor<1024x!tt.ptr<f32>> loc(#loc23)
    %y_t_342 = tt.addptr %y_ptr, %c19267584_i32 : !tt.ptr<f32>, i32 loc(#loc53)
    %y_t_343 = tt.splat %y_t_342 : !tt.ptr<f32> -> tensor<1024x!tt.ptr<f32>> loc(#loc42)
    %y_t_344 = tt.addptr %y_t_343, %ncl_idx_5 : tensor<1024x!tt.ptr<f32>>, tensor<1024xi32> loc(#loc42)
    %y_t_345 = tt.load %y_t_344, %mask_6, %cst_1 : tensor<1024x!tt.ptr<f32>> loc(#loc43)
    %v_346 = arith.mulf %v_341, %cst_0 : tensor<1024xf32> loc(#loc54)
    %v_347 = arith.addf %y_t_345, %bias_10 : tensor<1024xf32> loc(#loc44)
    %v_348 = arith.mulf %v_347, %cst_0 : tensor<1024xf32> loc(#loc45)
    %v_349 = arith.addf %v_346, %v_348 : tensor<1024xf32> loc(#loc46)
    %spike_350 = arith.cmpf oge, %v_349, %cst : tensor<1024xf32> loc(#loc47)
    %spike_351 = arith.uitofp %spike_350 : tensor<1024xi1> to tensor<1024xf32> loc(#loc48)
    %v_352 = arith.subf %cst, %spike_351 : tensor<1024xf32> loc(#loc49)
    %v_353 = arith.mulf %v_349, %v_352 : tensor<1024xf32> loc(#loc50)
    %v_354 = arith.mulf %spike_351, %cst_1 : tensor<1024xf32> loc(#loc51)
    %v_355 = arith.addf %v_353, %v_354 : tensor<1024xf32> loc(#loc52)
    %71 = tt.addptr %spike_ptr, %c19267584_i32 : !tt.ptr<f32>, i32 loc(#loc26)
    %72 = tt.splat %71 : !tt.ptr<f32> -> tensor<1024x!tt.ptr<f32>> loc(#loc22)
    %73 = tt.addptr %72, %ncl_idx_5 : tensor<1024x!tt.ptr<f32>>, tensor<1024xi32> loc(#loc22)
    tt.store %73, %spike_351, %mask_6 : tensor<1024x!tt.ptr<f32>> loc(#loc23)
    %y_t_356 = tt.addptr %y_ptr, %c20070400_i32 : !tt.ptr<f32>, i32 loc(#loc53)
    %y_t_357 = tt.splat %y_t_356 : !tt.ptr<f32> -> tensor<1024x!tt.ptr<f32>> loc(#loc42)
    %y_t_358 = tt.addptr %y_t_357, %ncl_idx_5 : tensor<1024x!tt.ptr<f32>>, tensor<1024xi32> loc(#loc42)
    %y_t_359 = tt.load %y_t_358, %mask_6, %cst_1 : tensor<1024x!tt.ptr<f32>> loc(#loc43)
    %v_360 = arith.mulf %v_355, %cst_0 : tensor<1024xf32> loc(#loc54)
    %v_361 = arith.addf %y_t_359, %bias_10 : tensor<1024xf32> loc(#loc44)
    %v_362 = arith.mulf %v_361, %cst_0 : tensor<1024xf32> loc(#loc45)
    %v_363 = arith.addf %v_360, %v_362 : tensor<1024xf32> loc(#loc46)
    %spike_364 = arith.cmpf oge, %v_363, %cst : tensor<1024xf32> loc(#loc47)
    %spike_365 = arith.uitofp %spike_364 : tensor<1024xi1> to tensor<1024xf32> loc(#loc48)
    %v_366 = arith.subf %cst, %spike_365 : tensor<1024xf32> loc(#loc49)
    %v_367 = arith.mulf %v_363, %v_366 : tensor<1024xf32> loc(#loc50)
    %v_368 = arith.mulf %spike_365, %cst_1 : tensor<1024xf32> loc(#loc51)
    %v_369 = arith.addf %v_367, %v_368 : tensor<1024xf32> loc(#loc52)
    %74 = tt.addptr %spike_ptr, %c20070400_i32 : !tt.ptr<f32>, i32 loc(#loc26)
    %75 = tt.splat %74 : !tt.ptr<f32> -> tensor<1024x!tt.ptr<f32>> loc(#loc22)
    %76 = tt.addptr %75, %ncl_idx_5 : tensor<1024x!tt.ptr<f32>>, tensor<1024xi32> loc(#loc22)
    tt.store %76, %spike_365, %mask_6 : tensor<1024x!tt.ptr<f32>> loc(#loc23)
    %y_t_370 = tt.addptr %y_ptr, %c20873216_i32 : !tt.ptr<f32>, i32 loc(#loc53)
    %y_t_371 = tt.splat %y_t_370 : !tt.ptr<f32> -> tensor<1024x!tt.ptr<f32>> loc(#loc42)
    %y_t_372 = tt.addptr %y_t_371, %ncl_idx_5 : tensor<1024x!tt.ptr<f32>>, tensor<1024xi32> loc(#loc42)
    %y_t_373 = tt.load %y_t_372, %mask_6, %cst_1 : tensor<1024x!tt.ptr<f32>> loc(#loc43)
    %v_374 = arith.mulf %v_369, %cst_0 : tensor<1024xf32> loc(#loc54)
    %v_375 = arith.addf %y_t_373, %bias_10 : tensor<1024xf32> loc(#loc44)
    %v_376 = arith.mulf %v_375, %cst_0 : tensor<1024xf32> loc(#loc45)
    %v_377 = arith.addf %v_374, %v_376 : tensor<1024xf32> loc(#loc46)
    %spike_378 = arith.cmpf oge, %v_377, %cst : tensor<1024xf32> loc(#loc47)
    %spike_379 = arith.uitofp %spike_378 : tensor<1024xi1> to tensor<1024xf32> loc(#loc48)
    %v_380 = arith.subf %cst, %spike_379 : tensor<1024xf32> loc(#loc49)
    %v_381 = arith.mulf %v_377, %v_380 : tensor<1024xf32> loc(#loc50)
    %v_382 = arith.mulf %spike_379, %cst_1 : tensor<1024xf32> loc(#loc51)
    %v_383 = arith.addf %v_381, %v_382 : tensor<1024xf32> loc(#loc52)
    %77 = tt.addptr %spike_ptr, %c20873216_i32 : !tt.ptr<f32>, i32 loc(#loc26)
    %78 = tt.splat %77 : !tt.ptr<f32> -> tensor<1024x!tt.ptr<f32>> loc(#loc22)
    %79 = tt.addptr %78, %ncl_idx_5 : tensor<1024x!tt.ptr<f32>>, tensor<1024xi32> loc(#loc22)
    tt.store %79, %spike_379, %mask_6 : tensor<1024x!tt.ptr<f32>> loc(#loc23)
    %y_t_384 = tt.addptr %y_ptr, %c21676032_i32 : !tt.ptr<f32>, i32 loc(#loc53)
    %y_t_385 = tt.splat %y_t_384 : !tt.ptr<f32> -> tensor<1024x!tt.ptr<f32>> loc(#loc42)
    %y_t_386 = tt.addptr %y_t_385, %ncl_idx_5 : tensor<1024x!tt.ptr<f32>>, tensor<1024xi32> loc(#loc42)
    %y_t_387 = tt.load %y_t_386, %mask_6, %cst_1 : tensor<1024x!tt.ptr<f32>> loc(#loc43)
    %v_388 = arith.mulf %v_383, %cst_0 : tensor<1024xf32> loc(#loc54)
    %v_389 = arith.addf %y_t_387, %bias_10 : tensor<1024xf32> loc(#loc44)
    %v_390 = arith.mulf %v_389, %cst_0 : tensor<1024xf32> loc(#loc45)
    %v_391 = arith.addf %v_388, %v_390 : tensor<1024xf32> loc(#loc46)
    %spike_392 = arith.cmpf oge, %v_391, %cst : tensor<1024xf32> loc(#loc47)
    %spike_393 = arith.uitofp %spike_392 : tensor<1024xi1> to tensor<1024xf32> loc(#loc48)
    %v_394 = arith.subf %cst, %spike_393 : tensor<1024xf32> loc(#loc49)
    %v_395 = arith.mulf %v_391, %v_394 : tensor<1024xf32> loc(#loc50)
    %v_396 = arith.mulf %spike_393, %cst_1 : tensor<1024xf32> loc(#loc51)
    %v_397 = arith.addf %v_395, %v_396 : tensor<1024xf32> loc(#loc52)
    %80 = tt.addptr %spike_ptr, %c21676032_i32 : !tt.ptr<f32>, i32 loc(#loc26)
    %81 = tt.splat %80 : !tt.ptr<f32> -> tensor<1024x!tt.ptr<f32>> loc(#loc22)
    %82 = tt.addptr %81, %ncl_idx_5 : tensor<1024x!tt.ptr<f32>>, tensor<1024xi32> loc(#loc22)
    tt.store %82, %spike_393, %mask_6 : tensor<1024x!tt.ptr<f32>> loc(#loc23)
    %y_t_398 = tt.addptr %y_ptr, %c22478848_i32 : !tt.ptr<f32>, i32 loc(#loc53)
    %y_t_399 = tt.splat %y_t_398 : !tt.ptr<f32> -> tensor<1024x!tt.ptr<f32>> loc(#loc42)
    %y_t_400 = tt.addptr %y_t_399, %ncl_idx_5 : tensor<1024x!tt.ptr<f32>>, tensor<1024xi32> loc(#loc42)
    %y_t_401 = tt.load %y_t_400, %mask_6, %cst_1 : tensor<1024x!tt.ptr<f32>> loc(#loc43)
    %v_402 = arith.mulf %v_397, %cst_0 : tensor<1024xf32> loc(#loc54)
    %v_403 = arith.addf %y_t_401, %bias_10 : tensor<1024xf32> loc(#loc44)
    %v_404 = arith.mulf %v_403, %cst_0 : tensor<1024xf32> loc(#loc45)
    %v_405 = arith.addf %v_402, %v_404 : tensor<1024xf32> loc(#loc46)
    %spike_406 = arith.cmpf oge, %v_405, %cst : tensor<1024xf32> loc(#loc47)
    %spike_407 = arith.uitofp %spike_406 : tensor<1024xi1> to tensor<1024xf32> loc(#loc48)
    %v_408 = arith.subf %cst, %spike_407 : tensor<1024xf32> loc(#loc49)
    %v_409 = arith.mulf %v_405, %v_408 : tensor<1024xf32> loc(#loc50)
    %v_410 = arith.mulf %spike_407, %cst_1 : tensor<1024xf32> loc(#loc51)
    %v_411 = arith.addf %v_409, %v_410 : tensor<1024xf32> loc(#loc52)
    %83 = tt.addptr %spike_ptr, %c22478848_i32 : !tt.ptr<f32>, i32 loc(#loc26)
    %84 = tt.splat %83 : !tt.ptr<f32> -> tensor<1024x!tt.ptr<f32>> loc(#loc22)
    %85 = tt.addptr %84, %ncl_idx_5 : tensor<1024x!tt.ptr<f32>>, tensor<1024xi32> loc(#loc22)
    tt.store %85, %spike_407, %mask_6 : tensor<1024x!tt.ptr<f32>> loc(#loc23)
    %y_t_412 = tt.addptr %y_ptr, %c23281664_i32 : !tt.ptr<f32>, i32 loc(#loc53)
    %y_t_413 = tt.splat %y_t_412 : !tt.ptr<f32> -> tensor<1024x!tt.ptr<f32>> loc(#loc42)
    %y_t_414 = tt.addptr %y_t_413, %ncl_idx_5 : tensor<1024x!tt.ptr<f32>>, tensor<1024xi32> loc(#loc42)
    %y_t_415 = tt.load %y_t_414, %mask_6, %cst_1 : tensor<1024x!tt.ptr<f32>> loc(#loc43)
    %v_416 = arith.mulf %v_411, %cst_0 : tensor<1024xf32> loc(#loc54)
    %v_417 = arith.addf %y_t_415, %bias_10 : tensor<1024xf32> loc(#loc44)
    %v_418 = arith.mulf %v_417, %cst_0 : tensor<1024xf32> loc(#loc45)
    %v_419 = arith.addf %v_416, %v_418 : tensor<1024xf32> loc(#loc46)
    %spike_420 = arith.cmpf oge, %v_419, %cst : tensor<1024xf32> loc(#loc47)
    %spike_421 = arith.uitofp %spike_420 : tensor<1024xi1> to tensor<1024xf32> loc(#loc48)
    %v_422 = arith.subf %cst, %spike_421 : tensor<1024xf32> loc(#loc49)
    %v_423 = arith.mulf %v_419, %v_422 : tensor<1024xf32> loc(#loc50)
    %v_424 = arith.mulf %spike_421, %cst_1 : tensor<1024xf32> loc(#loc51)
    %v_425 = arith.addf %v_423, %v_424 : tensor<1024xf32> loc(#loc52)
    %86 = tt.addptr %spike_ptr, %c23281664_i32 : !tt.ptr<f32>, i32 loc(#loc26)
    %87 = tt.splat %86 : !tt.ptr<f32> -> tensor<1024x!tt.ptr<f32>> loc(#loc22)
    %88 = tt.addptr %87, %ncl_idx_5 : tensor<1024x!tt.ptr<f32>>, tensor<1024xi32> loc(#loc22)
    tt.store %88, %spike_421, %mask_6 : tensor<1024x!tt.ptr<f32>> loc(#loc23)
    %y_t_426 = tt.addptr %y_ptr, %c24084480_i32 : !tt.ptr<f32>, i32 loc(#loc53)
    %y_t_427 = tt.splat %y_t_426 : !tt.ptr<f32> -> tensor<1024x!tt.ptr<f32>> loc(#loc42)
    %y_t_428 = tt.addptr %y_t_427, %ncl_idx_5 : tensor<1024x!tt.ptr<f32>>, tensor<1024xi32> loc(#loc42)
    %y_t_429 = tt.load %y_t_428, %mask_6, %cst_1 : tensor<1024x!tt.ptr<f32>> loc(#loc43)
    %v_430 = arith.mulf %v_425, %cst_0 : tensor<1024xf32> loc(#loc54)
    %v_431 = arith.addf %y_t_429, %bias_10 : tensor<1024xf32> loc(#loc44)
    %v_432 = arith.mulf %v_431, %cst_0 : tensor<1024xf32> loc(#loc45)
    %v_433 = arith.addf %v_430, %v_432 : tensor<1024xf32> loc(#loc46)
    %spike_434 = arith.cmpf oge, %v_433, %cst : tensor<1024xf32> loc(#loc47)
    %spike_435 = arith.uitofp %spike_434 : tensor<1024xi1> to tensor<1024xf32> loc(#loc48)
    %v_436 = arith.subf %cst, %spike_435 : tensor<1024xf32> loc(#loc49)
    %v_437 = arith.mulf %v_433, %v_436 : tensor<1024xf32> loc(#loc50)
    %v_438 = arith.mulf %spike_435, %cst_1 : tensor<1024xf32> loc(#loc51)
    %v_439 = arith.addf %v_437, %v_438 : tensor<1024xf32> loc(#loc52)
    %89 = tt.addptr %spike_ptr, %c24084480_i32 : !tt.ptr<f32>, i32 loc(#loc26)
    %90 = tt.splat %89 : !tt.ptr<f32> -> tensor<1024x!tt.ptr<f32>> loc(#loc22)
    %91 = tt.addptr %90, %ncl_idx_5 : tensor<1024x!tt.ptr<f32>>, tensor<1024xi32> loc(#loc22)
    tt.store %91, %spike_435, %mask_6 : tensor<1024x!tt.ptr<f32>> loc(#loc23)
    %y_t_440 = tt.addptr %y_ptr, %c24887296_i32 : !tt.ptr<f32>, i32 loc(#loc53)
    %y_t_441 = tt.splat %y_t_440 : !tt.ptr<f32> -> tensor<1024x!tt.ptr<f32>> loc(#loc42)
    %y_t_442 = tt.addptr %y_t_441, %ncl_idx_5 : tensor<1024x!tt.ptr<f32>>, tensor<1024xi32> loc(#loc42)
    %y_t_443 = tt.load %y_t_442, %mask_6, %cst_1 : tensor<1024x!tt.ptr<f32>> loc(#loc43)
    %v_444 = arith.mulf %v_439, %cst_0 : tensor<1024xf32> loc(#loc54)
    %v_445 = arith.addf %y_t_443, %bias_10 : tensor<1024xf32> loc(#loc44)
    %v_446 = arith.mulf %v_445, %cst_0 : tensor<1024xf32> loc(#loc45)
    %v_447 = arith.addf %v_444, %v_446 : tensor<1024xf32> loc(#loc46)
    %spike_448 = arith.cmpf oge, %v_447, %cst : tensor<1024xf32> loc(#loc47)
    %spike_449 = arith.uitofp %spike_448 : tensor<1024xi1> to tensor<1024xf32> loc(#loc48)
    %v_450 = arith.subf %cst, %spike_449 : tensor<1024xf32> loc(#loc49)
    %v_451 = arith.mulf %v_447, %v_450 : tensor<1024xf32> loc(#loc50)
    %v_452 = arith.mulf %spike_449, %cst_1 : tensor<1024xf32> loc(#loc51)
    %v_453 = arith.addf %v_451, %v_452 : tensor<1024xf32> loc(#loc52)
    %92 = tt.addptr %spike_ptr, %c24887296_i32 : !tt.ptr<f32>, i32 loc(#loc26)
    %93 = tt.splat %92 : !tt.ptr<f32> -> tensor<1024x!tt.ptr<f32>> loc(#loc22)
    %94 = tt.addptr %93, %ncl_idx_5 : tensor<1024x!tt.ptr<f32>>, tensor<1024xi32> loc(#loc22)
    tt.store %94, %spike_449, %mask_6 : tensor<1024x!tt.ptr<f32>> loc(#loc23)
    %y_t_454 = tt.addptr %y_ptr, %c25690112_i32 : !tt.ptr<f32>, i32 loc(#loc53)
    %y_t_455 = tt.splat %y_t_454 : !tt.ptr<f32> -> tensor<1024x!tt.ptr<f32>> loc(#loc42)
    %y_t_456 = tt.addptr %y_t_455, %ncl_idx_5 : tensor<1024x!tt.ptr<f32>>, tensor<1024xi32> loc(#loc42)
    %y_t_457 = tt.load %y_t_456, %mask_6, %cst_1 : tensor<1024x!tt.ptr<f32>> loc(#loc43)
    %v_458 = arith.mulf %v_453, %cst_0 : tensor<1024xf32> loc(#loc54)
    %v_459 = arith.addf %y_t_457, %bias_10 : tensor<1024xf32> loc(#loc44)
    %v_460 = arith.mulf %v_459, %cst_0 : tensor<1024xf32> loc(#loc45)
    %v_461 = arith.addf %v_458, %v_460 : tensor<1024xf32> loc(#loc46)
    %spike_462 = arith.cmpf oge, %v_461, %cst : tensor<1024xf32> loc(#loc47)
    %spike_463 = arith.uitofp %spike_462 : tensor<1024xi1> to tensor<1024xf32> loc(#loc48)
    %v_464 = arith.subf %cst, %spike_463 : tensor<1024xf32> loc(#loc49)
    %v_465 = arith.mulf %v_461, %v_464 : tensor<1024xf32> loc(#loc50)
    %v_466 = arith.mulf %spike_463, %cst_1 : tensor<1024xf32> loc(#loc51)
    %v_467 = arith.addf %v_465, %v_466 : tensor<1024xf32> loc(#loc52)
    %95 = tt.addptr %spike_ptr, %c25690112_i32 : !tt.ptr<f32>, i32 loc(#loc26)
    %96 = tt.splat %95 : !tt.ptr<f32> -> tensor<1024x!tt.ptr<f32>> loc(#loc22)
    %97 = tt.addptr %96, %ncl_idx_5 : tensor<1024x!tt.ptr<f32>>, tensor<1024xi32> loc(#loc22)
    tt.store %97, %spike_463, %mask_6 : tensor<1024x!tt.ptr<f32>> loc(#loc23)
    %y_t_468 = tt.addptr %y_ptr, %c26492928_i32 : !tt.ptr<f32>, i32 loc(#loc53)
    %y_t_469 = tt.splat %y_t_468 : !tt.ptr<f32> -> tensor<1024x!tt.ptr<f32>> loc(#loc42)
    %y_t_470 = tt.addptr %y_t_469, %ncl_idx_5 : tensor<1024x!tt.ptr<f32>>, tensor<1024xi32> loc(#loc42)
    %y_t_471 = tt.load %y_t_470, %mask_6, %cst_1 : tensor<1024x!tt.ptr<f32>> loc(#loc43)
    %v_472 = arith.mulf %v_467, %cst_0 : tensor<1024xf32> loc(#loc54)
    %v_473 = arith.addf %y_t_471, %bias_10 : tensor<1024xf32> loc(#loc44)
    %v_474 = arith.mulf %v_473, %cst_0 : tensor<1024xf32> loc(#loc45)
    %v_475 = arith.addf %v_472, %v_474 : tensor<1024xf32> loc(#loc46)
    %spike_476 = arith.cmpf oge, %v_475, %cst : tensor<1024xf32> loc(#loc47)
    %spike_477 = arith.uitofp %spike_476 : tensor<1024xi1> to tensor<1024xf32> loc(#loc48)
    %v_478 = arith.subf %cst, %spike_477 : tensor<1024xf32> loc(#loc49)
    %v_479 = arith.mulf %v_475, %v_478 : tensor<1024xf32> loc(#loc50)
    %v_480 = arith.mulf %spike_477, %cst_1 : tensor<1024xf32> loc(#loc51)
    %v_481 = arith.addf %v_479, %v_480 : tensor<1024xf32> loc(#loc52)
    %98 = tt.addptr %spike_ptr, %c26492928_i32 : !tt.ptr<f32>, i32 loc(#loc26)
    %99 = tt.splat %98 : !tt.ptr<f32> -> tensor<1024x!tt.ptr<f32>> loc(#loc22)
    %100 = tt.addptr %99, %ncl_idx_5 : tensor<1024x!tt.ptr<f32>>, tensor<1024xi32> loc(#loc22)
    tt.store %100, %spike_477, %mask_6 : tensor<1024x!tt.ptr<f32>> loc(#loc23)
    %y_t_482 = tt.addptr %y_ptr, %c27295744_i32 : !tt.ptr<f32>, i32 loc(#loc53)
    %y_t_483 = tt.splat %y_t_482 : !tt.ptr<f32> -> tensor<1024x!tt.ptr<f32>> loc(#loc42)
    %y_t_484 = tt.addptr %y_t_483, %ncl_idx_5 : tensor<1024x!tt.ptr<f32>>, tensor<1024xi32> loc(#loc42)
    %y_t_485 = tt.load %y_t_484, %mask_6, %cst_1 : tensor<1024x!tt.ptr<f32>> loc(#loc43)
    %v_486 = arith.mulf %v_481, %cst_0 : tensor<1024xf32> loc(#loc54)
    %v_487 = arith.addf %y_t_485, %bias_10 : tensor<1024xf32> loc(#loc44)
    %v_488 = arith.mulf %v_487, %cst_0 : tensor<1024xf32> loc(#loc45)
    %v_489 = arith.addf %v_486, %v_488 : tensor<1024xf32> loc(#loc46)
    %spike_490 = arith.cmpf oge, %v_489, %cst : tensor<1024xf32> loc(#loc47)
    %spike_491 = arith.uitofp %spike_490 : tensor<1024xi1> to tensor<1024xf32> loc(#loc48)
    %v_492 = arith.subf %cst, %spike_491 : tensor<1024xf32> loc(#loc49)
    %v_493 = arith.mulf %v_489, %v_492 : tensor<1024xf32> loc(#loc50)
    %v_494 = arith.mulf %spike_491, %cst_1 : tensor<1024xf32> loc(#loc51)
    %v_495 = arith.addf %v_493, %v_494 : tensor<1024xf32> loc(#loc52)
    %101 = tt.addptr %spike_ptr, %c27295744_i32 : !tt.ptr<f32>, i32 loc(#loc26)
    %102 = tt.splat %101 : !tt.ptr<f32> -> tensor<1024x!tt.ptr<f32>> loc(#loc22)
    %103 = tt.addptr %102, %ncl_idx_5 : tensor<1024x!tt.ptr<f32>>, tensor<1024xi32> loc(#loc22)
    tt.store %103, %spike_491, %mask_6 : tensor<1024x!tt.ptr<f32>> loc(#loc23)
    %y_t_496 = tt.addptr %y_ptr, %c28098560_i32 : !tt.ptr<f32>, i32 loc(#loc53)
    %y_t_497 = tt.splat %y_t_496 : !tt.ptr<f32> -> tensor<1024x!tt.ptr<f32>> loc(#loc42)
    %y_t_498 = tt.addptr %y_t_497, %ncl_idx_5 : tensor<1024x!tt.ptr<f32>>, tensor<1024xi32> loc(#loc42)
    %y_t_499 = tt.load %y_t_498, %mask_6, %cst_1 : tensor<1024x!tt.ptr<f32>> loc(#loc43)
    %v_500 = arith.mulf %v_495, %cst_0 : tensor<1024xf32> loc(#loc54)
    %v_501 = arith.addf %y_t_499, %bias_10 : tensor<1024xf32> loc(#loc44)
    %v_502 = arith.mulf %v_501, %cst_0 : tensor<1024xf32> loc(#loc45)
    %v_503 = arith.addf %v_500, %v_502 : tensor<1024xf32> loc(#loc46)
    %spike_504 = arith.cmpf oge, %v_503, %cst : tensor<1024xf32> loc(#loc47)
    %spike_505 = arith.uitofp %spike_504 : tensor<1024xi1> to tensor<1024xf32> loc(#loc48)
    %v_506 = arith.subf %cst, %spike_505 : tensor<1024xf32> loc(#loc49)
    %v_507 = arith.mulf %v_503, %v_506 : tensor<1024xf32> loc(#loc50)
    %v_508 = arith.mulf %spike_505, %cst_1 : tensor<1024xf32> loc(#loc51)
    %v_509 = arith.addf %v_507, %v_508 : tensor<1024xf32> loc(#loc52)
    %104 = tt.addptr %spike_ptr, %c28098560_i32 : !tt.ptr<f32>, i32 loc(#loc26)
    %105 = tt.splat %104 : !tt.ptr<f32> -> tensor<1024x!tt.ptr<f32>> loc(#loc22)
    %106 = tt.addptr %105, %ncl_idx_5 : tensor<1024x!tt.ptr<f32>>, tensor<1024xi32> loc(#loc22)
    tt.store %106, %spike_505, %mask_6 : tensor<1024x!tt.ptr<f32>> loc(#loc23)
    %y_t_510 = tt.addptr %y_ptr, %c28901376_i32 : !tt.ptr<f32>, i32 loc(#loc53)
    %y_t_511 = tt.splat %y_t_510 : !tt.ptr<f32> -> tensor<1024x!tt.ptr<f32>> loc(#loc42)
    %y_t_512 = tt.addptr %y_t_511, %ncl_idx_5 : tensor<1024x!tt.ptr<f32>>, tensor<1024xi32> loc(#loc42)
    %y_t_513 = tt.load %y_t_512, %mask_6, %cst_1 : tensor<1024x!tt.ptr<f32>> loc(#loc43)
    %v_514 = arith.mulf %v_509, %cst_0 : tensor<1024xf32> loc(#loc54)
    %v_515 = arith.addf %y_t_513, %bias_10 : tensor<1024xf32> loc(#loc44)
    %v_516 = arith.mulf %v_515, %cst_0 : tensor<1024xf32> loc(#loc45)
    %v_517 = arith.addf %v_514, %v_516 : tensor<1024xf32> loc(#loc46)
    %spike_518 = arith.cmpf oge, %v_517, %cst : tensor<1024xf32> loc(#loc47)
    %spike_519 = arith.uitofp %spike_518 : tensor<1024xi1> to tensor<1024xf32> loc(#loc48)
    %v_520 = arith.subf %cst, %spike_519 : tensor<1024xf32> loc(#loc49)
    %v_521 = arith.mulf %v_517, %v_520 : tensor<1024xf32> loc(#loc50)
    %v_522 = arith.mulf %spike_519, %cst_1 : tensor<1024xf32> loc(#loc51)
    %v_523 = arith.addf %v_521, %v_522 : tensor<1024xf32> loc(#loc52)
    %107 = tt.addptr %spike_ptr, %c28901376_i32 : !tt.ptr<f32>, i32 loc(#loc26)
    %108 = tt.splat %107 : !tt.ptr<f32> -> tensor<1024x!tt.ptr<f32>> loc(#loc22)
    %109 = tt.addptr %108, %ncl_idx_5 : tensor<1024x!tt.ptr<f32>>, tensor<1024xi32> loc(#loc22)
    tt.store %109, %spike_519, %mask_6 : tensor<1024x!tt.ptr<f32>> loc(#loc23)
    %y_t_524 = tt.addptr %y_ptr, %c29704192_i32 : !tt.ptr<f32>, i32 loc(#loc53)
    %y_t_525 = tt.splat %y_t_524 : !tt.ptr<f32> -> tensor<1024x!tt.ptr<f32>> loc(#loc42)
    %y_t_526 = tt.addptr %y_t_525, %ncl_idx_5 : tensor<1024x!tt.ptr<f32>>, tensor<1024xi32> loc(#loc42)
    %y_t_527 = tt.load %y_t_526, %mask_6, %cst_1 : tensor<1024x!tt.ptr<f32>> loc(#loc43)
    %v_528 = arith.mulf %v_523, %cst_0 : tensor<1024xf32> loc(#loc54)
    %v_529 = arith.addf %y_t_527, %bias_10 : tensor<1024xf32> loc(#loc44)
    %v_530 = arith.mulf %v_529, %cst_0 : tensor<1024xf32> loc(#loc45)
    %v_531 = arith.addf %v_528, %v_530 : tensor<1024xf32> loc(#loc46)
    %spike_532 = arith.cmpf oge, %v_531, %cst : tensor<1024xf32> loc(#loc47)
    %spike_533 = arith.uitofp %spike_532 : tensor<1024xi1> to tensor<1024xf32> loc(#loc48)
    %v_534 = arith.subf %cst, %spike_533 : tensor<1024xf32> loc(#loc49)
    %v_535 = arith.mulf %v_531, %v_534 : tensor<1024xf32> loc(#loc50)
    %v_536 = arith.mulf %spike_533, %cst_1 : tensor<1024xf32> loc(#loc51)
    %v_537 = arith.addf %v_535, %v_536 : tensor<1024xf32> loc(#loc52)
    %110 = tt.addptr %spike_ptr, %c29704192_i32 : !tt.ptr<f32>, i32 loc(#loc26)
    %111 = tt.splat %110 : !tt.ptr<f32> -> tensor<1024x!tt.ptr<f32>> loc(#loc22)
    %112 = tt.addptr %111, %ncl_idx_5 : tensor<1024x!tt.ptr<f32>>, tensor<1024xi32> loc(#loc22)
    tt.store %112, %spike_533, %mask_6 : tensor<1024x!tt.ptr<f32>> loc(#loc23)
    %y_t_538 = tt.addptr %y_ptr, %c30507008_i32 : !tt.ptr<f32>, i32 loc(#loc53)
    %y_t_539 = tt.splat %y_t_538 : !tt.ptr<f32> -> tensor<1024x!tt.ptr<f32>> loc(#loc42)
    %y_t_540 = tt.addptr %y_t_539, %ncl_idx_5 : tensor<1024x!tt.ptr<f32>>, tensor<1024xi32> loc(#loc42)
    %y_t_541 = tt.load %y_t_540, %mask_6, %cst_1 : tensor<1024x!tt.ptr<f32>> loc(#loc43)
    %v_542 = arith.mulf %v_537, %cst_0 : tensor<1024xf32> loc(#loc54)
    %v_543 = arith.addf %y_t_541, %bias_10 : tensor<1024xf32> loc(#loc44)
    %v_544 = arith.mulf %v_543, %cst_0 : tensor<1024xf32> loc(#loc45)
    %v_545 = arith.addf %v_542, %v_544 : tensor<1024xf32> loc(#loc46)
    %spike_546 = arith.cmpf oge, %v_545, %cst : tensor<1024xf32> loc(#loc47)
    %spike_547 = arith.uitofp %spike_546 : tensor<1024xi1> to tensor<1024xf32> loc(#loc48)
    %v_548 = arith.subf %cst, %spike_547 : tensor<1024xf32> loc(#loc49)
    %v_549 = arith.mulf %v_545, %v_548 : tensor<1024xf32> loc(#loc50)
    %v_550 = arith.mulf %spike_547, %cst_1 : tensor<1024xf32> loc(#loc51)
    %v_551 = arith.addf %v_549, %v_550 : tensor<1024xf32> loc(#loc52)
    %113 = tt.addptr %spike_ptr, %c30507008_i32 : !tt.ptr<f32>, i32 loc(#loc26)
    %114 = tt.splat %113 : !tt.ptr<f32> -> tensor<1024x!tt.ptr<f32>> loc(#loc22)
    %115 = tt.addptr %114, %ncl_idx_5 : tensor<1024x!tt.ptr<f32>>, tensor<1024xi32> loc(#loc22)
    tt.store %115, %spike_547, %mask_6 : tensor<1024x!tt.ptr<f32>> loc(#loc23)
    %y_t_552 = tt.addptr %y_ptr, %c31309824_i32 : !tt.ptr<f32>, i32 loc(#loc53)
    %y_t_553 = tt.splat %y_t_552 : !tt.ptr<f32> -> tensor<1024x!tt.ptr<f32>> loc(#loc42)
    %y_t_554 = tt.addptr %y_t_553, %ncl_idx_5 : tensor<1024x!tt.ptr<f32>>, tensor<1024xi32> loc(#loc42)
    %y_t_555 = tt.load %y_t_554, %mask_6, %cst_1 : tensor<1024x!tt.ptr<f32>> loc(#loc43)
    %v_556 = arith.mulf %v_551, %cst_0 : tensor<1024xf32> loc(#loc54)
    %v_557 = arith.addf %y_t_555, %bias_10 : tensor<1024xf32> loc(#loc44)
    %v_558 = arith.mulf %v_557, %cst_0 : tensor<1024xf32> loc(#loc45)
    %v_559 = arith.addf %v_556, %v_558 : tensor<1024xf32> loc(#loc46)
    %spike_560 = arith.cmpf oge, %v_559, %cst : tensor<1024xf32> loc(#loc47)
    %spike_561 = arith.uitofp %spike_560 : tensor<1024xi1> to tensor<1024xf32> loc(#loc48)
    %v_562 = arith.subf %cst, %spike_561 : tensor<1024xf32> loc(#loc49)
    %v_563 = arith.mulf %v_559, %v_562 : tensor<1024xf32> loc(#loc50)
    %v_564 = arith.mulf %spike_561, %cst_1 : tensor<1024xf32> loc(#loc51)
    %v_565 = arith.addf %v_563, %v_564 : tensor<1024xf32> loc(#loc52)
    %116 = tt.addptr %spike_ptr, %c31309824_i32 : !tt.ptr<f32>, i32 loc(#loc26)
    %117 = tt.splat %116 : !tt.ptr<f32> -> tensor<1024x!tt.ptr<f32>> loc(#loc22)
    %118 = tt.addptr %117, %ncl_idx_5 : tensor<1024x!tt.ptr<f32>>, tensor<1024xi32> loc(#loc22)
    tt.store %118, %spike_561, %mask_6 : tensor<1024x!tt.ptr<f32>> loc(#loc23)
    %y_t_566 = tt.addptr %y_ptr, %c32112640_i32 : !tt.ptr<f32>, i32 loc(#loc53)
    %y_t_567 = tt.splat %y_t_566 : !tt.ptr<f32> -> tensor<1024x!tt.ptr<f32>> loc(#loc42)
    %y_t_568 = tt.addptr %y_t_567, %ncl_idx_5 : tensor<1024x!tt.ptr<f32>>, tensor<1024xi32> loc(#loc42)
    %y_t_569 = tt.load %y_t_568, %mask_6, %cst_1 : tensor<1024x!tt.ptr<f32>> loc(#loc43)
    %v_570 = arith.mulf %v_565, %cst_0 : tensor<1024xf32> loc(#loc54)
    %v_571 = arith.addf %y_t_569, %bias_10 : tensor<1024xf32> loc(#loc44)
    %v_572 = arith.mulf %v_571, %cst_0 : tensor<1024xf32> loc(#loc45)
    %v_573 = arith.addf %v_570, %v_572 : tensor<1024xf32> loc(#loc46)
    %spike_574 = arith.cmpf oge, %v_573, %cst : tensor<1024xf32> loc(#loc47)
    %spike_575 = arith.uitofp %spike_574 : tensor<1024xi1> to tensor<1024xf32> loc(#loc48)
    %v_576 = arith.subf %cst, %spike_575 : tensor<1024xf32> loc(#loc49)
    %v_577 = arith.mulf %v_573, %v_576 : tensor<1024xf32> loc(#loc50)
    %v_578 = arith.mulf %spike_575, %cst_1 : tensor<1024xf32> loc(#loc51)
    %v_579 = arith.addf %v_577, %v_578 : tensor<1024xf32> loc(#loc52)
    %119 = tt.addptr %spike_ptr, %c32112640_i32 : !tt.ptr<f32>, i32 loc(#loc26)
    %120 = tt.splat %119 : !tt.ptr<f32> -> tensor<1024x!tt.ptr<f32>> loc(#loc22)
    %121 = tt.addptr %120, %ncl_idx_5 : tensor<1024x!tt.ptr<f32>>, tensor<1024xi32> loc(#loc22)
    tt.store %121, %spike_575, %mask_6 : tensor<1024x!tt.ptr<f32>> loc(#loc23)
    %y_t_580 = tt.addptr %y_ptr, %c32915456_i32 : !tt.ptr<f32>, i32 loc(#loc53)
    %y_t_581 = tt.splat %y_t_580 : !tt.ptr<f32> -> tensor<1024x!tt.ptr<f32>> loc(#loc42)
    %y_t_582 = tt.addptr %y_t_581, %ncl_idx_5 : tensor<1024x!tt.ptr<f32>>, tensor<1024xi32> loc(#loc42)
    %y_t_583 = tt.load %y_t_582, %mask_6, %cst_1 : tensor<1024x!tt.ptr<f32>> loc(#loc43)
    %v_584 = arith.mulf %v_579, %cst_0 : tensor<1024xf32> loc(#loc54)
    %v_585 = arith.addf %y_t_583, %bias_10 : tensor<1024xf32> loc(#loc44)
    %v_586 = arith.mulf %v_585, %cst_0 : tensor<1024xf32> loc(#loc45)
    %v_587 = arith.addf %v_584, %v_586 : tensor<1024xf32> loc(#loc46)
    %spike_588 = arith.cmpf oge, %v_587, %cst : tensor<1024xf32> loc(#loc47)
    %spike_589 = arith.uitofp %spike_588 : tensor<1024xi1> to tensor<1024xf32> loc(#loc48)
    %v_590 = arith.subf %cst, %spike_589 : tensor<1024xf32> loc(#loc49)
    %v_591 = arith.mulf %v_587, %v_590 : tensor<1024xf32> loc(#loc50)
    %v_592 = arith.mulf %spike_589, %cst_1 : tensor<1024xf32> loc(#loc51)
    %v_593 = arith.addf %v_591, %v_592 : tensor<1024xf32> loc(#loc52)
    %122 = tt.addptr %spike_ptr, %c32915456_i32 : !tt.ptr<f32>, i32 loc(#loc26)
    %123 = tt.splat %122 : !tt.ptr<f32> -> tensor<1024x!tt.ptr<f32>> loc(#loc22)
    %124 = tt.addptr %123, %ncl_idx_5 : tensor<1024x!tt.ptr<f32>>, tensor<1024xi32> loc(#loc22)
    tt.store %124, %spike_589, %mask_6 : tensor<1024x!tt.ptr<f32>> loc(#loc23)
    %y_t_594 = tt.addptr %y_ptr, %c33718272_i32 : !tt.ptr<f32>, i32 loc(#loc53)
    %y_t_595 = tt.splat %y_t_594 : !tt.ptr<f32> -> tensor<1024x!tt.ptr<f32>> loc(#loc42)
    %y_t_596 = tt.addptr %y_t_595, %ncl_idx_5 : tensor<1024x!tt.ptr<f32>>, tensor<1024xi32> loc(#loc42)
    %y_t_597 = tt.load %y_t_596, %mask_6, %cst_1 : tensor<1024x!tt.ptr<f32>> loc(#loc43)
    %v_598 = arith.mulf %v_593, %cst_0 : tensor<1024xf32> loc(#loc54)
    %v_599 = arith.addf %y_t_597, %bias_10 : tensor<1024xf32> loc(#loc44)
    %v_600 = arith.mulf %v_599, %cst_0 : tensor<1024xf32> loc(#loc45)
    %v_601 = arith.addf %v_598, %v_600 : tensor<1024xf32> loc(#loc46)
    %spike_602 = arith.cmpf oge, %v_601, %cst : tensor<1024xf32> loc(#loc47)
    %spike_603 = arith.uitofp %spike_602 : tensor<1024xi1> to tensor<1024xf32> loc(#loc48)
    %v_604 = arith.subf %cst, %spike_603 : tensor<1024xf32> loc(#loc49)
    %v_605 = arith.mulf %v_601, %v_604 : tensor<1024xf32> loc(#loc50)
    %v_606 = arith.mulf %spike_603, %cst_1 : tensor<1024xf32> loc(#loc51)
    %v_607 = arith.addf %v_605, %v_606 : tensor<1024xf32> loc(#loc52)
    %125 = tt.addptr %spike_ptr, %c33718272_i32 : !tt.ptr<f32>, i32 loc(#loc26)
    %126 = tt.splat %125 : !tt.ptr<f32> -> tensor<1024x!tt.ptr<f32>> loc(#loc22)
    %127 = tt.addptr %126, %ncl_idx_5 : tensor<1024x!tt.ptr<f32>>, tensor<1024xi32> loc(#loc22)
    tt.store %127, %spike_603, %mask_6 : tensor<1024x!tt.ptr<f32>> loc(#loc23)
    %y_t_608 = tt.addptr %y_ptr, %c34521088_i32 : !tt.ptr<f32>, i32 loc(#loc53)
    %y_t_609 = tt.splat %y_t_608 : !tt.ptr<f32> -> tensor<1024x!tt.ptr<f32>> loc(#loc42)
    %y_t_610 = tt.addptr %y_t_609, %ncl_idx_5 : tensor<1024x!tt.ptr<f32>>, tensor<1024xi32> loc(#loc42)
    %y_t_611 = tt.load %y_t_610, %mask_6, %cst_1 : tensor<1024x!tt.ptr<f32>> loc(#loc43)
    %v_612 = arith.mulf %v_607, %cst_0 : tensor<1024xf32> loc(#loc54)
    %v_613 = arith.addf %y_t_611, %bias_10 : tensor<1024xf32> loc(#loc44)
    %v_614 = arith.mulf %v_613, %cst_0 : tensor<1024xf32> loc(#loc45)
    %v_615 = arith.addf %v_612, %v_614 : tensor<1024xf32> loc(#loc46)
    %spike_616 = arith.cmpf oge, %v_615, %cst : tensor<1024xf32> loc(#loc47)
    %spike_617 = arith.uitofp %spike_616 : tensor<1024xi1> to tensor<1024xf32> loc(#loc48)
    %v_618 = arith.subf %cst, %spike_617 : tensor<1024xf32> loc(#loc49)
    %v_619 = arith.mulf %v_615, %v_618 : tensor<1024xf32> loc(#loc50)
    %v_620 = arith.mulf %spike_617, %cst_1 : tensor<1024xf32> loc(#loc51)
    %v_621 = arith.addf %v_619, %v_620 : tensor<1024xf32> loc(#loc52)
    %128 = tt.addptr %spike_ptr, %c34521088_i32 : !tt.ptr<f32>, i32 loc(#loc26)
    %129 = tt.splat %128 : !tt.ptr<f32> -> tensor<1024x!tt.ptr<f32>> loc(#loc22)
    %130 = tt.addptr %129, %ncl_idx_5 : tensor<1024x!tt.ptr<f32>>, tensor<1024xi32> loc(#loc22)
    tt.store %130, %spike_617, %mask_6 : tensor<1024x!tt.ptr<f32>> loc(#loc23)
    %y_t_622 = tt.addptr %y_ptr, %c35323904_i32 : !tt.ptr<f32>, i32 loc(#loc53)
    %y_t_623 = tt.splat %y_t_622 : !tt.ptr<f32> -> tensor<1024x!tt.ptr<f32>> loc(#loc42)
    %y_t_624 = tt.addptr %y_t_623, %ncl_idx_5 : tensor<1024x!tt.ptr<f32>>, tensor<1024xi32> loc(#loc42)
    %y_t_625 = tt.load %y_t_624, %mask_6, %cst_1 : tensor<1024x!tt.ptr<f32>> loc(#loc43)
    %v_626 = arith.mulf %v_621, %cst_0 : tensor<1024xf32> loc(#loc54)
    %v_627 = arith.addf %y_t_625, %bias_10 : tensor<1024xf32> loc(#loc44)
    %v_628 = arith.mulf %v_627, %cst_0 : tensor<1024xf32> loc(#loc45)
    %v_629 = arith.addf %v_626, %v_628 : tensor<1024xf32> loc(#loc46)
    %spike_630 = arith.cmpf oge, %v_629, %cst : tensor<1024xf32> loc(#loc47)
    %spike_631 = arith.uitofp %spike_630 : tensor<1024xi1> to tensor<1024xf32> loc(#loc48)
    %v_632 = arith.subf %cst, %spike_631 : tensor<1024xf32> loc(#loc49)
    %v_633 = arith.mulf %v_629, %v_632 : tensor<1024xf32> loc(#loc50)
    %v_634 = arith.mulf %spike_631, %cst_1 : tensor<1024xf32> loc(#loc51)
    %v_635 = arith.addf %v_633, %v_634 : tensor<1024xf32> loc(#loc52)
    %131 = tt.addptr %spike_ptr, %c35323904_i32 : !tt.ptr<f32>, i32 loc(#loc26)
    %132 = tt.splat %131 : !tt.ptr<f32> -> tensor<1024x!tt.ptr<f32>> loc(#loc22)
    %133 = tt.addptr %132, %ncl_idx_5 : tensor<1024x!tt.ptr<f32>>, tensor<1024xi32> loc(#loc22)
    tt.store %133, %spike_631, %mask_6 : tensor<1024x!tt.ptr<f32>> loc(#loc23)
    %y_t_636 = tt.addptr %y_ptr, %c36126720_i32 : !tt.ptr<f32>, i32 loc(#loc53)
    %y_t_637 = tt.splat %y_t_636 : !tt.ptr<f32> -> tensor<1024x!tt.ptr<f32>> loc(#loc42)
    %y_t_638 = tt.addptr %y_t_637, %ncl_idx_5 : tensor<1024x!tt.ptr<f32>>, tensor<1024xi32> loc(#loc42)
    %y_t_639 = tt.load %y_t_638, %mask_6, %cst_1 : tensor<1024x!tt.ptr<f32>> loc(#loc43)
    %v_640 = arith.mulf %v_635, %cst_0 : tensor<1024xf32> loc(#loc54)
    %v_641 = arith.addf %y_t_639, %bias_10 : tensor<1024xf32> loc(#loc44)
    %v_642 = arith.mulf %v_641, %cst_0 : tensor<1024xf32> loc(#loc45)
    %v_643 = arith.addf %v_640, %v_642 : tensor<1024xf32> loc(#loc46)
    %spike_644 = arith.cmpf oge, %v_643, %cst : tensor<1024xf32> loc(#loc47)
    %spike_645 = arith.uitofp %spike_644 : tensor<1024xi1> to tensor<1024xf32> loc(#loc48)
    %v_646 = arith.subf %cst, %spike_645 : tensor<1024xf32> loc(#loc49)
    %v_647 = arith.mulf %v_643, %v_646 : tensor<1024xf32> loc(#loc50)
    %v_648 = arith.mulf %spike_645, %cst_1 : tensor<1024xf32> loc(#loc51)
    %v_649 = arith.addf %v_647, %v_648 : tensor<1024xf32> loc(#loc52)
    %134 = tt.addptr %spike_ptr, %c36126720_i32 : !tt.ptr<f32>, i32 loc(#loc26)
    %135 = tt.splat %134 : !tt.ptr<f32> -> tensor<1024x!tt.ptr<f32>> loc(#loc22)
    %136 = tt.addptr %135, %ncl_idx_5 : tensor<1024x!tt.ptr<f32>>, tensor<1024xi32> loc(#loc22)
    tt.store %136, %spike_645, %mask_6 : tensor<1024x!tt.ptr<f32>> loc(#loc23)
    %y_t_650 = tt.addptr %y_ptr, %c36929536_i32 : !tt.ptr<f32>, i32 loc(#loc53)
    %y_t_651 = tt.splat %y_t_650 : !tt.ptr<f32> -> tensor<1024x!tt.ptr<f32>> loc(#loc42)
    %y_t_652 = tt.addptr %y_t_651, %ncl_idx_5 : tensor<1024x!tt.ptr<f32>>, tensor<1024xi32> loc(#loc42)
    %y_t_653 = tt.load %y_t_652, %mask_6, %cst_1 : tensor<1024x!tt.ptr<f32>> loc(#loc43)
    %v_654 = arith.mulf %v_649, %cst_0 : tensor<1024xf32> loc(#loc54)
    %v_655 = arith.addf %y_t_653, %bias_10 : tensor<1024xf32> loc(#loc44)
    %v_656 = arith.mulf %v_655, %cst_0 : tensor<1024xf32> loc(#loc45)
    %v_657 = arith.addf %v_654, %v_656 : tensor<1024xf32> loc(#loc46)
    %spike_658 = arith.cmpf oge, %v_657, %cst : tensor<1024xf32> loc(#loc47)
    %spike_659 = arith.uitofp %spike_658 : tensor<1024xi1> to tensor<1024xf32> loc(#loc48)
    %v_660 = arith.subf %cst, %spike_659 : tensor<1024xf32> loc(#loc49)
    %v_661 = arith.mulf %v_657, %v_660 : tensor<1024xf32> loc(#loc50)
    %v_662 = arith.mulf %spike_659, %cst_1 : tensor<1024xf32> loc(#loc51)
    %v_663 = arith.addf %v_661, %v_662 : tensor<1024xf32> loc(#loc52)
    %137 = tt.addptr %spike_ptr, %c36929536_i32 : !tt.ptr<f32>, i32 loc(#loc26)
    %138 = tt.splat %137 : !tt.ptr<f32> -> tensor<1024x!tt.ptr<f32>> loc(#loc22)
    %139 = tt.addptr %138, %ncl_idx_5 : tensor<1024x!tt.ptr<f32>>, tensor<1024xi32> loc(#loc22)
    tt.store %139, %spike_659, %mask_6 : tensor<1024x!tt.ptr<f32>> loc(#loc23)
    %y_t_664 = tt.addptr %y_ptr, %c37732352_i32 : !tt.ptr<f32>, i32 loc(#loc53)
    %y_t_665 = tt.splat %y_t_664 : !tt.ptr<f32> -> tensor<1024x!tt.ptr<f32>> loc(#loc42)
    %y_t_666 = tt.addptr %y_t_665, %ncl_idx_5 : tensor<1024x!tt.ptr<f32>>, tensor<1024xi32> loc(#loc42)
    %y_t_667 = tt.load %y_t_666, %mask_6, %cst_1 : tensor<1024x!tt.ptr<f32>> loc(#loc43)
    %v_668 = arith.mulf %v_663, %cst_0 : tensor<1024xf32> loc(#loc54)
    %v_669 = arith.addf %y_t_667, %bias_10 : tensor<1024xf32> loc(#loc44)
    %v_670 = arith.mulf %v_669, %cst_0 : tensor<1024xf32> loc(#loc45)
    %v_671 = arith.addf %v_668, %v_670 : tensor<1024xf32> loc(#loc46)
    %spike_672 = arith.cmpf oge, %v_671, %cst : tensor<1024xf32> loc(#loc47)
    %spike_673 = arith.uitofp %spike_672 : tensor<1024xi1> to tensor<1024xf32> loc(#loc48)
    %v_674 = arith.subf %cst, %spike_673 : tensor<1024xf32> loc(#loc49)
    %v_675 = arith.mulf %v_671, %v_674 : tensor<1024xf32> loc(#loc50)
    %v_676 = arith.mulf %spike_673, %cst_1 : tensor<1024xf32> loc(#loc51)
    %v_677 = arith.addf %v_675, %v_676 : tensor<1024xf32> loc(#loc52)
    %140 = tt.addptr %spike_ptr, %c37732352_i32 : !tt.ptr<f32>, i32 loc(#loc26)
    %141 = tt.splat %140 : !tt.ptr<f32> -> tensor<1024x!tt.ptr<f32>> loc(#loc22)
    %142 = tt.addptr %141, %ncl_idx_5 : tensor<1024x!tt.ptr<f32>>, tensor<1024xi32> loc(#loc22)
    tt.store %142, %spike_673, %mask_6 : tensor<1024x!tt.ptr<f32>> loc(#loc23)
    %y_t_678 = tt.addptr %y_ptr, %c38535168_i32 : !tt.ptr<f32>, i32 loc(#loc53)
    %y_t_679 = tt.splat %y_t_678 : !tt.ptr<f32> -> tensor<1024x!tt.ptr<f32>> loc(#loc42)
    %y_t_680 = tt.addptr %y_t_679, %ncl_idx_5 : tensor<1024x!tt.ptr<f32>>, tensor<1024xi32> loc(#loc42)
    %y_t_681 = tt.load %y_t_680, %mask_6, %cst_1 : tensor<1024x!tt.ptr<f32>> loc(#loc43)
    %v_682 = arith.mulf %v_677, %cst_0 : tensor<1024xf32> loc(#loc54)
    %v_683 = arith.addf %y_t_681, %bias_10 : tensor<1024xf32> loc(#loc44)
    %v_684 = arith.mulf %v_683, %cst_0 : tensor<1024xf32> loc(#loc45)
    %v_685 = arith.addf %v_682, %v_684 : tensor<1024xf32> loc(#loc46)
    %spike_686 = arith.cmpf oge, %v_685, %cst : tensor<1024xf32> loc(#loc47)
    %spike_687 = arith.uitofp %spike_686 : tensor<1024xi1> to tensor<1024xf32> loc(#loc48)
    %v_688 = arith.subf %cst, %spike_687 : tensor<1024xf32> loc(#loc49)
    %v_689 = arith.mulf %v_685, %v_688 : tensor<1024xf32> loc(#loc50)
    %v_690 = arith.mulf %spike_687, %cst_1 : tensor<1024xf32> loc(#loc51)
    %v_691 = arith.addf %v_689, %v_690 : tensor<1024xf32> loc(#loc52)
    %143 = tt.addptr %spike_ptr, %c38535168_i32 : !tt.ptr<f32>, i32 loc(#loc26)
    %144 = tt.splat %143 : !tt.ptr<f32> -> tensor<1024x!tt.ptr<f32>> loc(#loc22)
    %145 = tt.addptr %144, %ncl_idx_5 : tensor<1024x!tt.ptr<f32>>, tensor<1024xi32> loc(#loc22)
    tt.store %145, %spike_687, %mask_6 : tensor<1024x!tt.ptr<f32>> loc(#loc23)
    %y_t_692 = tt.addptr %y_ptr, %c39337984_i32 : !tt.ptr<f32>, i32 loc(#loc53)
    %y_t_693 = tt.splat %y_t_692 : !tt.ptr<f32> -> tensor<1024x!tt.ptr<f32>> loc(#loc42)
    %y_t_694 = tt.addptr %y_t_693, %ncl_idx_5 : tensor<1024x!tt.ptr<f32>>, tensor<1024xi32> loc(#loc42)
    %y_t_695 = tt.load %y_t_694, %mask_6, %cst_1 : tensor<1024x!tt.ptr<f32>> loc(#loc43)
    %v_696 = arith.mulf %v_691, %cst_0 : tensor<1024xf32> loc(#loc54)
    %v_697 = arith.addf %y_t_695, %bias_10 : tensor<1024xf32> loc(#loc44)
    %v_698 = arith.mulf %v_697, %cst_0 : tensor<1024xf32> loc(#loc45)
    %v_699 = arith.addf %v_696, %v_698 : tensor<1024xf32> loc(#loc46)
    %spike_700 = arith.cmpf oge, %v_699, %cst : tensor<1024xf32> loc(#loc47)
    %spike_701 = arith.uitofp %spike_700 : tensor<1024xi1> to tensor<1024xf32> loc(#loc48)
    %v_702 = arith.subf %cst, %spike_701 : tensor<1024xf32> loc(#loc49)
    %v_703 = arith.mulf %v_699, %v_702 : tensor<1024xf32> loc(#loc50)
    %v_704 = arith.mulf %spike_701, %cst_1 : tensor<1024xf32> loc(#loc51)
    %v_705 = arith.addf %v_703, %v_704 : tensor<1024xf32> loc(#loc52)
    %146 = tt.addptr %spike_ptr, %c39337984_i32 : !tt.ptr<f32>, i32 loc(#loc26)
    %147 = tt.splat %146 : !tt.ptr<f32> -> tensor<1024x!tt.ptr<f32>> loc(#loc22)
    %148 = tt.addptr %147, %ncl_idx_5 : tensor<1024x!tt.ptr<f32>>, tensor<1024xi32> loc(#loc22)
    tt.store %148, %spike_701, %mask_6 : tensor<1024x!tt.ptr<f32>> loc(#loc23)
    %y_t_706 = tt.addptr %y_ptr, %c40140800_i32 : !tt.ptr<f32>, i32 loc(#loc53)
    %y_t_707 = tt.splat %y_t_706 : !tt.ptr<f32> -> tensor<1024x!tt.ptr<f32>> loc(#loc42)
    %y_t_708 = tt.addptr %y_t_707, %ncl_idx_5 : tensor<1024x!tt.ptr<f32>>, tensor<1024xi32> loc(#loc42)
    %y_t_709 = tt.load %y_t_708, %mask_6, %cst_1 : tensor<1024x!tt.ptr<f32>> loc(#loc43)
    %v_710 = arith.mulf %v_705, %cst_0 : tensor<1024xf32> loc(#loc54)
    %v_711 = arith.addf %y_t_709, %bias_10 : tensor<1024xf32> loc(#loc44)
    %v_712 = arith.mulf %v_711, %cst_0 : tensor<1024xf32> loc(#loc45)
    %v_713 = arith.addf %v_710, %v_712 : tensor<1024xf32> loc(#loc46)
    %spike_714 = arith.cmpf oge, %v_713, %cst : tensor<1024xf32> loc(#loc47)
    %spike_715 = arith.uitofp %spike_714 : tensor<1024xi1> to tensor<1024xf32> loc(#loc48)
    %v_716 = arith.subf %cst, %spike_715 : tensor<1024xf32> loc(#loc49)
    %v_717 = arith.mulf %v_713, %v_716 : tensor<1024xf32> loc(#loc50)
    %v_718 = arith.mulf %spike_715, %cst_1 : tensor<1024xf32> loc(#loc51)
    %v_719 = arith.addf %v_717, %v_718 : tensor<1024xf32> loc(#loc52)
    %149 = tt.addptr %spike_ptr, %c40140800_i32 : !tt.ptr<f32>, i32 loc(#loc26)
    %150 = tt.splat %149 : !tt.ptr<f32> -> tensor<1024x!tt.ptr<f32>> loc(#loc22)
    %151 = tt.addptr %150, %ncl_idx_5 : tensor<1024x!tt.ptr<f32>>, tensor<1024xi32> loc(#loc22)
    tt.store %151, %spike_715, %mask_6 : tensor<1024x!tt.ptr<f32>> loc(#loc23)
    %y_t_720 = tt.addptr %y_ptr, %c40943616_i32 : !tt.ptr<f32>, i32 loc(#loc53)
    %y_t_721 = tt.splat %y_t_720 : !tt.ptr<f32> -> tensor<1024x!tt.ptr<f32>> loc(#loc42)
    %y_t_722 = tt.addptr %y_t_721, %ncl_idx_5 : tensor<1024x!tt.ptr<f32>>, tensor<1024xi32> loc(#loc42)
    %y_t_723 = tt.load %y_t_722, %mask_6, %cst_1 : tensor<1024x!tt.ptr<f32>> loc(#loc43)
    %v_724 = arith.mulf %v_719, %cst_0 : tensor<1024xf32> loc(#loc54)
    %v_725 = arith.addf %y_t_723, %bias_10 : tensor<1024xf32> loc(#loc44)
    %v_726 = arith.mulf %v_725, %cst_0 : tensor<1024xf32> loc(#loc45)
    %v_727 = arith.addf %v_724, %v_726 : tensor<1024xf32> loc(#loc46)
    %spike_728 = arith.cmpf oge, %v_727, %cst : tensor<1024xf32> loc(#loc47)
    %spike_729 = arith.uitofp %spike_728 : tensor<1024xi1> to tensor<1024xf32> loc(#loc48)
    %v_730 = arith.subf %cst, %spike_729 : tensor<1024xf32> loc(#loc49)
    %v_731 = arith.mulf %v_727, %v_730 : tensor<1024xf32> loc(#loc50)
    %v_732 = arith.mulf %spike_729, %cst_1 : tensor<1024xf32> loc(#loc51)
    %v_733 = arith.addf %v_731, %v_732 : tensor<1024xf32> loc(#loc52)
    %152 = tt.addptr %spike_ptr, %c40943616_i32 : !tt.ptr<f32>, i32 loc(#loc26)
    %153 = tt.splat %152 : !tt.ptr<f32> -> tensor<1024x!tt.ptr<f32>> loc(#loc22)
    %154 = tt.addptr %153, %ncl_idx_5 : tensor<1024x!tt.ptr<f32>>, tensor<1024xi32> loc(#loc22)
    tt.store %154, %spike_729, %mask_6 : tensor<1024x!tt.ptr<f32>> loc(#loc23)
    %y_t_734 = tt.addptr %y_ptr, %c41746432_i32 : !tt.ptr<f32>, i32 loc(#loc53)
    %y_t_735 = tt.splat %y_t_734 : !tt.ptr<f32> -> tensor<1024x!tt.ptr<f32>> loc(#loc42)
    %y_t_736 = tt.addptr %y_t_735, %ncl_idx_5 : tensor<1024x!tt.ptr<f32>>, tensor<1024xi32> loc(#loc42)
    %y_t_737 = tt.load %y_t_736, %mask_6, %cst_1 : tensor<1024x!tt.ptr<f32>> loc(#loc43)
    %v_738 = arith.mulf %v_733, %cst_0 : tensor<1024xf32> loc(#loc54)
    %v_739 = arith.addf %y_t_737, %bias_10 : tensor<1024xf32> loc(#loc44)
    %v_740 = arith.mulf %v_739, %cst_0 : tensor<1024xf32> loc(#loc45)
    %v_741 = arith.addf %v_738, %v_740 : tensor<1024xf32> loc(#loc46)
    %spike_742 = arith.cmpf oge, %v_741, %cst : tensor<1024xf32> loc(#loc47)
    %spike_743 = arith.uitofp %spike_742 : tensor<1024xi1> to tensor<1024xf32> loc(#loc48)
    %v_744 = arith.subf %cst, %spike_743 : tensor<1024xf32> loc(#loc49)
    %v_745 = arith.mulf %v_741, %v_744 : tensor<1024xf32> loc(#loc50)
    %v_746 = arith.mulf %spike_743, %cst_1 : tensor<1024xf32> loc(#loc51)
    %v_747 = arith.addf %v_745, %v_746 : tensor<1024xf32> loc(#loc52)
    %155 = tt.addptr %spike_ptr, %c41746432_i32 : !tt.ptr<f32>, i32 loc(#loc26)
    %156 = tt.splat %155 : !tt.ptr<f32> -> tensor<1024x!tt.ptr<f32>> loc(#loc22)
    %157 = tt.addptr %156, %ncl_idx_5 : tensor<1024x!tt.ptr<f32>>, tensor<1024xi32> loc(#loc22)
    tt.store %157, %spike_743, %mask_6 : tensor<1024x!tt.ptr<f32>> loc(#loc23)
    %y_t_748 = tt.addptr %y_ptr, %c42549248_i32 : !tt.ptr<f32>, i32 loc(#loc53)
    %y_t_749 = tt.splat %y_t_748 : !tt.ptr<f32> -> tensor<1024x!tt.ptr<f32>> loc(#loc42)
    %y_t_750 = tt.addptr %y_t_749, %ncl_idx_5 : tensor<1024x!tt.ptr<f32>>, tensor<1024xi32> loc(#loc42)
    %y_t_751 = tt.load %y_t_750, %mask_6, %cst_1 : tensor<1024x!tt.ptr<f32>> loc(#loc43)
    %v_752 = arith.mulf %v_747, %cst_0 : tensor<1024xf32> loc(#loc54)
    %v_753 = arith.addf %y_t_751, %bias_10 : tensor<1024xf32> loc(#loc44)
    %v_754 = arith.mulf %v_753, %cst_0 : tensor<1024xf32> loc(#loc45)
    %v_755 = arith.addf %v_752, %v_754 : tensor<1024xf32> loc(#loc46)
    %spike_756 = arith.cmpf oge, %v_755, %cst : tensor<1024xf32> loc(#loc47)
    %spike_757 = arith.uitofp %spike_756 : tensor<1024xi1> to tensor<1024xf32> loc(#loc48)
    %v_758 = arith.subf %cst, %spike_757 : tensor<1024xf32> loc(#loc49)
    %v_759 = arith.mulf %v_755, %v_758 : tensor<1024xf32> loc(#loc50)
    %v_760 = arith.mulf %spike_757, %cst_1 : tensor<1024xf32> loc(#loc51)
    %v_761 = arith.addf %v_759, %v_760 : tensor<1024xf32> loc(#loc52)
    %158 = tt.addptr %spike_ptr, %c42549248_i32 : !tt.ptr<f32>, i32 loc(#loc26)
    %159 = tt.splat %158 : !tt.ptr<f32> -> tensor<1024x!tt.ptr<f32>> loc(#loc22)
    %160 = tt.addptr %159, %ncl_idx_5 : tensor<1024x!tt.ptr<f32>>, tensor<1024xi32> loc(#loc22)
    tt.store %160, %spike_757, %mask_6 : tensor<1024x!tt.ptr<f32>> loc(#loc23)
    %y_t_762 = tt.addptr %y_ptr, %c43352064_i32 : !tt.ptr<f32>, i32 loc(#loc53)
    %y_t_763 = tt.splat %y_t_762 : !tt.ptr<f32> -> tensor<1024x!tt.ptr<f32>> loc(#loc42)
    %y_t_764 = tt.addptr %y_t_763, %ncl_idx_5 : tensor<1024x!tt.ptr<f32>>, tensor<1024xi32> loc(#loc42)
    %y_t_765 = tt.load %y_t_764, %mask_6, %cst_1 : tensor<1024x!tt.ptr<f32>> loc(#loc43)
    %v_766 = arith.mulf %v_761, %cst_0 : tensor<1024xf32> loc(#loc54)
    %v_767 = arith.addf %y_t_765, %bias_10 : tensor<1024xf32> loc(#loc44)
    %v_768 = arith.mulf %v_767, %cst_0 : tensor<1024xf32> loc(#loc45)
    %v_769 = arith.addf %v_766, %v_768 : tensor<1024xf32> loc(#loc46)
    %spike_770 = arith.cmpf oge, %v_769, %cst : tensor<1024xf32> loc(#loc47)
    %spike_771 = arith.uitofp %spike_770 : tensor<1024xi1> to tensor<1024xf32> loc(#loc48)
    %v_772 = arith.subf %cst, %spike_771 : tensor<1024xf32> loc(#loc49)
    %v_773 = arith.mulf %v_769, %v_772 : tensor<1024xf32> loc(#loc50)
    %v_774 = arith.mulf %spike_771, %cst_1 : tensor<1024xf32> loc(#loc51)
    %v_775 = arith.addf %v_773, %v_774 : tensor<1024xf32> loc(#loc52)
    %161 = tt.addptr %spike_ptr, %c43352064_i32 : !tt.ptr<f32>, i32 loc(#loc26)
    %162 = tt.splat %161 : !tt.ptr<f32> -> tensor<1024x!tt.ptr<f32>> loc(#loc22)
    %163 = tt.addptr %162, %ncl_idx_5 : tensor<1024x!tt.ptr<f32>>, tensor<1024xi32> loc(#loc22)
    tt.store %163, %spike_771, %mask_6 : tensor<1024x!tt.ptr<f32>> loc(#loc23)
    %y_t_776 = tt.addptr %y_ptr, %c44154880_i32 : !tt.ptr<f32>, i32 loc(#loc53)
    %y_t_777 = tt.splat %y_t_776 : !tt.ptr<f32> -> tensor<1024x!tt.ptr<f32>> loc(#loc42)
    %y_t_778 = tt.addptr %y_t_777, %ncl_idx_5 : tensor<1024x!tt.ptr<f32>>, tensor<1024xi32> loc(#loc42)
    %y_t_779 = tt.load %y_t_778, %mask_6, %cst_1 : tensor<1024x!tt.ptr<f32>> loc(#loc43)
    %v_780 = arith.mulf %v_775, %cst_0 : tensor<1024xf32> loc(#loc54)
    %v_781 = arith.addf %y_t_779, %bias_10 : tensor<1024xf32> loc(#loc44)
    %v_782 = arith.mulf %v_781, %cst_0 : tensor<1024xf32> loc(#loc45)
    %v_783 = arith.addf %v_780, %v_782 : tensor<1024xf32> loc(#loc46)
    %spike_784 = arith.cmpf oge, %v_783, %cst : tensor<1024xf32> loc(#loc47)
    %spike_785 = arith.uitofp %spike_784 : tensor<1024xi1> to tensor<1024xf32> loc(#loc48)
    %v_786 = arith.subf %cst, %spike_785 : tensor<1024xf32> loc(#loc49)
    %v_787 = arith.mulf %v_783, %v_786 : tensor<1024xf32> loc(#loc50)
    %v_788 = arith.mulf %spike_785, %cst_1 : tensor<1024xf32> loc(#loc51)
    %v_789 = arith.addf %v_787, %v_788 : tensor<1024xf32> loc(#loc52)
    %164 = tt.addptr %spike_ptr, %c44154880_i32 : !tt.ptr<f32>, i32 loc(#loc26)
    %165 = tt.splat %164 : !tt.ptr<f32> -> tensor<1024x!tt.ptr<f32>> loc(#loc22)
    %166 = tt.addptr %165, %ncl_idx_5 : tensor<1024x!tt.ptr<f32>>, tensor<1024xi32> loc(#loc22)
    tt.store %166, %spike_785, %mask_6 : tensor<1024x!tt.ptr<f32>> loc(#loc23)
    %y_t_790 = tt.addptr %y_ptr, %c44957696_i32 : !tt.ptr<f32>, i32 loc(#loc53)
    %y_t_791 = tt.splat %y_t_790 : !tt.ptr<f32> -> tensor<1024x!tt.ptr<f32>> loc(#loc42)
    %y_t_792 = tt.addptr %y_t_791, %ncl_idx_5 : tensor<1024x!tt.ptr<f32>>, tensor<1024xi32> loc(#loc42)
    %y_t_793 = tt.load %y_t_792, %mask_6, %cst_1 : tensor<1024x!tt.ptr<f32>> loc(#loc43)
    %v_794 = arith.mulf %v_789, %cst_0 : tensor<1024xf32> loc(#loc54)
    %v_795 = arith.addf %y_t_793, %bias_10 : tensor<1024xf32> loc(#loc44)
    %v_796 = arith.mulf %v_795, %cst_0 : tensor<1024xf32> loc(#loc45)
    %v_797 = arith.addf %v_794, %v_796 : tensor<1024xf32> loc(#loc46)
    %spike_798 = arith.cmpf oge, %v_797, %cst : tensor<1024xf32> loc(#loc47)
    %spike_799 = arith.uitofp %spike_798 : tensor<1024xi1> to tensor<1024xf32> loc(#loc48)
    %v_800 = arith.subf %cst, %spike_799 : tensor<1024xf32> loc(#loc49)
    %v_801 = arith.mulf %v_797, %v_800 : tensor<1024xf32> loc(#loc50)
    %v_802 = arith.mulf %spike_799, %cst_1 : tensor<1024xf32> loc(#loc51)
    %v_803 = arith.addf %v_801, %v_802 : tensor<1024xf32> loc(#loc52)
    %167 = tt.addptr %spike_ptr, %c44957696_i32 : !tt.ptr<f32>, i32 loc(#loc26)
    %168 = tt.splat %167 : !tt.ptr<f32> -> tensor<1024x!tt.ptr<f32>> loc(#loc22)
    %169 = tt.addptr %168, %ncl_idx_5 : tensor<1024x!tt.ptr<f32>>, tensor<1024xi32> loc(#loc22)
    tt.store %169, %spike_799, %mask_6 : tensor<1024x!tt.ptr<f32>> loc(#loc23)
    %y_t_804 = tt.addptr %y_ptr, %c45760512_i32 : !tt.ptr<f32>, i32 loc(#loc53)
    %y_t_805 = tt.splat %y_t_804 : !tt.ptr<f32> -> tensor<1024x!tt.ptr<f32>> loc(#loc42)
    %y_t_806 = tt.addptr %y_t_805, %ncl_idx_5 : tensor<1024x!tt.ptr<f32>>, tensor<1024xi32> loc(#loc42)
    %y_t_807 = tt.load %y_t_806, %mask_6, %cst_1 : tensor<1024x!tt.ptr<f32>> loc(#loc43)
    %v_808 = arith.mulf %v_803, %cst_0 : tensor<1024xf32> loc(#loc54)
    %v_809 = arith.addf %y_t_807, %bias_10 : tensor<1024xf32> loc(#loc44)
    %v_810 = arith.mulf %v_809, %cst_0 : tensor<1024xf32> loc(#loc45)
    %v_811 = arith.addf %v_808, %v_810 : tensor<1024xf32> loc(#loc46)
    %spike_812 = arith.cmpf oge, %v_811, %cst : tensor<1024xf32> loc(#loc47)
    %spike_813 = arith.uitofp %spike_812 : tensor<1024xi1> to tensor<1024xf32> loc(#loc48)
    %v_814 = arith.subf %cst, %spike_813 : tensor<1024xf32> loc(#loc49)
    %v_815 = arith.mulf %v_811, %v_814 : tensor<1024xf32> loc(#loc50)
    %v_816 = arith.mulf %spike_813, %cst_1 : tensor<1024xf32> loc(#loc51)
    %v_817 = arith.addf %v_815, %v_816 : tensor<1024xf32> loc(#loc52)
    %170 = tt.addptr %spike_ptr, %c45760512_i32 : !tt.ptr<f32>, i32 loc(#loc26)
    %171 = tt.splat %170 : !tt.ptr<f32> -> tensor<1024x!tt.ptr<f32>> loc(#loc22)
    %172 = tt.addptr %171, %ncl_idx_5 : tensor<1024x!tt.ptr<f32>>, tensor<1024xi32> loc(#loc22)
    tt.store %172, %spike_813, %mask_6 : tensor<1024x!tt.ptr<f32>> loc(#loc23)
    %y_t_818 = tt.addptr %y_ptr, %c46563328_i32 : !tt.ptr<f32>, i32 loc(#loc53)
    %y_t_819 = tt.splat %y_t_818 : !tt.ptr<f32> -> tensor<1024x!tt.ptr<f32>> loc(#loc42)
    %y_t_820 = tt.addptr %y_t_819, %ncl_idx_5 : tensor<1024x!tt.ptr<f32>>, tensor<1024xi32> loc(#loc42)
    %y_t_821 = tt.load %y_t_820, %mask_6, %cst_1 : tensor<1024x!tt.ptr<f32>> loc(#loc43)
    %v_822 = arith.mulf %v_817, %cst_0 : tensor<1024xf32> loc(#loc54)
    %v_823 = arith.addf %y_t_821, %bias_10 : tensor<1024xf32> loc(#loc44)
    %v_824 = arith.mulf %v_823, %cst_0 : tensor<1024xf32> loc(#loc45)
    %v_825 = arith.addf %v_822, %v_824 : tensor<1024xf32> loc(#loc46)
    %spike_826 = arith.cmpf oge, %v_825, %cst : tensor<1024xf32> loc(#loc47)
    %spike_827 = arith.uitofp %spike_826 : tensor<1024xi1> to tensor<1024xf32> loc(#loc48)
    %v_828 = arith.subf %cst, %spike_827 : tensor<1024xf32> loc(#loc49)
    %v_829 = arith.mulf %v_825, %v_828 : tensor<1024xf32> loc(#loc50)
    %v_830 = arith.mulf %spike_827, %cst_1 : tensor<1024xf32> loc(#loc51)
    %v_831 = arith.addf %v_829, %v_830 : tensor<1024xf32> loc(#loc52)
    %173 = tt.addptr %spike_ptr, %c46563328_i32 : !tt.ptr<f32>, i32 loc(#loc26)
    %174 = tt.splat %173 : !tt.ptr<f32> -> tensor<1024x!tt.ptr<f32>> loc(#loc22)
    %175 = tt.addptr %174, %ncl_idx_5 : tensor<1024x!tt.ptr<f32>>, tensor<1024xi32> loc(#loc22)
    tt.store %175, %spike_827, %mask_6 : tensor<1024x!tt.ptr<f32>> loc(#loc23)
    %y_t_832 = tt.addptr %y_ptr, %c47366144_i32 : !tt.ptr<f32>, i32 loc(#loc53)
    %y_t_833 = tt.splat %y_t_832 : !tt.ptr<f32> -> tensor<1024x!tt.ptr<f32>> loc(#loc42)
    %y_t_834 = tt.addptr %y_t_833, %ncl_idx_5 : tensor<1024x!tt.ptr<f32>>, tensor<1024xi32> loc(#loc42)
    %y_t_835 = tt.load %y_t_834, %mask_6, %cst_1 : tensor<1024x!tt.ptr<f32>> loc(#loc43)
    %v_836 = arith.mulf %v_831, %cst_0 : tensor<1024xf32> loc(#loc54)
    %v_837 = arith.addf %y_t_835, %bias_10 : tensor<1024xf32> loc(#loc44)
    %v_838 = arith.mulf %v_837, %cst_0 : tensor<1024xf32> loc(#loc45)
    %v_839 = arith.addf %v_836, %v_838 : tensor<1024xf32> loc(#loc46)
    %spike_840 = arith.cmpf oge, %v_839, %cst : tensor<1024xf32> loc(#loc47)
    %spike_841 = arith.uitofp %spike_840 : tensor<1024xi1> to tensor<1024xf32> loc(#loc48)
    %v_842 = arith.subf %cst, %spike_841 : tensor<1024xf32> loc(#loc49)
    %v_843 = arith.mulf %v_839, %v_842 : tensor<1024xf32> loc(#loc50)
    %v_844 = arith.mulf %spike_841, %cst_1 : tensor<1024xf32> loc(#loc51)
    %v_845 = arith.addf %v_843, %v_844 : tensor<1024xf32> loc(#loc52)
    %176 = tt.addptr %spike_ptr, %c47366144_i32 : !tt.ptr<f32>, i32 loc(#loc26)
    %177 = tt.splat %176 : !tt.ptr<f32> -> tensor<1024x!tt.ptr<f32>> loc(#loc22)
    %178 = tt.addptr %177, %ncl_idx_5 : tensor<1024x!tt.ptr<f32>>, tensor<1024xi32> loc(#loc22)
    tt.store %178, %spike_841, %mask_6 : tensor<1024x!tt.ptr<f32>> loc(#loc23)
    %y_t_846 = tt.addptr %y_ptr, %c48168960_i32 : !tt.ptr<f32>, i32 loc(#loc53)
    %y_t_847 = tt.splat %y_t_846 : !tt.ptr<f32> -> tensor<1024x!tt.ptr<f32>> loc(#loc42)
    %y_t_848 = tt.addptr %y_t_847, %ncl_idx_5 : tensor<1024x!tt.ptr<f32>>, tensor<1024xi32> loc(#loc42)
    %y_t_849 = tt.load %y_t_848, %mask_6, %cst_1 : tensor<1024x!tt.ptr<f32>> loc(#loc43)
    %v_850 = arith.mulf %v_845, %cst_0 : tensor<1024xf32> loc(#loc54)
    %v_851 = arith.addf %y_t_849, %bias_10 : tensor<1024xf32> loc(#loc44)
    %v_852 = arith.mulf %v_851, %cst_0 : tensor<1024xf32> loc(#loc45)
    %v_853 = arith.addf %v_850, %v_852 : tensor<1024xf32> loc(#loc46)
    %spike_854 = arith.cmpf oge, %v_853, %cst : tensor<1024xf32> loc(#loc47)
    %spike_855 = arith.uitofp %spike_854 : tensor<1024xi1> to tensor<1024xf32> loc(#loc48)
    %v_856 = arith.subf %cst, %spike_855 : tensor<1024xf32> loc(#loc49)
    %v_857 = arith.mulf %v_853, %v_856 : tensor<1024xf32> loc(#loc50)
    %v_858 = arith.mulf %spike_855, %cst_1 : tensor<1024xf32> loc(#loc51)
    %v_859 = arith.addf %v_857, %v_858 : tensor<1024xf32> loc(#loc52)
    %179 = tt.addptr %spike_ptr, %c48168960_i32 : !tt.ptr<f32>, i32 loc(#loc26)
    %180 = tt.splat %179 : !tt.ptr<f32> -> tensor<1024x!tt.ptr<f32>> loc(#loc22)
    %181 = tt.addptr %180, %ncl_idx_5 : tensor<1024x!tt.ptr<f32>>, tensor<1024xi32> loc(#loc22)
    tt.store %181, %spike_855, %mask_6 : tensor<1024x!tt.ptr<f32>> loc(#loc23)
    %y_t_860 = tt.addptr %y_ptr, %c48971776_i32 : !tt.ptr<f32>, i32 loc(#loc53)
    %y_t_861 = tt.splat %y_t_860 : !tt.ptr<f32> -> tensor<1024x!tt.ptr<f32>> loc(#loc42)
    %y_t_862 = tt.addptr %y_t_861, %ncl_idx_5 : tensor<1024x!tt.ptr<f32>>, tensor<1024xi32> loc(#loc42)
    %y_t_863 = tt.load %y_t_862, %mask_6, %cst_1 : tensor<1024x!tt.ptr<f32>> loc(#loc43)
    %v_864 = arith.mulf %v_859, %cst_0 : tensor<1024xf32> loc(#loc54)
    %v_865 = arith.addf %y_t_863, %bias_10 : tensor<1024xf32> loc(#loc44)
    %v_866 = arith.mulf %v_865, %cst_0 : tensor<1024xf32> loc(#loc45)
    %v_867 = arith.addf %v_864, %v_866 : tensor<1024xf32> loc(#loc46)
    %spike_868 = arith.cmpf oge, %v_867, %cst : tensor<1024xf32> loc(#loc47)
    %spike_869 = arith.uitofp %spike_868 : tensor<1024xi1> to tensor<1024xf32> loc(#loc48)
    %v_870 = arith.subf %cst, %spike_869 : tensor<1024xf32> loc(#loc49)
    %v_871 = arith.mulf %v_867, %v_870 : tensor<1024xf32> loc(#loc50)
    %v_872 = arith.mulf %spike_869, %cst_1 : tensor<1024xf32> loc(#loc51)
    %v_873 = arith.addf %v_871, %v_872 : tensor<1024xf32> loc(#loc52)
    %182 = tt.addptr %spike_ptr, %c48971776_i32 : !tt.ptr<f32>, i32 loc(#loc26)
    %183 = tt.splat %182 : !tt.ptr<f32> -> tensor<1024x!tt.ptr<f32>> loc(#loc22)
    %184 = tt.addptr %183, %ncl_idx_5 : tensor<1024x!tt.ptr<f32>>, tensor<1024xi32> loc(#loc22)
    tt.store %184, %spike_869, %mask_6 : tensor<1024x!tt.ptr<f32>> loc(#loc23)
    %y_t_874 = tt.addptr %y_ptr, %c49774592_i32 : !tt.ptr<f32>, i32 loc(#loc53)
    %y_t_875 = tt.splat %y_t_874 : !tt.ptr<f32> -> tensor<1024x!tt.ptr<f32>> loc(#loc42)
    %y_t_876 = tt.addptr %y_t_875, %ncl_idx_5 : tensor<1024x!tt.ptr<f32>>, tensor<1024xi32> loc(#loc42)
    %y_t_877 = tt.load %y_t_876, %mask_6, %cst_1 : tensor<1024x!tt.ptr<f32>> loc(#loc43)
    %v_878 = arith.mulf %v_873, %cst_0 : tensor<1024xf32> loc(#loc54)
    %v_879 = arith.addf %y_t_877, %bias_10 : tensor<1024xf32> loc(#loc44)
    %v_880 = arith.mulf %v_879, %cst_0 : tensor<1024xf32> loc(#loc45)
    %v_881 = arith.addf %v_878, %v_880 : tensor<1024xf32> loc(#loc46)
    %spike_882 = arith.cmpf oge, %v_881, %cst : tensor<1024xf32> loc(#loc47)
    %spike_883 = arith.uitofp %spike_882 : tensor<1024xi1> to tensor<1024xf32> loc(#loc48)
    %v_884 = arith.subf %cst, %spike_883 : tensor<1024xf32> loc(#loc49)
    %v_885 = arith.mulf %v_881, %v_884 : tensor<1024xf32> loc(#loc50)
    %v_886 = arith.mulf %spike_883, %cst_1 : tensor<1024xf32> loc(#loc51)
    %v_887 = arith.addf %v_885, %v_886 : tensor<1024xf32> loc(#loc52)
    %185 = tt.addptr %spike_ptr, %c49774592_i32 : !tt.ptr<f32>, i32 loc(#loc26)
    %186 = tt.splat %185 : !tt.ptr<f32> -> tensor<1024x!tt.ptr<f32>> loc(#loc22)
    %187 = tt.addptr %186, %ncl_idx_5 : tensor<1024x!tt.ptr<f32>>, tensor<1024xi32> loc(#loc22)
    tt.store %187, %spike_883, %mask_6 : tensor<1024x!tt.ptr<f32>> loc(#loc23)
    %y_t_888 = tt.addptr %y_ptr, %c50577408_i32 : !tt.ptr<f32>, i32 loc(#loc53)
    %y_t_889 = tt.splat %y_t_888 : !tt.ptr<f32> -> tensor<1024x!tt.ptr<f32>> loc(#loc42)
    %y_t_890 = tt.addptr %y_t_889, %ncl_idx_5 : tensor<1024x!tt.ptr<f32>>, tensor<1024xi32> loc(#loc42)
    %y_t_891 = tt.load %y_t_890, %mask_6, %cst_1 : tensor<1024x!tt.ptr<f32>> loc(#loc43)
    %v_892 = arith.mulf %v_887, %cst_0 : tensor<1024xf32> loc(#loc54)
    %v_893 = arith.addf %y_t_891, %bias_10 : tensor<1024xf32> loc(#loc44)
    %v_894 = arith.mulf %v_893, %cst_0 : tensor<1024xf32> loc(#loc45)
    %v_895 = arith.addf %v_892, %v_894 : tensor<1024xf32> loc(#loc46)
    %spike_896 = arith.cmpf oge, %v_895, %cst : tensor<1024xf32> loc(#loc47)
    %spike_897 = arith.uitofp %spike_896 : tensor<1024xi1> to tensor<1024xf32> loc(#loc48)
    %v_898 = arith.subf %cst, %spike_897 : tensor<1024xf32> loc(#loc49)
    %v_899 = arith.mulf %v_895, %v_898 : tensor<1024xf32> loc(#loc50)
    %v_900 = arith.mulf %spike_897, %cst_1 : tensor<1024xf32> loc(#loc51)
    %v_901 = arith.addf %v_899, %v_900 : tensor<1024xf32> loc(#loc52)
    %188 = tt.addptr %spike_ptr, %c50577408_i32 : !tt.ptr<f32>, i32 loc(#loc26)
    %189 = tt.splat %188 : !tt.ptr<f32> -> tensor<1024x!tt.ptr<f32>> loc(#loc22)
    %190 = tt.addptr %189, %ncl_idx_5 : tensor<1024x!tt.ptr<f32>>, tensor<1024xi32> loc(#loc22)
    tt.store %190, %spike_897, %mask_6 : tensor<1024x!tt.ptr<f32>> loc(#loc23)
    %y_t_902 = tt.addptr %y_ptr, %c51380224_i32 : !tt.ptr<f32>, i32 loc(#loc53)
    %y_t_903 = tt.splat %y_t_902 : !tt.ptr<f32> -> tensor<1024x!tt.ptr<f32>> loc(#loc42)
    %y_t_904 = tt.addptr %y_t_903, %ncl_idx_5 : tensor<1024x!tt.ptr<f32>>, tensor<1024xi32> loc(#loc42)
    %y_t_905 = tt.load %y_t_904, %mask_6, %cst_1 : tensor<1024x!tt.ptr<f32>> loc(#loc43)
    %v_906 = arith.mulf %v_901, %cst_0 : tensor<1024xf32> loc(#loc54)
    %v_907 = arith.addf %y_t_905, %bias_10 : tensor<1024xf32> loc(#loc44)
    %v_908 = arith.mulf %v_907, %cst_0 : tensor<1024xf32> loc(#loc45)
    %v_909 = arith.addf %v_906, %v_908 : tensor<1024xf32> loc(#loc46)
    %spike_910 = arith.cmpf oge, %v_909, %cst : tensor<1024xf32> loc(#loc47)
    %spike_911 = arith.uitofp %spike_910 : tensor<1024xi1> to tensor<1024xf32> loc(#loc48)
    %v_912 = arith.subf %cst, %spike_911 : tensor<1024xf32> loc(#loc49)
    %v_913 = arith.mulf %v_909, %v_912 : tensor<1024xf32> loc(#loc50)
    %v_914 = arith.mulf %spike_911, %cst_1 : tensor<1024xf32> loc(#loc51)
    %v_915 = arith.addf %v_913, %v_914 : tensor<1024xf32> loc(#loc52)
    %191 = tt.addptr %spike_ptr, %c51380224_i32 : !tt.ptr<f32>, i32 loc(#loc26)
    %192 = tt.splat %191 : !tt.ptr<f32> -> tensor<1024x!tt.ptr<f32>> loc(#loc22)
    %193 = tt.addptr %192, %ncl_idx_5 : tensor<1024x!tt.ptr<f32>>, tensor<1024xi32> loc(#loc22)
    tt.store %193, %spike_911, %mask_6 : tensor<1024x!tt.ptr<f32>> loc(#loc23)
    %y_t_916 = tt.addptr %y_ptr, %c52183040_i32 : !tt.ptr<f32>, i32 loc(#loc53)
    %y_t_917 = tt.splat %y_t_916 : !tt.ptr<f32> -> tensor<1024x!tt.ptr<f32>> loc(#loc42)
    %y_t_918 = tt.addptr %y_t_917, %ncl_idx_5 : tensor<1024x!tt.ptr<f32>>, tensor<1024xi32> loc(#loc42)
    %y_t_919 = tt.load %y_t_918, %mask_6, %cst_1 : tensor<1024x!tt.ptr<f32>> loc(#loc43)
    %v_920 = arith.mulf %v_915, %cst_0 : tensor<1024xf32> loc(#loc54)
    %v_921 = arith.addf %y_t_919, %bias_10 : tensor<1024xf32> loc(#loc44)
    %v_922 = arith.mulf %v_921, %cst_0 : tensor<1024xf32> loc(#loc45)
    %v_923 = arith.addf %v_920, %v_922 : tensor<1024xf32> loc(#loc46)
    %spike_924 = arith.cmpf oge, %v_923, %cst : tensor<1024xf32> loc(#loc47)
    %spike_925 = arith.uitofp %spike_924 : tensor<1024xi1> to tensor<1024xf32> loc(#loc48)
    %v_926 = arith.subf %cst, %spike_925 : tensor<1024xf32> loc(#loc49)
    %v_927 = arith.mulf %v_923, %v_926 : tensor<1024xf32> loc(#loc50)
    %v_928 = arith.mulf %spike_925, %cst_1 : tensor<1024xf32> loc(#loc51)
    %v_929 = arith.addf %v_927, %v_928 : tensor<1024xf32> loc(#loc52)
    %194 = tt.addptr %spike_ptr, %c52183040_i32 : !tt.ptr<f32>, i32 loc(#loc26)
    %195 = tt.splat %194 : !tt.ptr<f32> -> tensor<1024x!tt.ptr<f32>> loc(#loc22)
    %196 = tt.addptr %195, %ncl_idx_5 : tensor<1024x!tt.ptr<f32>>, tensor<1024xi32> loc(#loc22)
    tt.store %196, %spike_925, %mask_6 : tensor<1024x!tt.ptr<f32>> loc(#loc23)
    %y_t_930 = tt.addptr %y_ptr, %c52985856_i32 : !tt.ptr<f32>, i32 loc(#loc53)
    %y_t_931 = tt.splat %y_t_930 : !tt.ptr<f32> -> tensor<1024x!tt.ptr<f32>> loc(#loc42)
    %y_t_932 = tt.addptr %y_t_931, %ncl_idx_5 : tensor<1024x!tt.ptr<f32>>, tensor<1024xi32> loc(#loc42)
    %y_t_933 = tt.load %y_t_932, %mask_6, %cst_1 : tensor<1024x!tt.ptr<f32>> loc(#loc43)
    %v_934 = arith.mulf %v_929, %cst_0 : tensor<1024xf32> loc(#loc54)
    %v_935 = arith.addf %y_t_933, %bias_10 : tensor<1024xf32> loc(#loc44)
    %v_936 = arith.mulf %v_935, %cst_0 : tensor<1024xf32> loc(#loc45)
    %v_937 = arith.addf %v_934, %v_936 : tensor<1024xf32> loc(#loc46)
    %spike_938 = arith.cmpf oge, %v_937, %cst : tensor<1024xf32> loc(#loc47)
    %spike_939 = arith.uitofp %spike_938 : tensor<1024xi1> to tensor<1024xf32> loc(#loc48)
    %v_940 = arith.subf %cst, %spike_939 : tensor<1024xf32> loc(#loc49)
    %v_941 = arith.mulf %v_937, %v_940 : tensor<1024xf32> loc(#loc50)
    %v_942 = arith.mulf %spike_939, %cst_1 : tensor<1024xf32> loc(#loc51)
    %v_943 = arith.addf %v_941, %v_942 : tensor<1024xf32> loc(#loc52)
    %197 = tt.addptr %spike_ptr, %c52985856_i32 : !tt.ptr<f32>, i32 loc(#loc26)
    %198 = tt.splat %197 : !tt.ptr<f32> -> tensor<1024x!tt.ptr<f32>> loc(#loc22)
    %199 = tt.addptr %198, %ncl_idx_5 : tensor<1024x!tt.ptr<f32>>, tensor<1024xi32> loc(#loc22)
    tt.store %199, %spike_939, %mask_6 : tensor<1024x!tt.ptr<f32>> loc(#loc23)
    %y_t_944 = tt.addptr %y_ptr, %c53788672_i32 : !tt.ptr<f32>, i32 loc(#loc53)
    %y_t_945 = tt.splat %y_t_944 : !tt.ptr<f32> -> tensor<1024x!tt.ptr<f32>> loc(#loc42)
    %y_t_946 = tt.addptr %y_t_945, %ncl_idx_5 : tensor<1024x!tt.ptr<f32>>, tensor<1024xi32> loc(#loc42)
    %y_t_947 = tt.load %y_t_946, %mask_6, %cst_1 : tensor<1024x!tt.ptr<f32>> loc(#loc43)
    %v_948 = arith.mulf %v_943, %cst_0 : tensor<1024xf32> loc(#loc54)
    %v_949 = arith.addf %y_t_947, %bias_10 : tensor<1024xf32> loc(#loc44)
    %v_950 = arith.mulf %v_949, %cst_0 : tensor<1024xf32> loc(#loc45)
    %v_951 = arith.addf %v_948, %v_950 : tensor<1024xf32> loc(#loc46)
    %spike_952 = arith.cmpf oge, %v_951, %cst : tensor<1024xf32> loc(#loc47)
    %spike_953 = arith.uitofp %spike_952 : tensor<1024xi1> to tensor<1024xf32> loc(#loc48)
    %v_954 = arith.subf %cst, %spike_953 : tensor<1024xf32> loc(#loc49)
    %v_955 = arith.mulf %v_951, %v_954 : tensor<1024xf32> loc(#loc50)
    %v_956 = arith.mulf %spike_953, %cst_1 : tensor<1024xf32> loc(#loc51)
    %v_957 = arith.addf %v_955, %v_956 : tensor<1024xf32> loc(#loc52)
    %200 = tt.addptr %spike_ptr, %c53788672_i32 : !tt.ptr<f32>, i32 loc(#loc26)
    %201 = tt.splat %200 : !tt.ptr<f32> -> tensor<1024x!tt.ptr<f32>> loc(#loc22)
    %202 = tt.addptr %201, %ncl_idx_5 : tensor<1024x!tt.ptr<f32>>, tensor<1024xi32> loc(#loc22)
    tt.store %202, %spike_953, %mask_6 : tensor<1024x!tt.ptr<f32>> loc(#loc23)
    %y_t_958 = tt.addptr %y_ptr, %c54591488_i32 : !tt.ptr<f32>, i32 loc(#loc53)
    %y_t_959 = tt.splat %y_t_958 : !tt.ptr<f32> -> tensor<1024x!tt.ptr<f32>> loc(#loc42)
    %y_t_960 = tt.addptr %y_t_959, %ncl_idx_5 : tensor<1024x!tt.ptr<f32>>, tensor<1024xi32> loc(#loc42)
    %y_t_961 = tt.load %y_t_960, %mask_6, %cst_1 : tensor<1024x!tt.ptr<f32>> loc(#loc43)
    %v_962 = arith.mulf %v_957, %cst_0 : tensor<1024xf32> loc(#loc54)
    %v_963 = arith.addf %y_t_961, %bias_10 : tensor<1024xf32> loc(#loc44)
    %v_964 = arith.mulf %v_963, %cst_0 : tensor<1024xf32> loc(#loc45)
    %v_965 = arith.addf %v_962, %v_964 : tensor<1024xf32> loc(#loc46)
    %spike_966 = arith.cmpf oge, %v_965, %cst : tensor<1024xf32> loc(#loc47)
    %spike_967 = arith.uitofp %spike_966 : tensor<1024xi1> to tensor<1024xf32> loc(#loc48)
    %v_968 = arith.subf %cst, %spike_967 : tensor<1024xf32> loc(#loc49)
    %v_969 = arith.mulf %v_965, %v_968 : tensor<1024xf32> loc(#loc50)
    %v_970 = arith.mulf %spike_967, %cst_1 : tensor<1024xf32> loc(#loc51)
    %v_971 = arith.addf %v_969, %v_970 : tensor<1024xf32> loc(#loc52)
    %203 = tt.addptr %spike_ptr, %c54591488_i32 : !tt.ptr<f32>, i32 loc(#loc26)
    %204 = tt.splat %203 : !tt.ptr<f32> -> tensor<1024x!tt.ptr<f32>> loc(#loc22)
    %205 = tt.addptr %204, %ncl_idx_5 : tensor<1024x!tt.ptr<f32>>, tensor<1024xi32> loc(#loc22)
    tt.store %205, %spike_967, %mask_6 : tensor<1024x!tt.ptr<f32>> loc(#loc23)
    %y_t_972 = tt.addptr %y_ptr, %c55394304_i32 : !tt.ptr<f32>, i32 loc(#loc53)
    %y_t_973 = tt.splat %y_t_972 : !tt.ptr<f32> -> tensor<1024x!tt.ptr<f32>> loc(#loc42)
    %y_t_974 = tt.addptr %y_t_973, %ncl_idx_5 : tensor<1024x!tt.ptr<f32>>, tensor<1024xi32> loc(#loc42)
    %y_t_975 = tt.load %y_t_974, %mask_6, %cst_1 : tensor<1024x!tt.ptr<f32>> loc(#loc43)
    %v_976 = arith.mulf %v_971, %cst_0 : tensor<1024xf32> loc(#loc54)
    %v_977 = arith.addf %y_t_975, %bias_10 : tensor<1024xf32> loc(#loc44)
    %v_978 = arith.mulf %v_977, %cst_0 : tensor<1024xf32> loc(#loc45)
    %v_979 = arith.addf %v_976, %v_978 : tensor<1024xf32> loc(#loc46)
    %spike_980 = arith.cmpf oge, %v_979, %cst : tensor<1024xf32> loc(#loc47)
    %spike_981 = arith.uitofp %spike_980 : tensor<1024xi1> to tensor<1024xf32> loc(#loc48)
    %v_982 = arith.subf %cst, %spike_981 : tensor<1024xf32> loc(#loc49)
    %v_983 = arith.mulf %v_979, %v_982 : tensor<1024xf32> loc(#loc50)
    %v_984 = arith.mulf %spike_981, %cst_1 : tensor<1024xf32> loc(#loc51)
    %v_985 = arith.addf %v_983, %v_984 : tensor<1024xf32> loc(#loc52)
    %206 = tt.addptr %spike_ptr, %c55394304_i32 : !tt.ptr<f32>, i32 loc(#loc26)
    %207 = tt.splat %206 : !tt.ptr<f32> -> tensor<1024x!tt.ptr<f32>> loc(#loc22)
    %208 = tt.addptr %207, %ncl_idx_5 : tensor<1024x!tt.ptr<f32>>, tensor<1024xi32> loc(#loc22)
    tt.store %208, %spike_981, %mask_6 : tensor<1024x!tt.ptr<f32>> loc(#loc23)
    %y_t_986 = tt.addptr %y_ptr, %c56197120_i32 : !tt.ptr<f32>, i32 loc(#loc53)
    %y_t_987 = tt.splat %y_t_986 : !tt.ptr<f32> -> tensor<1024x!tt.ptr<f32>> loc(#loc42)
    %y_t_988 = tt.addptr %y_t_987, %ncl_idx_5 : tensor<1024x!tt.ptr<f32>>, tensor<1024xi32> loc(#loc42)
    %y_t_989 = tt.load %y_t_988, %mask_6, %cst_1 : tensor<1024x!tt.ptr<f32>> loc(#loc43)
    %v_990 = arith.mulf %v_985, %cst_0 : tensor<1024xf32> loc(#loc54)
    %v_991 = arith.addf %y_t_989, %bias_10 : tensor<1024xf32> loc(#loc44)
    %v_992 = arith.mulf %v_991, %cst_0 : tensor<1024xf32> loc(#loc45)
    %v_993 = arith.addf %v_990, %v_992 : tensor<1024xf32> loc(#loc46)
    %spike_994 = arith.cmpf oge, %v_993, %cst : tensor<1024xf32> loc(#loc47)
    %spike_995 = arith.uitofp %spike_994 : tensor<1024xi1> to tensor<1024xf32> loc(#loc48)
    %v_996 = arith.subf %cst, %spike_995 : tensor<1024xf32> loc(#loc49)
    %v_997 = arith.mulf %v_993, %v_996 : tensor<1024xf32> loc(#loc50)
    %v_998 = arith.mulf %spike_995, %cst_1 : tensor<1024xf32> loc(#loc51)
    %v_999 = arith.addf %v_997, %v_998 : tensor<1024xf32> loc(#loc52)
    %209 = tt.addptr %spike_ptr, %c56197120_i32 : !tt.ptr<f32>, i32 loc(#loc26)
    %210 = tt.splat %209 : !tt.ptr<f32> -> tensor<1024x!tt.ptr<f32>> loc(#loc22)
    %211 = tt.addptr %210, %ncl_idx_5 : tensor<1024x!tt.ptr<f32>>, tensor<1024xi32> loc(#loc22)
    tt.store %211, %spike_995, %mask_6 : tensor<1024x!tt.ptr<f32>> loc(#loc23)
    %y_t_1000 = tt.addptr %y_ptr, %c56999936_i32 : !tt.ptr<f32>, i32 loc(#loc53)
    %y_t_1001 = tt.splat %y_t_1000 : !tt.ptr<f32> -> tensor<1024x!tt.ptr<f32>> loc(#loc42)
    %y_t_1002 = tt.addptr %y_t_1001, %ncl_idx_5 : tensor<1024x!tt.ptr<f32>>, tensor<1024xi32> loc(#loc42)
    %y_t_1003 = tt.load %y_t_1002, %mask_6, %cst_1 : tensor<1024x!tt.ptr<f32>> loc(#loc43)
    %v_1004 = arith.mulf %v_999, %cst_0 : tensor<1024xf32> loc(#loc54)
    %v_1005 = arith.addf %y_t_1003, %bias_10 : tensor<1024xf32> loc(#loc44)
    %v_1006 = arith.mulf %v_1005, %cst_0 : tensor<1024xf32> loc(#loc45)
    %v_1007 = arith.addf %v_1004, %v_1006 : tensor<1024xf32> loc(#loc46)
    %spike_1008 = arith.cmpf oge, %v_1007, %cst : tensor<1024xf32> loc(#loc47)
    %spike_1009 = arith.uitofp %spike_1008 : tensor<1024xi1> to tensor<1024xf32> loc(#loc48)
    %v_1010 = arith.subf %cst, %spike_1009 : tensor<1024xf32> loc(#loc49)
    %v_1011 = arith.mulf %v_1007, %v_1010 : tensor<1024xf32> loc(#loc50)
    %v_1012 = arith.mulf %spike_1009, %cst_1 : tensor<1024xf32> loc(#loc51)
    %v_1013 = arith.addf %v_1011, %v_1012 : tensor<1024xf32> loc(#loc52)
    %212 = tt.addptr %spike_ptr, %c56999936_i32 : !tt.ptr<f32>, i32 loc(#loc26)
    %213 = tt.splat %212 : !tt.ptr<f32> -> tensor<1024x!tt.ptr<f32>> loc(#loc22)
    %214 = tt.addptr %213, %ncl_idx_5 : tensor<1024x!tt.ptr<f32>>, tensor<1024xi32> loc(#loc22)
    tt.store %214, %spike_1009, %mask_6 : tensor<1024x!tt.ptr<f32>> loc(#loc23)
    %y_t_1014 = tt.addptr %y_ptr, %c57802752_i32 : !tt.ptr<f32>, i32 loc(#loc53)
    %y_t_1015 = tt.splat %y_t_1014 : !tt.ptr<f32> -> tensor<1024x!tt.ptr<f32>> loc(#loc42)
    %y_t_1016 = tt.addptr %y_t_1015, %ncl_idx_5 : tensor<1024x!tt.ptr<f32>>, tensor<1024xi32> loc(#loc42)
    %y_t_1017 = tt.load %y_t_1016, %mask_6, %cst_1 : tensor<1024x!tt.ptr<f32>> loc(#loc43)
    %v_1018 = arith.mulf %v_1013, %cst_0 : tensor<1024xf32> loc(#loc54)
    %v_1019 = arith.addf %y_t_1017, %bias_10 : tensor<1024xf32> loc(#loc44)
    %v_1020 = arith.mulf %v_1019, %cst_0 : tensor<1024xf32> loc(#loc45)
    %v_1021 = arith.addf %v_1018, %v_1020 : tensor<1024xf32> loc(#loc46)
    %spike_1022 = arith.cmpf oge, %v_1021, %cst : tensor<1024xf32> loc(#loc47)
    %spike_1023 = arith.uitofp %spike_1022 : tensor<1024xi1> to tensor<1024xf32> loc(#loc48)
    %v_1024 = arith.subf %cst, %spike_1023 : tensor<1024xf32> loc(#loc49)
    %v_1025 = arith.mulf %v_1021, %v_1024 : tensor<1024xf32> loc(#loc50)
    %v_1026 = arith.mulf %spike_1023, %cst_1 : tensor<1024xf32> loc(#loc51)
    %v_1027 = arith.addf %v_1025, %v_1026 : tensor<1024xf32> loc(#loc52)
    %215 = tt.addptr %spike_ptr, %c57802752_i32 : !tt.ptr<f32>, i32 loc(#loc26)
    %216 = tt.splat %215 : !tt.ptr<f32> -> tensor<1024x!tt.ptr<f32>> loc(#loc22)
    %217 = tt.addptr %216, %ncl_idx_5 : tensor<1024x!tt.ptr<f32>>, tensor<1024xi32> loc(#loc22)
    tt.store %217, %spike_1023, %mask_6 : tensor<1024x!tt.ptr<f32>> loc(#loc23)
    %y_t_1028 = tt.addptr %y_ptr, %c58605568_i32 : !tt.ptr<f32>, i32 loc(#loc53)
    %y_t_1029 = tt.splat %y_t_1028 : !tt.ptr<f32> -> tensor<1024x!tt.ptr<f32>> loc(#loc42)
    %y_t_1030 = tt.addptr %y_t_1029, %ncl_idx_5 : tensor<1024x!tt.ptr<f32>>, tensor<1024xi32> loc(#loc42)
    %y_t_1031 = tt.load %y_t_1030, %mask_6, %cst_1 : tensor<1024x!tt.ptr<f32>> loc(#loc43)
    %v_1032 = arith.mulf %v_1027, %cst_0 : tensor<1024xf32> loc(#loc54)
    %v_1033 = arith.addf %y_t_1031, %bias_10 : tensor<1024xf32> loc(#loc44)
    %v_1034 = arith.mulf %v_1033, %cst_0 : tensor<1024xf32> loc(#loc45)
    %v_1035 = arith.addf %v_1032, %v_1034 : tensor<1024xf32> loc(#loc46)
    %spike_1036 = arith.cmpf oge, %v_1035, %cst : tensor<1024xf32> loc(#loc47)
    %spike_1037 = arith.uitofp %spike_1036 : tensor<1024xi1> to tensor<1024xf32> loc(#loc48)
    %v_1038 = arith.subf %cst, %spike_1037 : tensor<1024xf32> loc(#loc49)
    %v_1039 = arith.mulf %v_1035, %v_1038 : tensor<1024xf32> loc(#loc50)
    %v_1040 = arith.mulf %spike_1037, %cst_1 : tensor<1024xf32> loc(#loc51)
    %v_1041 = arith.addf %v_1039, %v_1040 : tensor<1024xf32> loc(#loc52)
    %218 = tt.addptr %spike_ptr, %c58605568_i32 : !tt.ptr<f32>, i32 loc(#loc26)
    %219 = tt.splat %218 : !tt.ptr<f32> -> tensor<1024x!tt.ptr<f32>> loc(#loc22)
    %220 = tt.addptr %219, %ncl_idx_5 : tensor<1024x!tt.ptr<f32>>, tensor<1024xi32> loc(#loc22)
    tt.store %220, %spike_1037, %mask_6 : tensor<1024x!tt.ptr<f32>> loc(#loc23)
    %y_t_1042 = tt.addptr %y_ptr, %c59408384_i32 : !tt.ptr<f32>, i32 loc(#loc53)
    %y_t_1043 = tt.splat %y_t_1042 : !tt.ptr<f32> -> tensor<1024x!tt.ptr<f32>> loc(#loc42)
    %y_t_1044 = tt.addptr %y_t_1043, %ncl_idx_5 : tensor<1024x!tt.ptr<f32>>, tensor<1024xi32> loc(#loc42)
    %y_t_1045 = tt.load %y_t_1044, %mask_6, %cst_1 : tensor<1024x!tt.ptr<f32>> loc(#loc43)
    %v_1046 = arith.mulf %v_1041, %cst_0 : tensor<1024xf32> loc(#loc54)
    %v_1047 = arith.addf %y_t_1045, %bias_10 : tensor<1024xf32> loc(#loc44)
    %v_1048 = arith.mulf %v_1047, %cst_0 : tensor<1024xf32> loc(#loc45)
    %v_1049 = arith.addf %v_1046, %v_1048 : tensor<1024xf32> loc(#loc46)
    %spike_1050 = arith.cmpf oge, %v_1049, %cst : tensor<1024xf32> loc(#loc47)
    %spike_1051 = arith.uitofp %spike_1050 : tensor<1024xi1> to tensor<1024xf32> loc(#loc48)
    %v_1052 = arith.subf %cst, %spike_1051 : tensor<1024xf32> loc(#loc49)
    %v_1053 = arith.mulf %v_1049, %v_1052 : tensor<1024xf32> loc(#loc50)
    %v_1054 = arith.mulf %spike_1051, %cst_1 : tensor<1024xf32> loc(#loc51)
    %v_1055 = arith.addf %v_1053, %v_1054 : tensor<1024xf32> loc(#loc52)
    %221 = tt.addptr %spike_ptr, %c59408384_i32 : !tt.ptr<f32>, i32 loc(#loc26)
    %222 = tt.splat %221 : !tt.ptr<f32> -> tensor<1024x!tt.ptr<f32>> loc(#loc22)
    %223 = tt.addptr %222, %ncl_idx_5 : tensor<1024x!tt.ptr<f32>>, tensor<1024xi32> loc(#loc22)
    tt.store %223, %spike_1051, %mask_6 : tensor<1024x!tt.ptr<f32>> loc(#loc23)
    %y_t_1056 = tt.addptr %y_ptr, %c60211200_i32 : !tt.ptr<f32>, i32 loc(#loc53)
    %y_t_1057 = tt.splat %y_t_1056 : !tt.ptr<f32> -> tensor<1024x!tt.ptr<f32>> loc(#loc42)
    %y_t_1058 = tt.addptr %y_t_1057, %ncl_idx_5 : tensor<1024x!tt.ptr<f32>>, tensor<1024xi32> loc(#loc42)
    %y_t_1059 = tt.load %y_t_1058, %mask_6, %cst_1 : tensor<1024x!tt.ptr<f32>> loc(#loc43)
    %v_1060 = arith.mulf %v_1055, %cst_0 : tensor<1024xf32> loc(#loc54)
    %v_1061 = arith.addf %y_t_1059, %bias_10 : tensor<1024xf32> loc(#loc44)
    %v_1062 = arith.mulf %v_1061, %cst_0 : tensor<1024xf32> loc(#loc45)
    %v_1063 = arith.addf %v_1060, %v_1062 : tensor<1024xf32> loc(#loc46)
    %spike_1064 = arith.cmpf oge, %v_1063, %cst : tensor<1024xf32> loc(#loc47)
    %spike_1065 = arith.uitofp %spike_1064 : tensor<1024xi1> to tensor<1024xf32> loc(#loc48)
    %v_1066 = arith.subf %cst, %spike_1065 : tensor<1024xf32> loc(#loc49)
    %v_1067 = arith.mulf %v_1063, %v_1066 : tensor<1024xf32> loc(#loc50)
    %v_1068 = arith.mulf %spike_1065, %cst_1 : tensor<1024xf32> loc(#loc51)
    %v_1069 = arith.addf %v_1067, %v_1068 : tensor<1024xf32> loc(#loc52)
    %224 = tt.addptr %spike_ptr, %c60211200_i32 : !tt.ptr<f32>, i32 loc(#loc26)
    %225 = tt.splat %224 : !tt.ptr<f32> -> tensor<1024x!tt.ptr<f32>> loc(#loc22)
    %226 = tt.addptr %225, %ncl_idx_5 : tensor<1024x!tt.ptr<f32>>, tensor<1024xi32> loc(#loc22)
    tt.store %226, %spike_1065, %mask_6 : tensor<1024x!tt.ptr<f32>> loc(#loc23)
    %y_t_1070 = tt.addptr %y_ptr, %c61014016_i32 : !tt.ptr<f32>, i32 loc(#loc53)
    %y_t_1071 = tt.splat %y_t_1070 : !tt.ptr<f32> -> tensor<1024x!tt.ptr<f32>> loc(#loc42)
    %y_t_1072 = tt.addptr %y_t_1071, %ncl_idx_5 : tensor<1024x!tt.ptr<f32>>, tensor<1024xi32> loc(#loc42)
    %y_t_1073 = tt.load %y_t_1072, %mask_6, %cst_1 : tensor<1024x!tt.ptr<f32>> loc(#loc43)
    %v_1074 = arith.mulf %v_1069, %cst_0 : tensor<1024xf32> loc(#loc54)
    %v_1075 = arith.addf %y_t_1073, %bias_10 : tensor<1024xf32> loc(#loc44)
    %v_1076 = arith.mulf %v_1075, %cst_0 : tensor<1024xf32> loc(#loc45)
    %v_1077 = arith.addf %v_1074, %v_1076 : tensor<1024xf32> loc(#loc46)
    %spike_1078 = arith.cmpf oge, %v_1077, %cst : tensor<1024xf32> loc(#loc47)
    %spike_1079 = arith.uitofp %spike_1078 : tensor<1024xi1> to tensor<1024xf32> loc(#loc48)
    %v_1080 = arith.subf %cst, %spike_1079 : tensor<1024xf32> loc(#loc49)
    %v_1081 = arith.mulf %v_1077, %v_1080 : tensor<1024xf32> loc(#loc50)
    %v_1082 = arith.mulf %spike_1079, %cst_1 : tensor<1024xf32> loc(#loc51)
    %v_1083 = arith.addf %v_1081, %v_1082 : tensor<1024xf32> loc(#loc52)
    %227 = tt.addptr %spike_ptr, %c61014016_i32 : !tt.ptr<f32>, i32 loc(#loc26)
    %228 = tt.splat %227 : !tt.ptr<f32> -> tensor<1024x!tt.ptr<f32>> loc(#loc22)
    %229 = tt.addptr %228, %ncl_idx_5 : tensor<1024x!tt.ptr<f32>>, tensor<1024xi32> loc(#loc22)
    tt.store %229, %spike_1079, %mask_6 : tensor<1024x!tt.ptr<f32>> loc(#loc23)
    %y_t_1084 = tt.addptr %y_ptr, %c61816832_i32 : !tt.ptr<f32>, i32 loc(#loc53)
    %y_t_1085 = tt.splat %y_t_1084 : !tt.ptr<f32> -> tensor<1024x!tt.ptr<f32>> loc(#loc42)
    %y_t_1086 = tt.addptr %y_t_1085, %ncl_idx_5 : tensor<1024x!tt.ptr<f32>>, tensor<1024xi32> loc(#loc42)
    %y_t_1087 = tt.load %y_t_1086, %mask_6, %cst_1 : tensor<1024x!tt.ptr<f32>> loc(#loc43)
    %v_1088 = arith.mulf %v_1083, %cst_0 : tensor<1024xf32> loc(#loc54)
    %v_1089 = arith.addf %y_t_1087, %bias_10 : tensor<1024xf32> loc(#loc44)
    %v_1090 = arith.mulf %v_1089, %cst_0 : tensor<1024xf32> loc(#loc45)
    %v_1091 = arith.addf %v_1088, %v_1090 : tensor<1024xf32> loc(#loc46)
    %spike_1092 = arith.cmpf oge, %v_1091, %cst : tensor<1024xf32> loc(#loc47)
    %spike_1093 = arith.uitofp %spike_1092 : tensor<1024xi1> to tensor<1024xf32> loc(#loc48)
    %v_1094 = arith.subf %cst, %spike_1093 : tensor<1024xf32> loc(#loc49)
    %v_1095 = arith.mulf %v_1091, %v_1094 : tensor<1024xf32> loc(#loc50)
    %v_1096 = arith.mulf %spike_1093, %cst_1 : tensor<1024xf32> loc(#loc51)
    %v_1097 = arith.addf %v_1095, %v_1096 : tensor<1024xf32> loc(#loc52)
    %230 = tt.addptr %spike_ptr, %c61816832_i32 : !tt.ptr<f32>, i32 loc(#loc26)
    %231 = tt.splat %230 : !tt.ptr<f32> -> tensor<1024x!tt.ptr<f32>> loc(#loc22)
    %232 = tt.addptr %231, %ncl_idx_5 : tensor<1024x!tt.ptr<f32>>, tensor<1024xi32> loc(#loc22)
    tt.store %232, %spike_1093, %mask_6 : tensor<1024x!tt.ptr<f32>> loc(#loc23)
    %y_t_1098 = tt.addptr %y_ptr, %c62619648_i32 : !tt.ptr<f32>, i32 loc(#loc53)
    %y_t_1099 = tt.splat %y_t_1098 : !tt.ptr<f32> -> tensor<1024x!tt.ptr<f32>> loc(#loc42)
    %y_t_1100 = tt.addptr %y_t_1099, %ncl_idx_5 : tensor<1024x!tt.ptr<f32>>, tensor<1024xi32> loc(#loc42)
    %y_t_1101 = tt.load %y_t_1100, %mask_6, %cst_1 : tensor<1024x!tt.ptr<f32>> loc(#loc43)
    %v_1102 = arith.mulf %v_1097, %cst_0 : tensor<1024xf32> loc(#loc54)
    %v_1103 = arith.addf %y_t_1101, %bias_10 : tensor<1024xf32> loc(#loc44)
    %v_1104 = arith.mulf %v_1103, %cst_0 : tensor<1024xf32> loc(#loc45)
    %v_1105 = arith.addf %v_1102, %v_1104 : tensor<1024xf32> loc(#loc46)
    %spike_1106 = arith.cmpf oge, %v_1105, %cst : tensor<1024xf32> loc(#loc47)
    %spike_1107 = arith.uitofp %spike_1106 : tensor<1024xi1> to tensor<1024xf32> loc(#loc48)
    %v_1108 = arith.subf %cst, %spike_1107 : tensor<1024xf32> loc(#loc49)
    %v_1109 = arith.mulf %v_1105, %v_1108 : tensor<1024xf32> loc(#loc50)
    %v_1110 = arith.mulf %spike_1107, %cst_1 : tensor<1024xf32> loc(#loc51)
    %v_1111 = arith.addf %v_1109, %v_1110 : tensor<1024xf32> loc(#loc52)
    %233 = tt.addptr %spike_ptr, %c62619648_i32 : !tt.ptr<f32>, i32 loc(#loc26)
    %234 = tt.splat %233 : !tt.ptr<f32> -> tensor<1024x!tt.ptr<f32>> loc(#loc22)
    %235 = tt.addptr %234, %ncl_idx_5 : tensor<1024x!tt.ptr<f32>>, tensor<1024xi32> loc(#loc22)
    tt.store %235, %spike_1107, %mask_6 : tensor<1024x!tt.ptr<f32>> loc(#loc23)
    %y_t_1112 = tt.addptr %y_ptr, %c63422464_i32 : !tt.ptr<f32>, i32 loc(#loc53)
    %y_t_1113 = tt.splat %y_t_1112 : !tt.ptr<f32> -> tensor<1024x!tt.ptr<f32>> loc(#loc42)
    %y_t_1114 = tt.addptr %y_t_1113, %ncl_idx_5 : tensor<1024x!tt.ptr<f32>>, tensor<1024xi32> loc(#loc42)
    %y_t_1115 = tt.load %y_t_1114, %mask_6, %cst_1 : tensor<1024x!tt.ptr<f32>> loc(#loc43)
    %v_1116 = arith.mulf %v_1111, %cst_0 : tensor<1024xf32> loc(#loc54)
    %v_1117 = arith.addf %y_t_1115, %bias_10 : tensor<1024xf32> loc(#loc44)
    %v_1118 = arith.mulf %v_1117, %cst_0 : tensor<1024xf32> loc(#loc45)
    %v_1119 = arith.addf %v_1116, %v_1118 : tensor<1024xf32> loc(#loc46)
    %spike_1120 = arith.cmpf oge, %v_1119, %cst : tensor<1024xf32> loc(#loc47)
    %spike_1121 = arith.uitofp %spike_1120 : tensor<1024xi1> to tensor<1024xf32> loc(#loc48)
    %v_1122 = arith.subf %cst, %spike_1121 : tensor<1024xf32> loc(#loc49)
    %v_1123 = arith.mulf %v_1119, %v_1122 : tensor<1024xf32> loc(#loc50)
    %v_1124 = arith.mulf %spike_1121, %cst_1 : tensor<1024xf32> loc(#loc51)
    %v_1125 = arith.addf %v_1123, %v_1124 : tensor<1024xf32> loc(#loc52)
    %236 = tt.addptr %spike_ptr, %c63422464_i32 : !tt.ptr<f32>, i32 loc(#loc26)
    %237 = tt.splat %236 : !tt.ptr<f32> -> tensor<1024x!tt.ptr<f32>> loc(#loc22)
    %238 = tt.addptr %237, %ncl_idx_5 : tensor<1024x!tt.ptr<f32>>, tensor<1024xi32> loc(#loc22)
    tt.store %238, %spike_1121, %mask_6 : tensor<1024x!tt.ptr<f32>> loc(#loc23)
    %y_t_1126 = tt.addptr %y_ptr, %c64225280_i32 : !tt.ptr<f32>, i32 loc(#loc53)
    %y_t_1127 = tt.splat %y_t_1126 : !tt.ptr<f32> -> tensor<1024x!tt.ptr<f32>> loc(#loc42)
    %y_t_1128 = tt.addptr %y_t_1127, %ncl_idx_5 : tensor<1024x!tt.ptr<f32>>, tensor<1024xi32> loc(#loc42)
    %y_t_1129 = tt.load %y_t_1128, %mask_6, %cst_1 : tensor<1024x!tt.ptr<f32>> loc(#loc43)
    %v_1130 = arith.mulf %v_1125, %cst_0 : tensor<1024xf32> loc(#loc54)
    %v_1131 = arith.addf %y_t_1129, %bias_10 : tensor<1024xf32> loc(#loc44)
    %v_1132 = arith.mulf %v_1131, %cst_0 : tensor<1024xf32> loc(#loc45)
    %v_1133 = arith.addf %v_1130, %v_1132 : tensor<1024xf32> loc(#loc46)
    %spike_1134 = arith.cmpf oge, %v_1133, %cst : tensor<1024xf32> loc(#loc47)
    %spike_1135 = arith.uitofp %spike_1134 : tensor<1024xi1> to tensor<1024xf32> loc(#loc48)
    %v_1136 = arith.subf %cst, %spike_1135 : tensor<1024xf32> loc(#loc49)
    %v_1137 = arith.mulf %v_1133, %v_1136 : tensor<1024xf32> loc(#loc50)
    %v_1138 = arith.mulf %spike_1135, %cst_1 : tensor<1024xf32> loc(#loc51)
    %v_1139 = arith.addf %v_1137, %v_1138 : tensor<1024xf32> loc(#loc52)
    %239 = tt.addptr %spike_ptr, %c64225280_i32 : !tt.ptr<f32>, i32 loc(#loc26)
    %240 = tt.splat %239 : !tt.ptr<f32> -> tensor<1024x!tt.ptr<f32>> loc(#loc22)
    %241 = tt.addptr %240, %ncl_idx_5 : tensor<1024x!tt.ptr<f32>>, tensor<1024xi32> loc(#loc22)
    tt.store %241, %spike_1135, %mask_6 : tensor<1024x!tt.ptr<f32>> loc(#loc23)
    %y_t_1140 = tt.addptr %y_ptr, %c65028096_i32 : !tt.ptr<f32>, i32 loc(#loc53)
    %y_t_1141 = tt.splat %y_t_1140 : !tt.ptr<f32> -> tensor<1024x!tt.ptr<f32>> loc(#loc42)
    %y_t_1142 = tt.addptr %y_t_1141, %ncl_idx_5 : tensor<1024x!tt.ptr<f32>>, tensor<1024xi32> loc(#loc42)
    %y_t_1143 = tt.load %y_t_1142, %mask_6, %cst_1 : tensor<1024x!tt.ptr<f32>> loc(#loc43)
    %v_1144 = arith.mulf %v_1139, %cst_0 : tensor<1024xf32> loc(#loc54)
    %v_1145 = arith.addf %y_t_1143, %bias_10 : tensor<1024xf32> loc(#loc44)
    %v_1146 = arith.mulf %v_1145, %cst_0 : tensor<1024xf32> loc(#loc45)
    %v_1147 = arith.addf %v_1144, %v_1146 : tensor<1024xf32> loc(#loc46)
    %spike_1148 = arith.cmpf oge, %v_1147, %cst : tensor<1024xf32> loc(#loc47)
    %spike_1149 = arith.uitofp %spike_1148 : tensor<1024xi1> to tensor<1024xf32> loc(#loc48)
    %v_1150 = arith.subf %cst, %spike_1149 : tensor<1024xf32> loc(#loc49)
    %v_1151 = arith.mulf %v_1147, %v_1150 : tensor<1024xf32> loc(#loc50)
    %v_1152 = arith.mulf %spike_1149, %cst_1 : tensor<1024xf32> loc(#loc51)
    %v_1153 = arith.addf %v_1151, %v_1152 : tensor<1024xf32> loc(#loc52)
    %242 = tt.addptr %spike_ptr, %c65028096_i32 : !tt.ptr<f32>, i32 loc(#loc26)
    %243 = tt.splat %242 : !tt.ptr<f32> -> tensor<1024x!tt.ptr<f32>> loc(#loc22)
    %244 = tt.addptr %243, %ncl_idx_5 : tensor<1024x!tt.ptr<f32>>, tensor<1024xi32> loc(#loc22)
    tt.store %244, %spike_1149, %mask_6 : tensor<1024x!tt.ptr<f32>> loc(#loc23)
    %y_t_1154 = tt.addptr %y_ptr, %c65830912_i32 : !tt.ptr<f32>, i32 loc(#loc53)
    %y_t_1155 = tt.splat %y_t_1154 : !tt.ptr<f32> -> tensor<1024x!tt.ptr<f32>> loc(#loc42)
    %y_t_1156 = tt.addptr %y_t_1155, %ncl_idx_5 : tensor<1024x!tt.ptr<f32>>, tensor<1024xi32> loc(#loc42)
    %y_t_1157 = tt.load %y_t_1156, %mask_6, %cst_1 : tensor<1024x!tt.ptr<f32>> loc(#loc43)
    %v_1158 = arith.mulf %v_1153, %cst_0 : tensor<1024xf32> loc(#loc54)
    %v_1159 = arith.addf %y_t_1157, %bias_10 : tensor<1024xf32> loc(#loc44)
    %v_1160 = arith.mulf %v_1159, %cst_0 : tensor<1024xf32> loc(#loc45)
    %v_1161 = arith.addf %v_1158, %v_1160 : tensor<1024xf32> loc(#loc46)
    %spike_1162 = arith.cmpf oge, %v_1161, %cst : tensor<1024xf32> loc(#loc47)
    %spike_1163 = arith.uitofp %spike_1162 : tensor<1024xi1> to tensor<1024xf32> loc(#loc48)
    %v_1164 = arith.subf %cst, %spike_1163 : tensor<1024xf32> loc(#loc49)
    %v_1165 = arith.mulf %v_1161, %v_1164 : tensor<1024xf32> loc(#loc50)
    %v_1166 = arith.mulf %spike_1163, %cst_1 : tensor<1024xf32> loc(#loc51)
    %v_1167 = arith.addf %v_1165, %v_1166 : tensor<1024xf32> loc(#loc52)
    %245 = tt.addptr %spike_ptr, %c65830912_i32 : !tt.ptr<f32>, i32 loc(#loc26)
    %246 = tt.splat %245 : !tt.ptr<f32> -> tensor<1024x!tt.ptr<f32>> loc(#loc22)
    %247 = tt.addptr %246, %ncl_idx_5 : tensor<1024x!tt.ptr<f32>>, tensor<1024xi32> loc(#loc22)
    tt.store %247, %spike_1163, %mask_6 : tensor<1024x!tt.ptr<f32>> loc(#loc23)
    %y_t_1168 = tt.addptr %y_ptr, %c66633728_i32 : !tt.ptr<f32>, i32 loc(#loc53)
    %y_t_1169 = tt.splat %y_t_1168 : !tt.ptr<f32> -> tensor<1024x!tt.ptr<f32>> loc(#loc42)
    %y_t_1170 = tt.addptr %y_t_1169, %ncl_idx_5 : tensor<1024x!tt.ptr<f32>>, tensor<1024xi32> loc(#loc42)
    %y_t_1171 = tt.load %y_t_1170, %mask_6, %cst_1 : tensor<1024x!tt.ptr<f32>> loc(#loc43)
    %v_1172 = arith.mulf %v_1167, %cst_0 : tensor<1024xf32> loc(#loc54)
    %v_1173 = arith.addf %y_t_1171, %bias_10 : tensor<1024xf32> loc(#loc44)
    %v_1174 = arith.mulf %v_1173, %cst_0 : tensor<1024xf32> loc(#loc45)
    %v_1175 = arith.addf %v_1172, %v_1174 : tensor<1024xf32> loc(#loc46)
    %spike_1176 = arith.cmpf oge, %v_1175, %cst : tensor<1024xf32> loc(#loc47)
    %spike_1177 = arith.uitofp %spike_1176 : tensor<1024xi1> to tensor<1024xf32> loc(#loc48)
    %v_1178 = arith.subf %cst, %spike_1177 : tensor<1024xf32> loc(#loc49)
    %v_1179 = arith.mulf %v_1175, %v_1178 : tensor<1024xf32> loc(#loc50)
    %v_1180 = arith.mulf %spike_1177, %cst_1 : tensor<1024xf32> loc(#loc51)
    %v_1181 = arith.addf %v_1179, %v_1180 : tensor<1024xf32> loc(#loc52)
    %248 = tt.addptr %spike_ptr, %c66633728_i32 : !tt.ptr<f32>, i32 loc(#loc26)
    %249 = tt.splat %248 : !tt.ptr<f32> -> tensor<1024x!tt.ptr<f32>> loc(#loc22)
    %250 = tt.addptr %249, %ncl_idx_5 : tensor<1024x!tt.ptr<f32>>, tensor<1024xi32> loc(#loc22)
    tt.store %250, %spike_1177, %mask_6 : tensor<1024x!tt.ptr<f32>> loc(#loc23)
    %y_t_1182 = tt.addptr %y_ptr, %c67436544_i32 : !tt.ptr<f32>, i32 loc(#loc53)
    %y_t_1183 = tt.splat %y_t_1182 : !tt.ptr<f32> -> tensor<1024x!tt.ptr<f32>> loc(#loc42)
    %y_t_1184 = tt.addptr %y_t_1183, %ncl_idx_5 : tensor<1024x!tt.ptr<f32>>, tensor<1024xi32> loc(#loc42)
    %y_t_1185 = tt.load %y_t_1184, %mask_6, %cst_1 : tensor<1024x!tt.ptr<f32>> loc(#loc43)
    %v_1186 = arith.mulf %v_1181, %cst_0 : tensor<1024xf32> loc(#loc54)
    %v_1187 = arith.addf %y_t_1185, %bias_10 : tensor<1024xf32> loc(#loc44)
    %v_1188 = arith.mulf %v_1187, %cst_0 : tensor<1024xf32> loc(#loc45)
    %v_1189 = arith.addf %v_1186, %v_1188 : tensor<1024xf32> loc(#loc46)
    %spike_1190 = arith.cmpf oge, %v_1189, %cst : tensor<1024xf32> loc(#loc47)
    %spike_1191 = arith.uitofp %spike_1190 : tensor<1024xi1> to tensor<1024xf32> loc(#loc48)
    %v_1192 = arith.subf %cst, %spike_1191 : tensor<1024xf32> loc(#loc49)
    %v_1193 = arith.mulf %v_1189, %v_1192 : tensor<1024xf32> loc(#loc50)
    %v_1194 = arith.mulf %spike_1191, %cst_1 : tensor<1024xf32> loc(#loc51)
    %v_1195 = arith.addf %v_1193, %v_1194 : tensor<1024xf32> loc(#loc52)
    %251 = tt.addptr %spike_ptr, %c67436544_i32 : !tt.ptr<f32>, i32 loc(#loc26)
    %252 = tt.splat %251 : !tt.ptr<f32> -> tensor<1024x!tt.ptr<f32>> loc(#loc22)
    %253 = tt.addptr %252, %ncl_idx_5 : tensor<1024x!tt.ptr<f32>>, tensor<1024xi32> loc(#loc22)
    tt.store %253, %spike_1191, %mask_6 : tensor<1024x!tt.ptr<f32>> loc(#loc23)
    %y_t_1196 = tt.addptr %y_ptr, %c68239360_i32 : !tt.ptr<f32>, i32 loc(#loc53)
    %y_t_1197 = tt.splat %y_t_1196 : !tt.ptr<f32> -> tensor<1024x!tt.ptr<f32>> loc(#loc42)
    %y_t_1198 = tt.addptr %y_t_1197, %ncl_idx_5 : tensor<1024x!tt.ptr<f32>>, tensor<1024xi32> loc(#loc42)
    %y_t_1199 = tt.load %y_t_1198, %mask_6, %cst_1 : tensor<1024x!tt.ptr<f32>> loc(#loc43)
    %v_1200 = arith.mulf %v_1195, %cst_0 : tensor<1024xf32> loc(#loc54)
    %v_1201 = arith.addf %y_t_1199, %bias_10 : tensor<1024xf32> loc(#loc44)
    %v_1202 = arith.mulf %v_1201, %cst_0 : tensor<1024xf32> loc(#loc45)
    %v_1203 = arith.addf %v_1200, %v_1202 : tensor<1024xf32> loc(#loc46)
    %spike_1204 = arith.cmpf oge, %v_1203, %cst : tensor<1024xf32> loc(#loc47)
    %spike_1205 = arith.uitofp %spike_1204 : tensor<1024xi1> to tensor<1024xf32> loc(#loc48)
    %v_1206 = arith.subf %cst, %spike_1205 : tensor<1024xf32> loc(#loc49)
    %v_1207 = arith.mulf %v_1203, %v_1206 : tensor<1024xf32> loc(#loc50)
    %v_1208 = arith.mulf %spike_1205, %cst_1 : tensor<1024xf32> loc(#loc51)
    %v_1209 = arith.addf %v_1207, %v_1208 : tensor<1024xf32> loc(#loc52)
    %254 = tt.addptr %spike_ptr, %c68239360_i32 : !tt.ptr<f32>, i32 loc(#loc26)
    %255 = tt.splat %254 : !tt.ptr<f32> -> tensor<1024x!tt.ptr<f32>> loc(#loc22)
    %256 = tt.addptr %255, %ncl_idx_5 : tensor<1024x!tt.ptr<f32>>, tensor<1024xi32> loc(#loc22)
    tt.store %256, %spike_1205, %mask_6 : tensor<1024x!tt.ptr<f32>> loc(#loc23)
    %y_t_1210 = tt.addptr %y_ptr, %c69042176_i32 : !tt.ptr<f32>, i32 loc(#loc53)
    %y_t_1211 = tt.splat %y_t_1210 : !tt.ptr<f32> -> tensor<1024x!tt.ptr<f32>> loc(#loc42)
    %y_t_1212 = tt.addptr %y_t_1211, %ncl_idx_5 : tensor<1024x!tt.ptr<f32>>, tensor<1024xi32> loc(#loc42)
    %y_t_1213 = tt.load %y_t_1212, %mask_6, %cst_1 : tensor<1024x!tt.ptr<f32>> loc(#loc43)
    %v_1214 = arith.mulf %v_1209, %cst_0 : tensor<1024xf32> loc(#loc54)
    %v_1215 = arith.addf %y_t_1213, %bias_10 : tensor<1024xf32> loc(#loc44)
    %v_1216 = arith.mulf %v_1215, %cst_0 : tensor<1024xf32> loc(#loc45)
    %v_1217 = arith.addf %v_1214, %v_1216 : tensor<1024xf32> loc(#loc46)
    %spike_1218 = arith.cmpf oge, %v_1217, %cst : tensor<1024xf32> loc(#loc47)
    %spike_1219 = arith.uitofp %spike_1218 : tensor<1024xi1> to tensor<1024xf32> loc(#loc48)
    %v_1220 = arith.subf %cst, %spike_1219 : tensor<1024xf32> loc(#loc49)
    %v_1221 = arith.mulf %v_1217, %v_1220 : tensor<1024xf32> loc(#loc50)
    %v_1222 = arith.mulf %spike_1219, %cst_1 : tensor<1024xf32> loc(#loc51)
    %v_1223 = arith.addf %v_1221, %v_1222 : tensor<1024xf32> loc(#loc52)
    %257 = tt.addptr %spike_ptr, %c69042176_i32 : !tt.ptr<f32>, i32 loc(#loc26)
    %258 = tt.splat %257 : !tt.ptr<f32> -> tensor<1024x!tt.ptr<f32>> loc(#loc22)
    %259 = tt.addptr %258, %ncl_idx_5 : tensor<1024x!tt.ptr<f32>>, tensor<1024xi32> loc(#loc22)
    tt.store %259, %spike_1219, %mask_6 : tensor<1024x!tt.ptr<f32>> loc(#loc23)
    %y_t_1224 = tt.addptr %y_ptr, %c69844992_i32 : !tt.ptr<f32>, i32 loc(#loc53)
    %y_t_1225 = tt.splat %y_t_1224 : !tt.ptr<f32> -> tensor<1024x!tt.ptr<f32>> loc(#loc42)
    %y_t_1226 = tt.addptr %y_t_1225, %ncl_idx_5 : tensor<1024x!tt.ptr<f32>>, tensor<1024xi32> loc(#loc42)
    %y_t_1227 = tt.load %y_t_1226, %mask_6, %cst_1 : tensor<1024x!tt.ptr<f32>> loc(#loc43)
    %v_1228 = arith.mulf %v_1223, %cst_0 : tensor<1024xf32> loc(#loc54)
    %v_1229 = arith.addf %y_t_1227, %bias_10 : tensor<1024xf32> loc(#loc44)
    %v_1230 = arith.mulf %v_1229, %cst_0 : tensor<1024xf32> loc(#loc45)
    %v_1231 = arith.addf %v_1228, %v_1230 : tensor<1024xf32> loc(#loc46)
    %spike_1232 = arith.cmpf oge, %v_1231, %cst : tensor<1024xf32> loc(#loc47)
    %spike_1233 = arith.uitofp %spike_1232 : tensor<1024xi1> to tensor<1024xf32> loc(#loc48)
    %v_1234 = arith.subf %cst, %spike_1233 : tensor<1024xf32> loc(#loc49)
    %v_1235 = arith.mulf %v_1231, %v_1234 : tensor<1024xf32> loc(#loc50)
    %v_1236 = arith.mulf %spike_1233, %cst_1 : tensor<1024xf32> loc(#loc51)
    %v_1237 = arith.addf %v_1235, %v_1236 : tensor<1024xf32> loc(#loc52)
    %260 = tt.addptr %spike_ptr, %c69844992_i32 : !tt.ptr<f32>, i32 loc(#loc26)
    %261 = tt.splat %260 : !tt.ptr<f32> -> tensor<1024x!tt.ptr<f32>> loc(#loc22)
    %262 = tt.addptr %261, %ncl_idx_5 : tensor<1024x!tt.ptr<f32>>, tensor<1024xi32> loc(#loc22)
    tt.store %262, %spike_1233, %mask_6 : tensor<1024x!tt.ptr<f32>> loc(#loc23)
    %y_t_1238 = tt.addptr %y_ptr, %c70647808_i32 : !tt.ptr<f32>, i32 loc(#loc53)
    %y_t_1239 = tt.splat %y_t_1238 : !tt.ptr<f32> -> tensor<1024x!tt.ptr<f32>> loc(#loc42)
    %y_t_1240 = tt.addptr %y_t_1239, %ncl_idx_5 : tensor<1024x!tt.ptr<f32>>, tensor<1024xi32> loc(#loc42)
    %y_t_1241 = tt.load %y_t_1240, %mask_6, %cst_1 : tensor<1024x!tt.ptr<f32>> loc(#loc43)
    %v_1242 = arith.mulf %v_1237, %cst_0 : tensor<1024xf32> loc(#loc54)
    %v_1243 = arith.addf %y_t_1241, %bias_10 : tensor<1024xf32> loc(#loc44)
    %v_1244 = arith.mulf %v_1243, %cst_0 : tensor<1024xf32> loc(#loc45)
    %v_1245 = arith.addf %v_1242, %v_1244 : tensor<1024xf32> loc(#loc46)
    %spike_1246 = arith.cmpf oge, %v_1245, %cst : tensor<1024xf32> loc(#loc47)
    %spike_1247 = arith.uitofp %spike_1246 : tensor<1024xi1> to tensor<1024xf32> loc(#loc48)
    %v_1248 = arith.subf %cst, %spike_1247 : tensor<1024xf32> loc(#loc49)
    %v_1249 = arith.mulf %v_1245, %v_1248 : tensor<1024xf32> loc(#loc50)
    %v_1250 = arith.mulf %spike_1247, %cst_1 : tensor<1024xf32> loc(#loc51)
    %v_1251 = arith.addf %v_1249, %v_1250 : tensor<1024xf32> loc(#loc52)
    %263 = tt.addptr %spike_ptr, %c70647808_i32 : !tt.ptr<f32>, i32 loc(#loc26)
    %264 = tt.splat %263 : !tt.ptr<f32> -> tensor<1024x!tt.ptr<f32>> loc(#loc22)
    %265 = tt.addptr %264, %ncl_idx_5 : tensor<1024x!tt.ptr<f32>>, tensor<1024xi32> loc(#loc22)
    tt.store %265, %spike_1247, %mask_6 : tensor<1024x!tt.ptr<f32>> loc(#loc23)
    %y_t_1252 = tt.addptr %y_ptr, %c71450624_i32 : !tt.ptr<f32>, i32 loc(#loc53)
    %y_t_1253 = tt.splat %y_t_1252 : !tt.ptr<f32> -> tensor<1024x!tt.ptr<f32>> loc(#loc42)
    %y_t_1254 = tt.addptr %y_t_1253, %ncl_idx_5 : tensor<1024x!tt.ptr<f32>>, tensor<1024xi32> loc(#loc42)
    %y_t_1255 = tt.load %y_t_1254, %mask_6, %cst_1 : tensor<1024x!tt.ptr<f32>> loc(#loc43)
    %v_1256 = arith.mulf %v_1251, %cst_0 : tensor<1024xf32> loc(#loc54)
    %v_1257 = arith.addf %y_t_1255, %bias_10 : tensor<1024xf32> loc(#loc44)
    %v_1258 = arith.mulf %v_1257, %cst_0 : tensor<1024xf32> loc(#loc45)
    %v_1259 = arith.addf %v_1256, %v_1258 : tensor<1024xf32> loc(#loc46)
    %spike_1260 = arith.cmpf oge, %v_1259, %cst : tensor<1024xf32> loc(#loc47)
    %spike_1261 = arith.uitofp %spike_1260 : tensor<1024xi1> to tensor<1024xf32> loc(#loc48)
    %v_1262 = arith.subf %cst, %spike_1261 : tensor<1024xf32> loc(#loc49)
    %v_1263 = arith.mulf %v_1259, %v_1262 : tensor<1024xf32> loc(#loc50)
    %v_1264 = arith.mulf %spike_1261, %cst_1 : tensor<1024xf32> loc(#loc51)
    %v_1265 = arith.addf %v_1263, %v_1264 : tensor<1024xf32> loc(#loc52)
    %266 = tt.addptr %spike_ptr, %c71450624_i32 : !tt.ptr<f32>, i32 loc(#loc26)
    %267 = tt.splat %266 : !tt.ptr<f32> -> tensor<1024x!tt.ptr<f32>> loc(#loc22)
    %268 = tt.addptr %267, %ncl_idx_5 : tensor<1024x!tt.ptr<f32>>, tensor<1024xi32> loc(#loc22)
    tt.store %268, %spike_1261, %mask_6 : tensor<1024x!tt.ptr<f32>> loc(#loc23)
    %y_t_1266 = tt.addptr %y_ptr, %c72253440_i32 : !tt.ptr<f32>, i32 loc(#loc53)
    %y_t_1267 = tt.splat %y_t_1266 : !tt.ptr<f32> -> tensor<1024x!tt.ptr<f32>> loc(#loc42)
    %y_t_1268 = tt.addptr %y_t_1267, %ncl_idx_5 : tensor<1024x!tt.ptr<f32>>, tensor<1024xi32> loc(#loc42)
    %y_t_1269 = tt.load %y_t_1268, %mask_6, %cst_1 : tensor<1024x!tt.ptr<f32>> loc(#loc43)
    %v_1270 = arith.mulf %v_1265, %cst_0 : tensor<1024xf32> loc(#loc54)
    %v_1271 = arith.addf %y_t_1269, %bias_10 : tensor<1024xf32> loc(#loc44)
    %v_1272 = arith.mulf %v_1271, %cst_0 : tensor<1024xf32> loc(#loc45)
    %v_1273 = arith.addf %v_1270, %v_1272 : tensor<1024xf32> loc(#loc46)
    %spike_1274 = arith.cmpf oge, %v_1273, %cst : tensor<1024xf32> loc(#loc47)
    %spike_1275 = arith.uitofp %spike_1274 : tensor<1024xi1> to tensor<1024xf32> loc(#loc48)
    %v_1276 = arith.subf %cst, %spike_1275 : tensor<1024xf32> loc(#loc49)
    %v_1277 = arith.mulf %v_1273, %v_1276 : tensor<1024xf32> loc(#loc50)
    %v_1278 = arith.mulf %spike_1275, %cst_1 : tensor<1024xf32> loc(#loc51)
    %v_1279 = arith.addf %v_1277, %v_1278 : tensor<1024xf32> loc(#loc52)
    %269 = tt.addptr %spike_ptr, %c72253440_i32 : !tt.ptr<f32>, i32 loc(#loc26)
    %270 = tt.splat %269 : !tt.ptr<f32> -> tensor<1024x!tt.ptr<f32>> loc(#loc22)
    %271 = tt.addptr %270, %ncl_idx_5 : tensor<1024x!tt.ptr<f32>>, tensor<1024xi32> loc(#loc22)
    tt.store %271, %spike_1275, %mask_6 : tensor<1024x!tt.ptr<f32>> loc(#loc23)
    %y_t_1280 = tt.addptr %y_ptr, %c73056256_i32 : !tt.ptr<f32>, i32 loc(#loc53)
    %y_t_1281 = tt.splat %y_t_1280 : !tt.ptr<f32> -> tensor<1024x!tt.ptr<f32>> loc(#loc42)
    %y_t_1282 = tt.addptr %y_t_1281, %ncl_idx_5 : tensor<1024x!tt.ptr<f32>>, tensor<1024xi32> loc(#loc42)
    %y_t_1283 = tt.load %y_t_1282, %mask_6, %cst_1 : tensor<1024x!tt.ptr<f32>> loc(#loc43)
    %v_1284 = arith.mulf %v_1279, %cst_0 : tensor<1024xf32> loc(#loc54)
    %v_1285 = arith.addf %y_t_1283, %bias_10 : tensor<1024xf32> loc(#loc44)
    %v_1286 = arith.mulf %v_1285, %cst_0 : tensor<1024xf32> loc(#loc45)
    %v_1287 = arith.addf %v_1284, %v_1286 : tensor<1024xf32> loc(#loc46)
    %spike_1288 = arith.cmpf oge, %v_1287, %cst : tensor<1024xf32> loc(#loc47)
    %spike_1289 = arith.uitofp %spike_1288 : tensor<1024xi1> to tensor<1024xf32> loc(#loc48)
    %v_1290 = arith.subf %cst, %spike_1289 : tensor<1024xf32> loc(#loc49)
    %v_1291 = arith.mulf %v_1287, %v_1290 : tensor<1024xf32> loc(#loc50)
    %v_1292 = arith.mulf %spike_1289, %cst_1 : tensor<1024xf32> loc(#loc51)
    %v_1293 = arith.addf %v_1291, %v_1292 : tensor<1024xf32> loc(#loc52)
    %272 = tt.addptr %spike_ptr, %c73056256_i32 : !tt.ptr<f32>, i32 loc(#loc26)
    %273 = tt.splat %272 : !tt.ptr<f32> -> tensor<1024x!tt.ptr<f32>> loc(#loc22)
    %274 = tt.addptr %273, %ncl_idx_5 : tensor<1024x!tt.ptr<f32>>, tensor<1024xi32> loc(#loc22)
    tt.store %274, %spike_1289, %mask_6 : tensor<1024x!tt.ptr<f32>> loc(#loc23)
    %y_t_1294 = tt.addptr %y_ptr, %c73859072_i32 : !tt.ptr<f32>, i32 loc(#loc53)
    %y_t_1295 = tt.splat %y_t_1294 : !tt.ptr<f32> -> tensor<1024x!tt.ptr<f32>> loc(#loc42)
    %y_t_1296 = tt.addptr %y_t_1295, %ncl_idx_5 : tensor<1024x!tt.ptr<f32>>, tensor<1024xi32> loc(#loc42)
    %y_t_1297 = tt.load %y_t_1296, %mask_6, %cst_1 : tensor<1024x!tt.ptr<f32>> loc(#loc43)
    %v_1298 = arith.mulf %v_1293, %cst_0 : tensor<1024xf32> loc(#loc54)
    %v_1299 = arith.addf %y_t_1297, %bias_10 : tensor<1024xf32> loc(#loc44)
    %v_1300 = arith.mulf %v_1299, %cst_0 : tensor<1024xf32> loc(#loc45)
    %v_1301 = arith.addf %v_1298, %v_1300 : tensor<1024xf32> loc(#loc46)
    %spike_1302 = arith.cmpf oge, %v_1301, %cst : tensor<1024xf32> loc(#loc47)
    %spike_1303 = arith.uitofp %spike_1302 : tensor<1024xi1> to tensor<1024xf32> loc(#loc48)
    %v_1304 = arith.subf %cst, %spike_1303 : tensor<1024xf32> loc(#loc49)
    %v_1305 = arith.mulf %v_1301, %v_1304 : tensor<1024xf32> loc(#loc50)
    %v_1306 = arith.mulf %spike_1303, %cst_1 : tensor<1024xf32> loc(#loc51)
    %v_1307 = arith.addf %v_1305, %v_1306 : tensor<1024xf32> loc(#loc52)
    %275 = tt.addptr %spike_ptr, %c73859072_i32 : !tt.ptr<f32>, i32 loc(#loc26)
    %276 = tt.splat %275 : !tt.ptr<f32> -> tensor<1024x!tt.ptr<f32>> loc(#loc22)
    %277 = tt.addptr %276, %ncl_idx_5 : tensor<1024x!tt.ptr<f32>>, tensor<1024xi32> loc(#loc22)
    tt.store %277, %spike_1303, %mask_6 : tensor<1024x!tt.ptr<f32>> loc(#loc23)
    %y_t_1308 = tt.addptr %y_ptr, %c74661888_i32 : !tt.ptr<f32>, i32 loc(#loc53)
    %y_t_1309 = tt.splat %y_t_1308 : !tt.ptr<f32> -> tensor<1024x!tt.ptr<f32>> loc(#loc42)
    %y_t_1310 = tt.addptr %y_t_1309, %ncl_idx_5 : tensor<1024x!tt.ptr<f32>>, tensor<1024xi32> loc(#loc42)
    %y_t_1311 = tt.load %y_t_1310, %mask_6, %cst_1 : tensor<1024x!tt.ptr<f32>> loc(#loc43)
    %v_1312 = arith.mulf %v_1307, %cst_0 : tensor<1024xf32> loc(#loc54)
    %v_1313 = arith.addf %y_t_1311, %bias_10 : tensor<1024xf32> loc(#loc44)
    %v_1314 = arith.mulf %v_1313, %cst_0 : tensor<1024xf32> loc(#loc45)
    %v_1315 = arith.addf %v_1312, %v_1314 : tensor<1024xf32> loc(#loc46)
    %spike_1316 = arith.cmpf oge, %v_1315, %cst : tensor<1024xf32> loc(#loc47)
    %spike_1317 = arith.uitofp %spike_1316 : tensor<1024xi1> to tensor<1024xf32> loc(#loc48)
    %v_1318 = arith.subf %cst, %spike_1317 : tensor<1024xf32> loc(#loc49)
    %v_1319 = arith.mulf %v_1315, %v_1318 : tensor<1024xf32> loc(#loc50)
    %v_1320 = arith.mulf %spike_1317, %cst_1 : tensor<1024xf32> loc(#loc51)
    %v_1321 = arith.addf %v_1319, %v_1320 : tensor<1024xf32> loc(#loc52)
    %278 = tt.addptr %spike_ptr, %c74661888_i32 : !tt.ptr<f32>, i32 loc(#loc26)
    %279 = tt.splat %278 : !tt.ptr<f32> -> tensor<1024x!tt.ptr<f32>> loc(#loc22)
    %280 = tt.addptr %279, %ncl_idx_5 : tensor<1024x!tt.ptr<f32>>, tensor<1024xi32> loc(#loc22)
    tt.store %280, %spike_1317, %mask_6 : tensor<1024x!tt.ptr<f32>> loc(#loc23)
    %y_t_1322 = tt.addptr %y_ptr, %c75464704_i32 : !tt.ptr<f32>, i32 loc(#loc53)
    %y_t_1323 = tt.splat %y_t_1322 : !tt.ptr<f32> -> tensor<1024x!tt.ptr<f32>> loc(#loc42)
    %y_t_1324 = tt.addptr %y_t_1323, %ncl_idx_5 : tensor<1024x!tt.ptr<f32>>, tensor<1024xi32> loc(#loc42)
    %y_t_1325 = tt.load %y_t_1324, %mask_6, %cst_1 : tensor<1024x!tt.ptr<f32>> loc(#loc43)
    %v_1326 = arith.mulf %v_1321, %cst_0 : tensor<1024xf32> loc(#loc54)
    %v_1327 = arith.addf %y_t_1325, %bias_10 : tensor<1024xf32> loc(#loc44)
    %v_1328 = arith.mulf %v_1327, %cst_0 : tensor<1024xf32> loc(#loc45)
    %v_1329 = arith.addf %v_1326, %v_1328 : tensor<1024xf32> loc(#loc46)
    %spike_1330 = arith.cmpf oge, %v_1329, %cst : tensor<1024xf32> loc(#loc47)
    %spike_1331 = arith.uitofp %spike_1330 : tensor<1024xi1> to tensor<1024xf32> loc(#loc48)
    %v_1332 = arith.subf %cst, %spike_1331 : tensor<1024xf32> loc(#loc49)
    %v_1333 = arith.mulf %v_1329, %v_1332 : tensor<1024xf32> loc(#loc50)
    %v_1334 = arith.mulf %spike_1331, %cst_1 : tensor<1024xf32> loc(#loc51)
    %v_1335 = arith.addf %v_1333, %v_1334 : tensor<1024xf32> loc(#loc52)
    %281 = tt.addptr %spike_ptr, %c75464704_i32 : !tt.ptr<f32>, i32 loc(#loc26)
    %282 = tt.splat %281 : !tt.ptr<f32> -> tensor<1024x!tt.ptr<f32>> loc(#loc22)
    %283 = tt.addptr %282, %ncl_idx_5 : tensor<1024x!tt.ptr<f32>>, tensor<1024xi32> loc(#loc22)
    tt.store %283, %spike_1331, %mask_6 : tensor<1024x!tt.ptr<f32>> loc(#loc23)
    %y_t_1336 = tt.addptr %y_ptr, %c76267520_i32 : !tt.ptr<f32>, i32 loc(#loc53)
    %y_t_1337 = tt.splat %y_t_1336 : !tt.ptr<f32> -> tensor<1024x!tt.ptr<f32>> loc(#loc42)
    %y_t_1338 = tt.addptr %y_t_1337, %ncl_idx_5 : tensor<1024x!tt.ptr<f32>>, tensor<1024xi32> loc(#loc42)
    %y_t_1339 = tt.load %y_t_1338, %mask_6, %cst_1 : tensor<1024x!tt.ptr<f32>> loc(#loc43)
    %v_1340 = arith.mulf %v_1335, %cst_0 : tensor<1024xf32> loc(#loc54)
    %v_1341 = arith.addf %y_t_1339, %bias_10 : tensor<1024xf32> loc(#loc44)
    %v_1342 = arith.mulf %v_1341, %cst_0 : tensor<1024xf32> loc(#loc45)
    %v_1343 = arith.addf %v_1340, %v_1342 : tensor<1024xf32> loc(#loc46)
    %spike_1344 = arith.cmpf oge, %v_1343, %cst : tensor<1024xf32> loc(#loc47)
    %spike_1345 = arith.uitofp %spike_1344 : tensor<1024xi1> to tensor<1024xf32> loc(#loc48)
    %v_1346 = arith.subf %cst, %spike_1345 : tensor<1024xf32> loc(#loc49)
    %v_1347 = arith.mulf %v_1343, %v_1346 : tensor<1024xf32> loc(#loc50)
    %v_1348 = arith.mulf %spike_1345, %cst_1 : tensor<1024xf32> loc(#loc51)
    %v_1349 = arith.addf %v_1347, %v_1348 : tensor<1024xf32> loc(#loc52)
    %284 = tt.addptr %spike_ptr, %c76267520_i32 : !tt.ptr<f32>, i32 loc(#loc26)
    %285 = tt.splat %284 : !tt.ptr<f32> -> tensor<1024x!tt.ptr<f32>> loc(#loc22)
    %286 = tt.addptr %285, %ncl_idx_5 : tensor<1024x!tt.ptr<f32>>, tensor<1024xi32> loc(#loc22)
    tt.store %286, %spike_1345, %mask_6 : tensor<1024x!tt.ptr<f32>> loc(#loc23)
    %y_t_1350 = tt.addptr %y_ptr, %c77070336_i32 : !tt.ptr<f32>, i32 loc(#loc53)
    %y_t_1351 = tt.splat %y_t_1350 : !tt.ptr<f32> -> tensor<1024x!tt.ptr<f32>> loc(#loc42)
    %y_t_1352 = tt.addptr %y_t_1351, %ncl_idx_5 : tensor<1024x!tt.ptr<f32>>, tensor<1024xi32> loc(#loc42)
    %y_t_1353 = tt.load %y_t_1352, %mask_6, %cst_1 : tensor<1024x!tt.ptr<f32>> loc(#loc43)
    %v_1354 = arith.mulf %v_1349, %cst_0 : tensor<1024xf32> loc(#loc54)
    %v_1355 = arith.addf %y_t_1353, %bias_10 : tensor<1024xf32> loc(#loc44)
    %v_1356 = arith.mulf %v_1355, %cst_0 : tensor<1024xf32> loc(#loc45)
    %v_1357 = arith.addf %v_1354, %v_1356 : tensor<1024xf32> loc(#loc46)
    %spike_1358 = arith.cmpf oge, %v_1357, %cst : tensor<1024xf32> loc(#loc47)
    %spike_1359 = arith.uitofp %spike_1358 : tensor<1024xi1> to tensor<1024xf32> loc(#loc48)
    %v_1360 = arith.subf %cst, %spike_1359 : tensor<1024xf32> loc(#loc49)
    %v_1361 = arith.mulf %v_1357, %v_1360 : tensor<1024xf32> loc(#loc50)
    %v_1362 = arith.mulf %spike_1359, %cst_1 : tensor<1024xf32> loc(#loc51)
    %v_1363 = arith.addf %v_1361, %v_1362 : tensor<1024xf32> loc(#loc52)
    %287 = tt.addptr %spike_ptr, %c77070336_i32 : !tt.ptr<f32>, i32 loc(#loc26)
    %288 = tt.splat %287 : !tt.ptr<f32> -> tensor<1024x!tt.ptr<f32>> loc(#loc22)
    %289 = tt.addptr %288, %ncl_idx_5 : tensor<1024x!tt.ptr<f32>>, tensor<1024xi32> loc(#loc22)
    tt.store %289, %spike_1359, %mask_6 : tensor<1024x!tt.ptr<f32>> loc(#loc23)
    %y_t_1364 = tt.addptr %y_ptr, %c77873152_i32 : !tt.ptr<f32>, i32 loc(#loc53)
    %y_t_1365 = tt.splat %y_t_1364 : !tt.ptr<f32> -> tensor<1024x!tt.ptr<f32>> loc(#loc42)
    %y_t_1366 = tt.addptr %y_t_1365, %ncl_idx_5 : tensor<1024x!tt.ptr<f32>>, tensor<1024xi32> loc(#loc42)
    %y_t_1367 = tt.load %y_t_1366, %mask_6, %cst_1 : tensor<1024x!tt.ptr<f32>> loc(#loc43)
    %v_1368 = arith.mulf %v_1363, %cst_0 : tensor<1024xf32> loc(#loc54)
    %v_1369 = arith.addf %y_t_1367, %bias_10 : tensor<1024xf32> loc(#loc44)
    %v_1370 = arith.mulf %v_1369, %cst_0 : tensor<1024xf32> loc(#loc45)
    %v_1371 = arith.addf %v_1368, %v_1370 : tensor<1024xf32> loc(#loc46)
    %spike_1372 = arith.cmpf oge, %v_1371, %cst : tensor<1024xf32> loc(#loc47)
    %spike_1373 = arith.uitofp %spike_1372 : tensor<1024xi1> to tensor<1024xf32> loc(#loc48)
    %v_1374 = arith.subf %cst, %spike_1373 : tensor<1024xf32> loc(#loc49)
    %v_1375 = arith.mulf %v_1371, %v_1374 : tensor<1024xf32> loc(#loc50)
    %v_1376 = arith.mulf %spike_1373, %cst_1 : tensor<1024xf32> loc(#loc51)
    %v_1377 = arith.addf %v_1375, %v_1376 : tensor<1024xf32> loc(#loc52)
    %290 = tt.addptr %spike_ptr, %c77873152_i32 : !tt.ptr<f32>, i32 loc(#loc26)
    %291 = tt.splat %290 : !tt.ptr<f32> -> tensor<1024x!tt.ptr<f32>> loc(#loc22)
    %292 = tt.addptr %291, %ncl_idx_5 : tensor<1024x!tt.ptr<f32>>, tensor<1024xi32> loc(#loc22)
    tt.store %292, %spike_1373, %mask_6 : tensor<1024x!tt.ptr<f32>> loc(#loc23)
    %y_t_1378 = tt.addptr %y_ptr, %c78675968_i32 : !tt.ptr<f32>, i32 loc(#loc53)
    %y_t_1379 = tt.splat %y_t_1378 : !tt.ptr<f32> -> tensor<1024x!tt.ptr<f32>> loc(#loc42)
    %y_t_1380 = tt.addptr %y_t_1379, %ncl_idx_5 : tensor<1024x!tt.ptr<f32>>, tensor<1024xi32> loc(#loc42)
    %y_t_1381 = tt.load %y_t_1380, %mask_6, %cst_1 : tensor<1024x!tt.ptr<f32>> loc(#loc43)
    %v_1382 = arith.mulf %v_1377, %cst_0 : tensor<1024xf32> loc(#loc54)
    %v_1383 = arith.addf %y_t_1381, %bias_10 : tensor<1024xf32> loc(#loc44)
    %v_1384 = arith.mulf %v_1383, %cst_0 : tensor<1024xf32> loc(#loc45)
    %v_1385 = arith.addf %v_1382, %v_1384 : tensor<1024xf32> loc(#loc46)
    %spike_1386 = arith.cmpf oge, %v_1385, %cst : tensor<1024xf32> loc(#loc47)
    %spike_1387 = arith.uitofp %spike_1386 : tensor<1024xi1> to tensor<1024xf32> loc(#loc48)
    %v_1388 = arith.subf %cst, %spike_1387 : tensor<1024xf32> loc(#loc49)
    %v_1389 = arith.mulf %v_1385, %v_1388 : tensor<1024xf32> loc(#loc50)
    %v_1390 = arith.mulf %spike_1387, %cst_1 : tensor<1024xf32> loc(#loc51)
    %v_1391 = arith.addf %v_1389, %v_1390 : tensor<1024xf32> loc(#loc52)
    %293 = tt.addptr %spike_ptr, %c78675968_i32 : !tt.ptr<f32>, i32 loc(#loc26)
    %294 = tt.splat %293 : !tt.ptr<f32> -> tensor<1024x!tt.ptr<f32>> loc(#loc22)
    %295 = tt.addptr %294, %ncl_idx_5 : tensor<1024x!tt.ptr<f32>>, tensor<1024xi32> loc(#loc22)
    tt.store %295, %spike_1387, %mask_6 : tensor<1024x!tt.ptr<f32>> loc(#loc23)
    %y_t_1392 = tt.addptr %y_ptr, %c79478784_i32 : !tt.ptr<f32>, i32 loc(#loc53)
    %y_t_1393 = tt.splat %y_t_1392 : !tt.ptr<f32> -> tensor<1024x!tt.ptr<f32>> loc(#loc42)
    %y_t_1394 = tt.addptr %y_t_1393, %ncl_idx_5 : tensor<1024x!tt.ptr<f32>>, tensor<1024xi32> loc(#loc42)
    %y_t_1395 = tt.load %y_t_1394, %mask_6, %cst_1 : tensor<1024x!tt.ptr<f32>> loc(#loc43)
    %v_1396 = arith.mulf %v_1391, %cst_0 : tensor<1024xf32> loc(#loc54)
    %v_1397 = arith.addf %y_t_1395, %bias_10 : tensor<1024xf32> loc(#loc44)
    %v_1398 = arith.mulf %v_1397, %cst_0 : tensor<1024xf32> loc(#loc45)
    %v_1399 = arith.addf %v_1396, %v_1398 : tensor<1024xf32> loc(#loc46)
    %spike_1400 = arith.cmpf oge, %v_1399, %cst : tensor<1024xf32> loc(#loc47)
    %spike_1401 = arith.uitofp %spike_1400 : tensor<1024xi1> to tensor<1024xf32> loc(#loc48)
    %v_1402 = arith.subf %cst, %spike_1401 : tensor<1024xf32> loc(#loc49)
    %v_1403 = arith.mulf %v_1399, %v_1402 : tensor<1024xf32> loc(#loc50)
    %v_1404 = arith.mulf %spike_1401, %cst_1 : tensor<1024xf32> loc(#loc51)
    %v_1405 = arith.addf %v_1403, %v_1404 : tensor<1024xf32> loc(#loc52)
    %296 = tt.addptr %spike_ptr, %c79478784_i32 : !tt.ptr<f32>, i32 loc(#loc26)
    %297 = tt.splat %296 : !tt.ptr<f32> -> tensor<1024x!tt.ptr<f32>> loc(#loc22)
    %298 = tt.addptr %297, %ncl_idx_5 : tensor<1024x!tt.ptr<f32>>, tensor<1024xi32> loc(#loc22)
    tt.store %298, %spike_1401, %mask_6 : tensor<1024x!tt.ptr<f32>> loc(#loc23)
    %y_t_1406 = tt.addptr %y_ptr, %c80281600_i32 : !tt.ptr<f32>, i32 loc(#loc53)
    %y_t_1407 = tt.splat %y_t_1406 : !tt.ptr<f32> -> tensor<1024x!tt.ptr<f32>> loc(#loc42)
    %y_t_1408 = tt.addptr %y_t_1407, %ncl_idx_5 : tensor<1024x!tt.ptr<f32>>, tensor<1024xi32> loc(#loc42)
    %y_t_1409 = tt.load %y_t_1408, %mask_6, %cst_1 : tensor<1024x!tt.ptr<f32>> loc(#loc43)
    %v_1410 = arith.mulf %v_1405, %cst_0 : tensor<1024xf32> loc(#loc54)
    %v_1411 = arith.addf %y_t_1409, %bias_10 : tensor<1024xf32> loc(#loc44)
    %v_1412 = arith.mulf %v_1411, %cst_0 : tensor<1024xf32> loc(#loc45)
    %v_1413 = arith.addf %v_1410, %v_1412 : tensor<1024xf32> loc(#loc46)
    %spike_1414 = arith.cmpf oge, %v_1413, %cst : tensor<1024xf32> loc(#loc47)
    %spike_1415 = arith.uitofp %spike_1414 : tensor<1024xi1> to tensor<1024xf32> loc(#loc48)
    %v_1416 = arith.subf %cst, %spike_1415 : tensor<1024xf32> loc(#loc49)
    %v_1417 = arith.mulf %v_1413, %v_1416 : tensor<1024xf32> loc(#loc50)
    %v_1418 = arith.mulf %spike_1415, %cst_1 : tensor<1024xf32> loc(#loc51)
    %v_1419 = arith.addf %v_1417, %v_1418 : tensor<1024xf32> loc(#loc52)
    %299 = tt.addptr %spike_ptr, %c80281600_i32 : !tt.ptr<f32>, i32 loc(#loc26)
    %300 = tt.splat %299 : !tt.ptr<f32> -> tensor<1024x!tt.ptr<f32>> loc(#loc22)
    %301 = tt.addptr %300, %ncl_idx_5 : tensor<1024x!tt.ptr<f32>>, tensor<1024xi32> loc(#loc22)
    tt.store %301, %spike_1415, %mask_6 : tensor<1024x!tt.ptr<f32>> loc(#loc23)
    %y_t_1420 = tt.addptr %y_ptr, %c81084416_i32 : !tt.ptr<f32>, i32 loc(#loc53)
    %y_t_1421 = tt.splat %y_t_1420 : !tt.ptr<f32> -> tensor<1024x!tt.ptr<f32>> loc(#loc42)
    %y_t_1422 = tt.addptr %y_t_1421, %ncl_idx_5 : tensor<1024x!tt.ptr<f32>>, tensor<1024xi32> loc(#loc42)
    %y_t_1423 = tt.load %y_t_1422, %mask_6, %cst_1 : tensor<1024x!tt.ptr<f32>> loc(#loc43)
    %v_1424 = arith.mulf %v_1419, %cst_0 : tensor<1024xf32> loc(#loc54)
    %v_1425 = arith.addf %y_t_1423, %bias_10 : tensor<1024xf32> loc(#loc44)
    %v_1426 = arith.mulf %v_1425, %cst_0 : tensor<1024xf32> loc(#loc45)
    %v_1427 = arith.addf %v_1424, %v_1426 : tensor<1024xf32> loc(#loc46)
    %spike_1428 = arith.cmpf oge, %v_1427, %cst : tensor<1024xf32> loc(#loc47)
    %spike_1429 = arith.uitofp %spike_1428 : tensor<1024xi1> to tensor<1024xf32> loc(#loc48)
    %v_1430 = arith.subf %cst, %spike_1429 : tensor<1024xf32> loc(#loc49)
    %v_1431 = arith.mulf %v_1427, %v_1430 : tensor<1024xf32> loc(#loc50)
    %v_1432 = arith.mulf %spike_1429, %cst_1 : tensor<1024xf32> loc(#loc51)
    %v_1433 = arith.addf %v_1431, %v_1432 : tensor<1024xf32> loc(#loc52)
    %302 = tt.addptr %spike_ptr, %c81084416_i32 : !tt.ptr<f32>, i32 loc(#loc26)
    %303 = tt.splat %302 : !tt.ptr<f32> -> tensor<1024x!tt.ptr<f32>> loc(#loc22)
    %304 = tt.addptr %303, %ncl_idx_5 : tensor<1024x!tt.ptr<f32>>, tensor<1024xi32> loc(#loc22)
    tt.store %304, %spike_1429, %mask_6 : tensor<1024x!tt.ptr<f32>> loc(#loc23)
    %y_t_1434 = tt.addptr %y_ptr, %c81887232_i32 : !tt.ptr<f32>, i32 loc(#loc53)
    %y_t_1435 = tt.splat %y_t_1434 : !tt.ptr<f32> -> tensor<1024x!tt.ptr<f32>> loc(#loc42)
    %y_t_1436 = tt.addptr %y_t_1435, %ncl_idx_5 : tensor<1024x!tt.ptr<f32>>, tensor<1024xi32> loc(#loc42)
    %y_t_1437 = tt.load %y_t_1436, %mask_6, %cst_1 : tensor<1024x!tt.ptr<f32>> loc(#loc43)
    %v_1438 = arith.mulf %v_1433, %cst_0 : tensor<1024xf32> loc(#loc54)
    %v_1439 = arith.addf %y_t_1437, %bias_10 : tensor<1024xf32> loc(#loc44)
    %v_1440 = arith.mulf %v_1439, %cst_0 : tensor<1024xf32> loc(#loc45)
    %v_1441 = arith.addf %v_1438, %v_1440 : tensor<1024xf32> loc(#loc46)
    %spike_1442 = arith.cmpf oge, %v_1441, %cst : tensor<1024xf32> loc(#loc47)
    %spike_1443 = arith.uitofp %spike_1442 : tensor<1024xi1> to tensor<1024xf32> loc(#loc48)
    %v_1444 = arith.subf %cst, %spike_1443 : tensor<1024xf32> loc(#loc49)
    %v_1445 = arith.mulf %v_1441, %v_1444 : tensor<1024xf32> loc(#loc50)
    %v_1446 = arith.mulf %spike_1443, %cst_1 : tensor<1024xf32> loc(#loc51)
    %v_1447 = arith.addf %v_1445, %v_1446 : tensor<1024xf32> loc(#loc52)
    %305 = tt.addptr %spike_ptr, %c81887232_i32 : !tt.ptr<f32>, i32 loc(#loc26)
    %306 = tt.splat %305 : !tt.ptr<f32> -> tensor<1024x!tt.ptr<f32>> loc(#loc22)
    %307 = tt.addptr %306, %ncl_idx_5 : tensor<1024x!tt.ptr<f32>>, tensor<1024xi32> loc(#loc22)
    tt.store %307, %spike_1443, %mask_6 : tensor<1024x!tt.ptr<f32>> loc(#loc23)
    %y_t_1448 = tt.addptr %y_ptr, %c82690048_i32 : !tt.ptr<f32>, i32 loc(#loc53)
    %y_t_1449 = tt.splat %y_t_1448 : !tt.ptr<f32> -> tensor<1024x!tt.ptr<f32>> loc(#loc42)
    %y_t_1450 = tt.addptr %y_t_1449, %ncl_idx_5 : tensor<1024x!tt.ptr<f32>>, tensor<1024xi32> loc(#loc42)
    %y_t_1451 = tt.load %y_t_1450, %mask_6, %cst_1 : tensor<1024x!tt.ptr<f32>> loc(#loc43)
    %v_1452 = arith.mulf %v_1447, %cst_0 : tensor<1024xf32> loc(#loc54)
    %v_1453 = arith.addf %y_t_1451, %bias_10 : tensor<1024xf32> loc(#loc44)
    %v_1454 = arith.mulf %v_1453, %cst_0 : tensor<1024xf32> loc(#loc45)
    %v_1455 = arith.addf %v_1452, %v_1454 : tensor<1024xf32> loc(#loc46)
    %spike_1456 = arith.cmpf oge, %v_1455, %cst : tensor<1024xf32> loc(#loc47)
    %spike_1457 = arith.uitofp %spike_1456 : tensor<1024xi1> to tensor<1024xf32> loc(#loc48)
    %v_1458 = arith.subf %cst, %spike_1457 : tensor<1024xf32> loc(#loc49)
    %v_1459 = arith.mulf %v_1455, %v_1458 : tensor<1024xf32> loc(#loc50)
    %v_1460 = arith.mulf %spike_1457, %cst_1 : tensor<1024xf32> loc(#loc51)
    %v_1461 = arith.addf %v_1459, %v_1460 : tensor<1024xf32> loc(#loc52)
    %308 = tt.addptr %spike_ptr, %c82690048_i32 : !tt.ptr<f32>, i32 loc(#loc26)
    %309 = tt.splat %308 : !tt.ptr<f32> -> tensor<1024x!tt.ptr<f32>> loc(#loc22)
    %310 = tt.addptr %309, %ncl_idx_5 : tensor<1024x!tt.ptr<f32>>, tensor<1024xi32> loc(#loc22)
    tt.store %310, %spike_1457, %mask_6 : tensor<1024x!tt.ptr<f32>> loc(#loc23)
    %y_t_1462 = tt.addptr %y_ptr, %c83492864_i32 : !tt.ptr<f32>, i32 loc(#loc53)
    %y_t_1463 = tt.splat %y_t_1462 : !tt.ptr<f32> -> tensor<1024x!tt.ptr<f32>> loc(#loc42)
    %y_t_1464 = tt.addptr %y_t_1463, %ncl_idx_5 : tensor<1024x!tt.ptr<f32>>, tensor<1024xi32> loc(#loc42)
    %y_t_1465 = tt.load %y_t_1464, %mask_6, %cst_1 : tensor<1024x!tt.ptr<f32>> loc(#loc43)
    %v_1466 = arith.mulf %v_1461, %cst_0 : tensor<1024xf32> loc(#loc54)
    %v_1467 = arith.addf %y_t_1465, %bias_10 : tensor<1024xf32> loc(#loc44)
    %v_1468 = arith.mulf %v_1467, %cst_0 : tensor<1024xf32> loc(#loc45)
    %v_1469 = arith.addf %v_1466, %v_1468 : tensor<1024xf32> loc(#loc46)
    %spike_1470 = arith.cmpf oge, %v_1469, %cst : tensor<1024xf32> loc(#loc47)
    %spike_1471 = arith.uitofp %spike_1470 : tensor<1024xi1> to tensor<1024xf32> loc(#loc48)
    %v_1472 = arith.subf %cst, %spike_1471 : tensor<1024xf32> loc(#loc49)
    %v_1473 = arith.mulf %v_1469, %v_1472 : tensor<1024xf32> loc(#loc50)
    %v_1474 = arith.mulf %spike_1471, %cst_1 : tensor<1024xf32> loc(#loc51)
    %v_1475 = arith.addf %v_1473, %v_1474 : tensor<1024xf32> loc(#loc52)
    %311 = tt.addptr %spike_ptr, %c83492864_i32 : !tt.ptr<f32>, i32 loc(#loc26)
    %312 = tt.splat %311 : !tt.ptr<f32> -> tensor<1024x!tt.ptr<f32>> loc(#loc22)
    %313 = tt.addptr %312, %ncl_idx_5 : tensor<1024x!tt.ptr<f32>>, tensor<1024xi32> loc(#loc22)
    tt.store %313, %spike_1471, %mask_6 : tensor<1024x!tt.ptr<f32>> loc(#loc23)
    %y_t_1476 = tt.addptr %y_ptr, %c84295680_i32 : !tt.ptr<f32>, i32 loc(#loc53)
    %y_t_1477 = tt.splat %y_t_1476 : !tt.ptr<f32> -> tensor<1024x!tt.ptr<f32>> loc(#loc42)
    %y_t_1478 = tt.addptr %y_t_1477, %ncl_idx_5 : tensor<1024x!tt.ptr<f32>>, tensor<1024xi32> loc(#loc42)
    %y_t_1479 = tt.load %y_t_1478, %mask_6, %cst_1 : tensor<1024x!tt.ptr<f32>> loc(#loc43)
    %v_1480 = arith.mulf %v_1475, %cst_0 : tensor<1024xf32> loc(#loc54)
    %v_1481 = arith.addf %y_t_1479, %bias_10 : tensor<1024xf32> loc(#loc44)
    %v_1482 = arith.mulf %v_1481, %cst_0 : tensor<1024xf32> loc(#loc45)
    %v_1483 = arith.addf %v_1480, %v_1482 : tensor<1024xf32> loc(#loc46)
    %spike_1484 = arith.cmpf oge, %v_1483, %cst : tensor<1024xf32> loc(#loc47)
    %spike_1485 = arith.uitofp %spike_1484 : tensor<1024xi1> to tensor<1024xf32> loc(#loc48)
    %v_1486 = arith.subf %cst, %spike_1485 : tensor<1024xf32> loc(#loc49)
    %v_1487 = arith.mulf %v_1483, %v_1486 : tensor<1024xf32> loc(#loc50)
    %v_1488 = arith.mulf %spike_1485, %cst_1 : tensor<1024xf32> loc(#loc51)
    %v_1489 = arith.addf %v_1487, %v_1488 : tensor<1024xf32> loc(#loc52)
    %314 = tt.addptr %spike_ptr, %c84295680_i32 : !tt.ptr<f32>, i32 loc(#loc26)
    %315 = tt.splat %314 : !tt.ptr<f32> -> tensor<1024x!tt.ptr<f32>> loc(#loc22)
    %316 = tt.addptr %315, %ncl_idx_5 : tensor<1024x!tt.ptr<f32>>, tensor<1024xi32> loc(#loc22)
    tt.store %316, %spike_1485, %mask_6 : tensor<1024x!tt.ptr<f32>> loc(#loc23)
    %y_t_1490 = tt.addptr %y_ptr, %c85098496_i32 : !tt.ptr<f32>, i32 loc(#loc53)
    %y_t_1491 = tt.splat %y_t_1490 : !tt.ptr<f32> -> tensor<1024x!tt.ptr<f32>> loc(#loc42)
    %y_t_1492 = tt.addptr %y_t_1491, %ncl_idx_5 : tensor<1024x!tt.ptr<f32>>, tensor<1024xi32> loc(#loc42)
    %y_t_1493 = tt.load %y_t_1492, %mask_6, %cst_1 : tensor<1024x!tt.ptr<f32>> loc(#loc43)
    %v_1494 = arith.mulf %v_1489, %cst_0 : tensor<1024xf32> loc(#loc54)
    %v_1495 = arith.addf %y_t_1493, %bias_10 : tensor<1024xf32> loc(#loc44)
    %v_1496 = arith.mulf %v_1495, %cst_0 : tensor<1024xf32> loc(#loc45)
    %v_1497 = arith.addf %v_1494, %v_1496 : tensor<1024xf32> loc(#loc46)
    %spike_1498 = arith.cmpf oge, %v_1497, %cst : tensor<1024xf32> loc(#loc47)
    %spike_1499 = arith.uitofp %spike_1498 : tensor<1024xi1> to tensor<1024xf32> loc(#loc48)
    %v_1500 = arith.subf %cst, %spike_1499 : tensor<1024xf32> loc(#loc49)
    %v_1501 = arith.mulf %v_1497, %v_1500 : tensor<1024xf32> loc(#loc50)
    %v_1502 = arith.mulf %spike_1499, %cst_1 : tensor<1024xf32> loc(#loc51)
    %v_1503 = arith.addf %v_1501, %v_1502 : tensor<1024xf32> loc(#loc52)
    %317 = tt.addptr %spike_ptr, %c85098496_i32 : !tt.ptr<f32>, i32 loc(#loc26)
    %318 = tt.splat %317 : !tt.ptr<f32> -> tensor<1024x!tt.ptr<f32>> loc(#loc22)
    %319 = tt.addptr %318, %ncl_idx_5 : tensor<1024x!tt.ptr<f32>>, tensor<1024xi32> loc(#loc22)
    tt.store %319, %spike_1499, %mask_6 : tensor<1024x!tt.ptr<f32>> loc(#loc23)
    %y_t_1504 = tt.addptr %y_ptr, %c85901312_i32 : !tt.ptr<f32>, i32 loc(#loc53)
    %y_t_1505 = tt.splat %y_t_1504 : !tt.ptr<f32> -> tensor<1024x!tt.ptr<f32>> loc(#loc42)
    %y_t_1506 = tt.addptr %y_t_1505, %ncl_idx_5 : tensor<1024x!tt.ptr<f32>>, tensor<1024xi32> loc(#loc42)
    %y_t_1507 = tt.load %y_t_1506, %mask_6, %cst_1 : tensor<1024x!tt.ptr<f32>> loc(#loc43)
    %v_1508 = arith.mulf %v_1503, %cst_0 : tensor<1024xf32> loc(#loc54)
    %v_1509 = arith.addf %y_t_1507, %bias_10 : tensor<1024xf32> loc(#loc44)
    %v_1510 = arith.mulf %v_1509, %cst_0 : tensor<1024xf32> loc(#loc45)
    %v_1511 = arith.addf %v_1508, %v_1510 : tensor<1024xf32> loc(#loc46)
    %spike_1512 = arith.cmpf oge, %v_1511, %cst : tensor<1024xf32> loc(#loc47)
    %spike_1513 = arith.uitofp %spike_1512 : tensor<1024xi1> to tensor<1024xf32> loc(#loc48)
    %v_1514 = arith.subf %cst, %spike_1513 : tensor<1024xf32> loc(#loc49)
    %v_1515 = arith.mulf %v_1511, %v_1514 : tensor<1024xf32> loc(#loc50)
    %v_1516 = arith.mulf %spike_1513, %cst_1 : tensor<1024xf32> loc(#loc51)
    %v_1517 = arith.addf %v_1515, %v_1516 : tensor<1024xf32> loc(#loc52)
    %320 = tt.addptr %spike_ptr, %c85901312_i32 : !tt.ptr<f32>, i32 loc(#loc26)
    %321 = tt.splat %320 : !tt.ptr<f32> -> tensor<1024x!tt.ptr<f32>> loc(#loc22)
    %322 = tt.addptr %321, %ncl_idx_5 : tensor<1024x!tt.ptr<f32>>, tensor<1024xi32> loc(#loc22)
    tt.store %322, %spike_1513, %mask_6 : tensor<1024x!tt.ptr<f32>> loc(#loc23)
    %y_t_1518 = tt.addptr %y_ptr, %c86704128_i32 : !tt.ptr<f32>, i32 loc(#loc53)
    %y_t_1519 = tt.splat %y_t_1518 : !tt.ptr<f32> -> tensor<1024x!tt.ptr<f32>> loc(#loc42)
    %y_t_1520 = tt.addptr %y_t_1519, %ncl_idx_5 : tensor<1024x!tt.ptr<f32>>, tensor<1024xi32> loc(#loc42)
    %y_t_1521 = tt.load %y_t_1520, %mask_6, %cst_1 : tensor<1024x!tt.ptr<f32>> loc(#loc43)
    %v_1522 = arith.mulf %v_1517, %cst_0 : tensor<1024xf32> loc(#loc54)
    %v_1523 = arith.addf %y_t_1521, %bias_10 : tensor<1024xf32> loc(#loc44)
    %v_1524 = arith.mulf %v_1523, %cst_0 : tensor<1024xf32> loc(#loc45)
    %v_1525 = arith.addf %v_1522, %v_1524 : tensor<1024xf32> loc(#loc46)
    %spike_1526 = arith.cmpf oge, %v_1525, %cst : tensor<1024xf32> loc(#loc47)
    %spike_1527 = arith.uitofp %spike_1526 : tensor<1024xi1> to tensor<1024xf32> loc(#loc48)
    %v_1528 = arith.subf %cst, %spike_1527 : tensor<1024xf32> loc(#loc49)
    %v_1529 = arith.mulf %v_1525, %v_1528 : tensor<1024xf32> loc(#loc50)
    %v_1530 = arith.mulf %spike_1527, %cst_1 : tensor<1024xf32> loc(#loc51)
    %v_1531 = arith.addf %v_1529, %v_1530 : tensor<1024xf32> loc(#loc52)
    %323 = tt.addptr %spike_ptr, %c86704128_i32 : !tt.ptr<f32>, i32 loc(#loc26)
    %324 = tt.splat %323 : !tt.ptr<f32> -> tensor<1024x!tt.ptr<f32>> loc(#loc22)
    %325 = tt.addptr %324, %ncl_idx_5 : tensor<1024x!tt.ptr<f32>>, tensor<1024xi32> loc(#loc22)
    tt.store %325, %spike_1527, %mask_6 : tensor<1024x!tt.ptr<f32>> loc(#loc23)
    %y_t_1532 = tt.addptr %y_ptr, %c87506944_i32 : !tt.ptr<f32>, i32 loc(#loc53)
    %y_t_1533 = tt.splat %y_t_1532 : !tt.ptr<f32> -> tensor<1024x!tt.ptr<f32>> loc(#loc42)
    %y_t_1534 = tt.addptr %y_t_1533, %ncl_idx_5 : tensor<1024x!tt.ptr<f32>>, tensor<1024xi32> loc(#loc42)
    %y_t_1535 = tt.load %y_t_1534, %mask_6, %cst_1 : tensor<1024x!tt.ptr<f32>> loc(#loc43)
    %v_1536 = arith.mulf %v_1531, %cst_0 : tensor<1024xf32> loc(#loc54)
    %v_1537 = arith.addf %y_t_1535, %bias_10 : tensor<1024xf32> loc(#loc44)
    %v_1538 = arith.mulf %v_1537, %cst_0 : tensor<1024xf32> loc(#loc45)
    %v_1539 = arith.addf %v_1536, %v_1538 : tensor<1024xf32> loc(#loc46)
    %spike_1540 = arith.cmpf oge, %v_1539, %cst : tensor<1024xf32> loc(#loc47)
    %spike_1541 = arith.uitofp %spike_1540 : tensor<1024xi1> to tensor<1024xf32> loc(#loc48)
    %v_1542 = arith.subf %cst, %spike_1541 : tensor<1024xf32> loc(#loc49)
    %v_1543 = arith.mulf %v_1539, %v_1542 : tensor<1024xf32> loc(#loc50)
    %v_1544 = arith.mulf %spike_1541, %cst_1 : tensor<1024xf32> loc(#loc51)
    %v_1545 = arith.addf %v_1543, %v_1544 : tensor<1024xf32> loc(#loc52)
    %326 = tt.addptr %spike_ptr, %c87506944_i32 : !tt.ptr<f32>, i32 loc(#loc26)
    %327 = tt.splat %326 : !tt.ptr<f32> -> tensor<1024x!tt.ptr<f32>> loc(#loc22)
    %328 = tt.addptr %327, %ncl_idx_5 : tensor<1024x!tt.ptr<f32>>, tensor<1024xi32> loc(#loc22)
    tt.store %328, %spike_1541, %mask_6 : tensor<1024x!tt.ptr<f32>> loc(#loc23)
    %y_t_1546 = tt.addptr %y_ptr, %c88309760_i32 : !tt.ptr<f32>, i32 loc(#loc53)
    %y_t_1547 = tt.splat %y_t_1546 : !tt.ptr<f32> -> tensor<1024x!tt.ptr<f32>> loc(#loc42)
    %y_t_1548 = tt.addptr %y_t_1547, %ncl_idx_5 : tensor<1024x!tt.ptr<f32>>, tensor<1024xi32> loc(#loc42)
    %y_t_1549 = tt.load %y_t_1548, %mask_6, %cst_1 : tensor<1024x!tt.ptr<f32>> loc(#loc43)
    %v_1550 = arith.mulf %v_1545, %cst_0 : tensor<1024xf32> loc(#loc54)
    %v_1551 = arith.addf %y_t_1549, %bias_10 : tensor<1024xf32> loc(#loc44)
    %v_1552 = arith.mulf %v_1551, %cst_0 : tensor<1024xf32> loc(#loc45)
    %v_1553 = arith.addf %v_1550, %v_1552 : tensor<1024xf32> loc(#loc46)
    %spike_1554 = arith.cmpf oge, %v_1553, %cst : tensor<1024xf32> loc(#loc47)
    %spike_1555 = arith.uitofp %spike_1554 : tensor<1024xi1> to tensor<1024xf32> loc(#loc48)
    %v_1556 = arith.subf %cst, %spike_1555 : tensor<1024xf32> loc(#loc49)
    %v_1557 = arith.mulf %v_1553, %v_1556 : tensor<1024xf32> loc(#loc50)
    %v_1558 = arith.mulf %spike_1555, %cst_1 : tensor<1024xf32> loc(#loc51)
    %v_1559 = arith.addf %v_1557, %v_1558 : tensor<1024xf32> loc(#loc52)
    %329 = tt.addptr %spike_ptr, %c88309760_i32 : !tt.ptr<f32>, i32 loc(#loc26)
    %330 = tt.splat %329 : !tt.ptr<f32> -> tensor<1024x!tt.ptr<f32>> loc(#loc22)
    %331 = tt.addptr %330, %ncl_idx_5 : tensor<1024x!tt.ptr<f32>>, tensor<1024xi32> loc(#loc22)
    tt.store %331, %spike_1555, %mask_6 : tensor<1024x!tt.ptr<f32>> loc(#loc23)
    %y_t_1560 = tt.addptr %y_ptr, %c89112576_i32 : !tt.ptr<f32>, i32 loc(#loc53)
    %y_t_1561 = tt.splat %y_t_1560 : !tt.ptr<f32> -> tensor<1024x!tt.ptr<f32>> loc(#loc42)
    %y_t_1562 = tt.addptr %y_t_1561, %ncl_idx_5 : tensor<1024x!tt.ptr<f32>>, tensor<1024xi32> loc(#loc42)
    %y_t_1563 = tt.load %y_t_1562, %mask_6, %cst_1 : tensor<1024x!tt.ptr<f32>> loc(#loc43)
    %v_1564 = arith.mulf %v_1559, %cst_0 : tensor<1024xf32> loc(#loc54)
    %v_1565 = arith.addf %y_t_1563, %bias_10 : tensor<1024xf32> loc(#loc44)
    %v_1566 = arith.mulf %v_1565, %cst_0 : tensor<1024xf32> loc(#loc45)
    %v_1567 = arith.addf %v_1564, %v_1566 : tensor<1024xf32> loc(#loc46)
    %spike_1568 = arith.cmpf oge, %v_1567, %cst : tensor<1024xf32> loc(#loc47)
    %spike_1569 = arith.uitofp %spike_1568 : tensor<1024xi1> to tensor<1024xf32> loc(#loc48)
    %v_1570 = arith.subf %cst, %spike_1569 : tensor<1024xf32> loc(#loc49)
    %v_1571 = arith.mulf %v_1567, %v_1570 : tensor<1024xf32> loc(#loc50)
    %v_1572 = arith.mulf %spike_1569, %cst_1 : tensor<1024xf32> loc(#loc51)
    %v_1573 = arith.addf %v_1571, %v_1572 : tensor<1024xf32> loc(#loc52)
    %332 = tt.addptr %spike_ptr, %c89112576_i32 : !tt.ptr<f32>, i32 loc(#loc26)
    %333 = tt.splat %332 : !tt.ptr<f32> -> tensor<1024x!tt.ptr<f32>> loc(#loc22)
    %334 = tt.addptr %333, %ncl_idx_5 : tensor<1024x!tt.ptr<f32>>, tensor<1024xi32> loc(#loc22)
    tt.store %334, %spike_1569, %mask_6 : tensor<1024x!tt.ptr<f32>> loc(#loc23)
    %y_t_1574 = tt.addptr %y_ptr, %c89915392_i32 : !tt.ptr<f32>, i32 loc(#loc53)
    %y_t_1575 = tt.splat %y_t_1574 : !tt.ptr<f32> -> tensor<1024x!tt.ptr<f32>> loc(#loc42)
    %y_t_1576 = tt.addptr %y_t_1575, %ncl_idx_5 : tensor<1024x!tt.ptr<f32>>, tensor<1024xi32> loc(#loc42)
    %y_t_1577 = tt.load %y_t_1576, %mask_6, %cst_1 : tensor<1024x!tt.ptr<f32>> loc(#loc43)
    %v_1578 = arith.mulf %v_1573, %cst_0 : tensor<1024xf32> loc(#loc54)
    %v_1579 = arith.addf %y_t_1577, %bias_10 : tensor<1024xf32> loc(#loc44)
    %v_1580 = arith.mulf %v_1579, %cst_0 : tensor<1024xf32> loc(#loc45)
    %v_1581 = arith.addf %v_1578, %v_1580 : tensor<1024xf32> loc(#loc46)
    %spike_1582 = arith.cmpf oge, %v_1581, %cst : tensor<1024xf32> loc(#loc47)
    %spike_1583 = arith.uitofp %spike_1582 : tensor<1024xi1> to tensor<1024xf32> loc(#loc48)
    %v_1584 = arith.subf %cst, %spike_1583 : tensor<1024xf32> loc(#loc49)
    %v_1585 = arith.mulf %v_1581, %v_1584 : tensor<1024xf32> loc(#loc50)
    %v_1586 = arith.mulf %spike_1583, %cst_1 : tensor<1024xf32> loc(#loc51)
    %v_1587 = arith.addf %v_1585, %v_1586 : tensor<1024xf32> loc(#loc52)
    %335 = tt.addptr %spike_ptr, %c89915392_i32 : !tt.ptr<f32>, i32 loc(#loc26)
    %336 = tt.splat %335 : !tt.ptr<f32> -> tensor<1024x!tt.ptr<f32>> loc(#loc22)
    %337 = tt.addptr %336, %ncl_idx_5 : tensor<1024x!tt.ptr<f32>>, tensor<1024xi32> loc(#loc22)
    tt.store %337, %spike_1583, %mask_6 : tensor<1024x!tt.ptr<f32>> loc(#loc23)
    %y_t_1588 = tt.addptr %y_ptr, %c90718208_i32 : !tt.ptr<f32>, i32 loc(#loc53)
    %y_t_1589 = tt.splat %y_t_1588 : !tt.ptr<f32> -> tensor<1024x!tt.ptr<f32>> loc(#loc42)
    %y_t_1590 = tt.addptr %y_t_1589, %ncl_idx_5 : tensor<1024x!tt.ptr<f32>>, tensor<1024xi32> loc(#loc42)
    %y_t_1591 = tt.load %y_t_1590, %mask_6, %cst_1 : tensor<1024x!tt.ptr<f32>> loc(#loc43)
    %v_1592 = arith.mulf %v_1587, %cst_0 : tensor<1024xf32> loc(#loc54)
    %v_1593 = arith.addf %y_t_1591, %bias_10 : tensor<1024xf32> loc(#loc44)
    %v_1594 = arith.mulf %v_1593, %cst_0 : tensor<1024xf32> loc(#loc45)
    %v_1595 = arith.addf %v_1592, %v_1594 : tensor<1024xf32> loc(#loc46)
    %spike_1596 = arith.cmpf oge, %v_1595, %cst : tensor<1024xf32> loc(#loc47)
    %spike_1597 = arith.uitofp %spike_1596 : tensor<1024xi1> to tensor<1024xf32> loc(#loc48)
    %v_1598 = arith.subf %cst, %spike_1597 : tensor<1024xf32> loc(#loc49)
    %v_1599 = arith.mulf %v_1595, %v_1598 : tensor<1024xf32> loc(#loc50)
    %v_1600 = arith.mulf %spike_1597, %cst_1 : tensor<1024xf32> loc(#loc51)
    %v_1601 = arith.addf %v_1599, %v_1600 : tensor<1024xf32> loc(#loc52)
    %338 = tt.addptr %spike_ptr, %c90718208_i32 : !tt.ptr<f32>, i32 loc(#loc26)
    %339 = tt.splat %338 : !tt.ptr<f32> -> tensor<1024x!tt.ptr<f32>> loc(#loc22)
    %340 = tt.addptr %339, %ncl_idx_5 : tensor<1024x!tt.ptr<f32>>, tensor<1024xi32> loc(#loc22)
    tt.store %340, %spike_1597, %mask_6 : tensor<1024x!tt.ptr<f32>> loc(#loc23)
    %y_t_1602 = tt.addptr %y_ptr, %c91521024_i32 : !tt.ptr<f32>, i32 loc(#loc53)
    %y_t_1603 = tt.splat %y_t_1602 : !tt.ptr<f32> -> tensor<1024x!tt.ptr<f32>> loc(#loc42)
    %y_t_1604 = tt.addptr %y_t_1603, %ncl_idx_5 : tensor<1024x!tt.ptr<f32>>, tensor<1024xi32> loc(#loc42)
    %y_t_1605 = tt.load %y_t_1604, %mask_6, %cst_1 : tensor<1024x!tt.ptr<f32>> loc(#loc43)
    %v_1606 = arith.mulf %v_1601, %cst_0 : tensor<1024xf32> loc(#loc54)
    %v_1607 = arith.addf %y_t_1605, %bias_10 : tensor<1024xf32> loc(#loc44)
    %v_1608 = arith.mulf %v_1607, %cst_0 : tensor<1024xf32> loc(#loc45)
    %v_1609 = arith.addf %v_1606, %v_1608 : tensor<1024xf32> loc(#loc46)
    %spike_1610 = arith.cmpf oge, %v_1609, %cst : tensor<1024xf32> loc(#loc47)
    %spike_1611 = arith.uitofp %spike_1610 : tensor<1024xi1> to tensor<1024xf32> loc(#loc48)
    %v_1612 = arith.subf %cst, %spike_1611 : tensor<1024xf32> loc(#loc49)
    %v_1613 = arith.mulf %v_1609, %v_1612 : tensor<1024xf32> loc(#loc50)
    %v_1614 = arith.mulf %spike_1611, %cst_1 : tensor<1024xf32> loc(#loc51)
    %v_1615 = arith.addf %v_1613, %v_1614 : tensor<1024xf32> loc(#loc52)
    %341 = tt.addptr %spike_ptr, %c91521024_i32 : !tt.ptr<f32>, i32 loc(#loc26)
    %342 = tt.splat %341 : !tt.ptr<f32> -> tensor<1024x!tt.ptr<f32>> loc(#loc22)
    %343 = tt.addptr %342, %ncl_idx_5 : tensor<1024x!tt.ptr<f32>>, tensor<1024xi32> loc(#loc22)
    tt.store %343, %spike_1611, %mask_6 : tensor<1024x!tt.ptr<f32>> loc(#loc23)
    %y_t_1616 = tt.addptr %y_ptr, %c92323840_i32 : !tt.ptr<f32>, i32 loc(#loc53)
    %y_t_1617 = tt.splat %y_t_1616 : !tt.ptr<f32> -> tensor<1024x!tt.ptr<f32>> loc(#loc42)
    %y_t_1618 = tt.addptr %y_t_1617, %ncl_idx_5 : tensor<1024x!tt.ptr<f32>>, tensor<1024xi32> loc(#loc42)
    %y_t_1619 = tt.load %y_t_1618, %mask_6, %cst_1 : tensor<1024x!tt.ptr<f32>> loc(#loc43)
    %v_1620 = arith.mulf %v_1615, %cst_0 : tensor<1024xf32> loc(#loc54)
    %v_1621 = arith.addf %y_t_1619, %bias_10 : tensor<1024xf32> loc(#loc44)
    %v_1622 = arith.mulf %v_1621, %cst_0 : tensor<1024xf32> loc(#loc45)
    %v_1623 = arith.addf %v_1620, %v_1622 : tensor<1024xf32> loc(#loc46)
    %spike_1624 = arith.cmpf oge, %v_1623, %cst : tensor<1024xf32> loc(#loc47)
    %spike_1625 = arith.uitofp %spike_1624 : tensor<1024xi1> to tensor<1024xf32> loc(#loc48)
    %v_1626 = arith.subf %cst, %spike_1625 : tensor<1024xf32> loc(#loc49)
    %v_1627 = arith.mulf %v_1623, %v_1626 : tensor<1024xf32> loc(#loc50)
    %v_1628 = arith.mulf %spike_1625, %cst_1 : tensor<1024xf32> loc(#loc51)
    %v_1629 = arith.addf %v_1627, %v_1628 : tensor<1024xf32> loc(#loc52)
    %344 = tt.addptr %spike_ptr, %c92323840_i32 : !tt.ptr<f32>, i32 loc(#loc26)
    %345 = tt.splat %344 : !tt.ptr<f32> -> tensor<1024x!tt.ptr<f32>> loc(#loc22)
    %346 = tt.addptr %345, %ncl_idx_5 : tensor<1024x!tt.ptr<f32>>, tensor<1024xi32> loc(#loc22)
    tt.store %346, %spike_1625, %mask_6 : tensor<1024x!tt.ptr<f32>> loc(#loc23)
    %y_t_1630 = tt.addptr %y_ptr, %c93126656_i32 : !tt.ptr<f32>, i32 loc(#loc53)
    %y_t_1631 = tt.splat %y_t_1630 : !tt.ptr<f32> -> tensor<1024x!tt.ptr<f32>> loc(#loc42)
    %y_t_1632 = tt.addptr %y_t_1631, %ncl_idx_5 : tensor<1024x!tt.ptr<f32>>, tensor<1024xi32> loc(#loc42)
    %y_t_1633 = tt.load %y_t_1632, %mask_6, %cst_1 : tensor<1024x!tt.ptr<f32>> loc(#loc43)
    %v_1634 = arith.mulf %v_1629, %cst_0 : tensor<1024xf32> loc(#loc54)
    %v_1635 = arith.addf %y_t_1633, %bias_10 : tensor<1024xf32> loc(#loc44)
    %v_1636 = arith.mulf %v_1635, %cst_0 : tensor<1024xf32> loc(#loc45)
    %v_1637 = arith.addf %v_1634, %v_1636 : tensor<1024xf32> loc(#loc46)
    %spike_1638 = arith.cmpf oge, %v_1637, %cst : tensor<1024xf32> loc(#loc47)
    %spike_1639 = arith.uitofp %spike_1638 : tensor<1024xi1> to tensor<1024xf32> loc(#loc48)
    %v_1640 = arith.subf %cst, %spike_1639 : tensor<1024xf32> loc(#loc49)
    %v_1641 = arith.mulf %v_1637, %v_1640 : tensor<1024xf32> loc(#loc50)
    %v_1642 = arith.mulf %spike_1639, %cst_1 : tensor<1024xf32> loc(#loc51)
    %v_1643 = arith.addf %v_1641, %v_1642 : tensor<1024xf32> loc(#loc52)
    %347 = tt.addptr %spike_ptr, %c93126656_i32 : !tt.ptr<f32>, i32 loc(#loc26)
    %348 = tt.splat %347 : !tt.ptr<f32> -> tensor<1024x!tt.ptr<f32>> loc(#loc22)
    %349 = tt.addptr %348, %ncl_idx_5 : tensor<1024x!tt.ptr<f32>>, tensor<1024xi32> loc(#loc22)
    tt.store %349, %spike_1639, %mask_6 : tensor<1024x!tt.ptr<f32>> loc(#loc23)
    %y_t_1644 = tt.addptr %y_ptr, %c93929472_i32 : !tt.ptr<f32>, i32 loc(#loc53)
    %y_t_1645 = tt.splat %y_t_1644 : !tt.ptr<f32> -> tensor<1024x!tt.ptr<f32>> loc(#loc42)
    %y_t_1646 = tt.addptr %y_t_1645, %ncl_idx_5 : tensor<1024x!tt.ptr<f32>>, tensor<1024xi32> loc(#loc42)
    %y_t_1647 = tt.load %y_t_1646, %mask_6, %cst_1 : tensor<1024x!tt.ptr<f32>> loc(#loc43)
    %v_1648 = arith.mulf %v_1643, %cst_0 : tensor<1024xf32> loc(#loc54)
    %v_1649 = arith.addf %y_t_1647, %bias_10 : tensor<1024xf32> loc(#loc44)
    %v_1650 = arith.mulf %v_1649, %cst_0 : tensor<1024xf32> loc(#loc45)
    %v_1651 = arith.addf %v_1648, %v_1650 : tensor<1024xf32> loc(#loc46)
    %spike_1652 = arith.cmpf oge, %v_1651, %cst : tensor<1024xf32> loc(#loc47)
    %spike_1653 = arith.uitofp %spike_1652 : tensor<1024xi1> to tensor<1024xf32> loc(#loc48)
    %v_1654 = arith.subf %cst, %spike_1653 : tensor<1024xf32> loc(#loc49)
    %v_1655 = arith.mulf %v_1651, %v_1654 : tensor<1024xf32> loc(#loc50)
    %v_1656 = arith.mulf %spike_1653, %cst_1 : tensor<1024xf32> loc(#loc51)
    %v_1657 = arith.addf %v_1655, %v_1656 : tensor<1024xf32> loc(#loc52)
    %350 = tt.addptr %spike_ptr, %c93929472_i32 : !tt.ptr<f32>, i32 loc(#loc26)
    %351 = tt.splat %350 : !tt.ptr<f32> -> tensor<1024x!tt.ptr<f32>> loc(#loc22)
    %352 = tt.addptr %351, %ncl_idx_5 : tensor<1024x!tt.ptr<f32>>, tensor<1024xi32> loc(#loc22)
    tt.store %352, %spike_1653, %mask_6 : tensor<1024x!tt.ptr<f32>> loc(#loc23)
    %y_t_1658 = tt.addptr %y_ptr, %c94732288_i32 : !tt.ptr<f32>, i32 loc(#loc53)
    %y_t_1659 = tt.splat %y_t_1658 : !tt.ptr<f32> -> tensor<1024x!tt.ptr<f32>> loc(#loc42)
    %y_t_1660 = tt.addptr %y_t_1659, %ncl_idx_5 : tensor<1024x!tt.ptr<f32>>, tensor<1024xi32> loc(#loc42)
    %y_t_1661 = tt.load %y_t_1660, %mask_6, %cst_1 : tensor<1024x!tt.ptr<f32>> loc(#loc43)
    %v_1662 = arith.mulf %v_1657, %cst_0 : tensor<1024xf32> loc(#loc54)
    %v_1663 = arith.addf %y_t_1661, %bias_10 : tensor<1024xf32> loc(#loc44)
    %v_1664 = arith.mulf %v_1663, %cst_0 : tensor<1024xf32> loc(#loc45)
    %v_1665 = arith.addf %v_1662, %v_1664 : tensor<1024xf32> loc(#loc46)
    %spike_1666 = arith.cmpf oge, %v_1665, %cst : tensor<1024xf32> loc(#loc47)
    %spike_1667 = arith.uitofp %spike_1666 : tensor<1024xi1> to tensor<1024xf32> loc(#loc48)
    %v_1668 = arith.subf %cst, %spike_1667 : tensor<1024xf32> loc(#loc49)
    %v_1669 = arith.mulf %v_1665, %v_1668 : tensor<1024xf32> loc(#loc50)
    %v_1670 = arith.mulf %spike_1667, %cst_1 : tensor<1024xf32> loc(#loc51)
    %v_1671 = arith.addf %v_1669, %v_1670 : tensor<1024xf32> loc(#loc52)
    %353 = tt.addptr %spike_ptr, %c94732288_i32 : !tt.ptr<f32>, i32 loc(#loc26)
    %354 = tt.splat %353 : !tt.ptr<f32> -> tensor<1024x!tt.ptr<f32>> loc(#loc22)
    %355 = tt.addptr %354, %ncl_idx_5 : tensor<1024x!tt.ptr<f32>>, tensor<1024xi32> loc(#loc22)
    tt.store %355, %spike_1667, %mask_6 : tensor<1024x!tt.ptr<f32>> loc(#loc23)
    %y_t_1672 = tt.addptr %y_ptr, %c95535104_i32 : !tt.ptr<f32>, i32 loc(#loc53)
    %y_t_1673 = tt.splat %y_t_1672 : !tt.ptr<f32> -> tensor<1024x!tt.ptr<f32>> loc(#loc42)
    %y_t_1674 = tt.addptr %y_t_1673, %ncl_idx_5 : tensor<1024x!tt.ptr<f32>>, tensor<1024xi32> loc(#loc42)
    %y_t_1675 = tt.load %y_t_1674, %mask_6, %cst_1 : tensor<1024x!tt.ptr<f32>> loc(#loc43)
    %v_1676 = arith.mulf %v_1671, %cst_0 : tensor<1024xf32> loc(#loc54)
    %v_1677 = arith.addf %y_t_1675, %bias_10 : tensor<1024xf32> loc(#loc44)
    %v_1678 = arith.mulf %v_1677, %cst_0 : tensor<1024xf32> loc(#loc45)
    %v_1679 = arith.addf %v_1676, %v_1678 : tensor<1024xf32> loc(#loc46)
    %spike_1680 = arith.cmpf oge, %v_1679, %cst : tensor<1024xf32> loc(#loc47)
    %spike_1681 = arith.uitofp %spike_1680 : tensor<1024xi1> to tensor<1024xf32> loc(#loc48)
    %v_1682 = arith.subf %cst, %spike_1681 : tensor<1024xf32> loc(#loc49)
    %v_1683 = arith.mulf %v_1679, %v_1682 : tensor<1024xf32> loc(#loc50)
    %v_1684 = arith.mulf %spike_1681, %cst_1 : tensor<1024xf32> loc(#loc51)
    %v_1685 = arith.addf %v_1683, %v_1684 : tensor<1024xf32> loc(#loc52)
    %356 = tt.addptr %spike_ptr, %c95535104_i32 : !tt.ptr<f32>, i32 loc(#loc26)
    %357 = tt.splat %356 : !tt.ptr<f32> -> tensor<1024x!tt.ptr<f32>> loc(#loc22)
    %358 = tt.addptr %357, %ncl_idx_5 : tensor<1024x!tt.ptr<f32>>, tensor<1024xi32> loc(#loc22)
    tt.store %358, %spike_1681, %mask_6 : tensor<1024x!tt.ptr<f32>> loc(#loc23)
    %y_t_1686 = tt.addptr %y_ptr, %c96337920_i32 : !tt.ptr<f32>, i32 loc(#loc53)
    %y_t_1687 = tt.splat %y_t_1686 : !tt.ptr<f32> -> tensor<1024x!tt.ptr<f32>> loc(#loc42)
    %y_t_1688 = tt.addptr %y_t_1687, %ncl_idx_5 : tensor<1024x!tt.ptr<f32>>, tensor<1024xi32> loc(#loc42)
    %y_t_1689 = tt.load %y_t_1688, %mask_6, %cst_1 : tensor<1024x!tt.ptr<f32>> loc(#loc43)
    %v_1690 = arith.mulf %v_1685, %cst_0 : tensor<1024xf32> loc(#loc54)
    %v_1691 = arith.addf %y_t_1689, %bias_10 : tensor<1024xf32> loc(#loc44)
    %v_1692 = arith.mulf %v_1691, %cst_0 : tensor<1024xf32> loc(#loc45)
    %v_1693 = arith.addf %v_1690, %v_1692 : tensor<1024xf32> loc(#loc46)
    %spike_1694 = arith.cmpf oge, %v_1693, %cst : tensor<1024xf32> loc(#loc47)
    %spike_1695 = arith.uitofp %spike_1694 : tensor<1024xi1> to tensor<1024xf32> loc(#loc48)
    %v_1696 = arith.subf %cst, %spike_1695 : tensor<1024xf32> loc(#loc49)
    %v_1697 = arith.mulf %v_1693, %v_1696 : tensor<1024xf32> loc(#loc50)
    %v_1698 = arith.mulf %spike_1695, %cst_1 : tensor<1024xf32> loc(#loc51)
    %v_1699 = arith.addf %v_1697, %v_1698 : tensor<1024xf32> loc(#loc52)
    %359 = tt.addptr %spike_ptr, %c96337920_i32 : !tt.ptr<f32>, i32 loc(#loc26)
    %360 = tt.splat %359 : !tt.ptr<f32> -> tensor<1024x!tt.ptr<f32>> loc(#loc22)
    %361 = tt.addptr %360, %ncl_idx_5 : tensor<1024x!tt.ptr<f32>>, tensor<1024xi32> loc(#loc22)
    tt.store %361, %spike_1695, %mask_6 : tensor<1024x!tt.ptr<f32>> loc(#loc23)
    %y_t_1700 = tt.addptr %y_ptr, %c97140736_i32 : !tt.ptr<f32>, i32 loc(#loc53)
    %y_t_1701 = tt.splat %y_t_1700 : !tt.ptr<f32> -> tensor<1024x!tt.ptr<f32>> loc(#loc42)
    %y_t_1702 = tt.addptr %y_t_1701, %ncl_idx_5 : tensor<1024x!tt.ptr<f32>>, tensor<1024xi32> loc(#loc42)
    %y_t_1703 = tt.load %y_t_1702, %mask_6, %cst_1 : tensor<1024x!tt.ptr<f32>> loc(#loc43)
    %v_1704 = arith.mulf %v_1699, %cst_0 : tensor<1024xf32> loc(#loc54)
    %v_1705 = arith.addf %y_t_1703, %bias_10 : tensor<1024xf32> loc(#loc44)
    %v_1706 = arith.mulf %v_1705, %cst_0 : tensor<1024xf32> loc(#loc45)
    %v_1707 = arith.addf %v_1704, %v_1706 : tensor<1024xf32> loc(#loc46)
    %spike_1708 = arith.cmpf oge, %v_1707, %cst : tensor<1024xf32> loc(#loc47)
    %spike_1709 = arith.uitofp %spike_1708 : tensor<1024xi1> to tensor<1024xf32> loc(#loc48)
    %v_1710 = arith.subf %cst, %spike_1709 : tensor<1024xf32> loc(#loc49)
    %v_1711 = arith.mulf %v_1707, %v_1710 : tensor<1024xf32> loc(#loc50)
    %v_1712 = arith.mulf %spike_1709, %cst_1 : tensor<1024xf32> loc(#loc51)
    %v_1713 = arith.addf %v_1711, %v_1712 : tensor<1024xf32> loc(#loc52)
    %362 = tt.addptr %spike_ptr, %c97140736_i32 : !tt.ptr<f32>, i32 loc(#loc26)
    %363 = tt.splat %362 : !tt.ptr<f32> -> tensor<1024x!tt.ptr<f32>> loc(#loc22)
    %364 = tt.addptr %363, %ncl_idx_5 : tensor<1024x!tt.ptr<f32>>, tensor<1024xi32> loc(#loc22)
    tt.store %364, %spike_1709, %mask_6 : tensor<1024x!tt.ptr<f32>> loc(#loc23)
    %y_t_1714 = tt.addptr %y_ptr, %c97943552_i32 : !tt.ptr<f32>, i32 loc(#loc53)
    %y_t_1715 = tt.splat %y_t_1714 : !tt.ptr<f32> -> tensor<1024x!tt.ptr<f32>> loc(#loc42)
    %y_t_1716 = tt.addptr %y_t_1715, %ncl_idx_5 : tensor<1024x!tt.ptr<f32>>, tensor<1024xi32> loc(#loc42)
    %y_t_1717 = tt.load %y_t_1716, %mask_6, %cst_1 : tensor<1024x!tt.ptr<f32>> loc(#loc43)
    %v_1718 = arith.mulf %v_1713, %cst_0 : tensor<1024xf32> loc(#loc54)
    %v_1719 = arith.addf %y_t_1717, %bias_10 : tensor<1024xf32> loc(#loc44)
    %v_1720 = arith.mulf %v_1719, %cst_0 : tensor<1024xf32> loc(#loc45)
    %v_1721 = arith.addf %v_1718, %v_1720 : tensor<1024xf32> loc(#loc46)
    %spike_1722 = arith.cmpf oge, %v_1721, %cst : tensor<1024xf32> loc(#loc47)
    %spike_1723 = arith.uitofp %spike_1722 : tensor<1024xi1> to tensor<1024xf32> loc(#loc48)
    %v_1724 = arith.subf %cst, %spike_1723 : tensor<1024xf32> loc(#loc49)
    %v_1725 = arith.mulf %v_1721, %v_1724 : tensor<1024xf32> loc(#loc50)
    %v_1726 = arith.mulf %spike_1723, %cst_1 : tensor<1024xf32> loc(#loc51)
    %v_1727 = arith.addf %v_1725, %v_1726 : tensor<1024xf32> loc(#loc52)
    %365 = tt.addptr %spike_ptr, %c97943552_i32 : !tt.ptr<f32>, i32 loc(#loc26)
    %366 = tt.splat %365 : !tt.ptr<f32> -> tensor<1024x!tt.ptr<f32>> loc(#loc22)
    %367 = tt.addptr %366, %ncl_idx_5 : tensor<1024x!tt.ptr<f32>>, tensor<1024xi32> loc(#loc22)
    tt.store %367, %spike_1723, %mask_6 : tensor<1024x!tt.ptr<f32>> loc(#loc23)
    %y_t_1728 = tt.addptr %y_ptr, %c98746368_i32 : !tt.ptr<f32>, i32 loc(#loc53)
    %y_t_1729 = tt.splat %y_t_1728 : !tt.ptr<f32> -> tensor<1024x!tt.ptr<f32>> loc(#loc42)
    %y_t_1730 = tt.addptr %y_t_1729, %ncl_idx_5 : tensor<1024x!tt.ptr<f32>>, tensor<1024xi32> loc(#loc42)
    %y_t_1731 = tt.load %y_t_1730, %mask_6, %cst_1 : tensor<1024x!tt.ptr<f32>> loc(#loc43)
    %v_1732 = arith.mulf %v_1727, %cst_0 : tensor<1024xf32> loc(#loc54)
    %v_1733 = arith.addf %y_t_1731, %bias_10 : tensor<1024xf32> loc(#loc44)
    %v_1734 = arith.mulf %v_1733, %cst_0 : tensor<1024xf32> loc(#loc45)
    %v_1735 = arith.addf %v_1732, %v_1734 : tensor<1024xf32> loc(#loc46)
    %spike_1736 = arith.cmpf oge, %v_1735, %cst : tensor<1024xf32> loc(#loc47)
    %spike_1737 = arith.uitofp %spike_1736 : tensor<1024xi1> to tensor<1024xf32> loc(#loc48)
    %v_1738 = arith.subf %cst, %spike_1737 : tensor<1024xf32> loc(#loc49)
    %v_1739 = arith.mulf %v_1735, %v_1738 : tensor<1024xf32> loc(#loc50)
    %v_1740 = arith.mulf %spike_1737, %cst_1 : tensor<1024xf32> loc(#loc51)
    %v_1741 = arith.addf %v_1739, %v_1740 : tensor<1024xf32> loc(#loc52)
    %368 = tt.addptr %spike_ptr, %c98746368_i32 : !tt.ptr<f32>, i32 loc(#loc26)
    %369 = tt.splat %368 : !tt.ptr<f32> -> tensor<1024x!tt.ptr<f32>> loc(#loc22)
    %370 = tt.addptr %369, %ncl_idx_5 : tensor<1024x!tt.ptr<f32>>, tensor<1024xi32> loc(#loc22)
    tt.store %370, %spike_1737, %mask_6 : tensor<1024x!tt.ptr<f32>> loc(#loc23)
    %y_t_1742 = tt.addptr %y_ptr, %c99549184_i32 : !tt.ptr<f32>, i32 loc(#loc53)
    %y_t_1743 = tt.splat %y_t_1742 : !tt.ptr<f32> -> tensor<1024x!tt.ptr<f32>> loc(#loc42)
    %y_t_1744 = tt.addptr %y_t_1743, %ncl_idx_5 : tensor<1024x!tt.ptr<f32>>, tensor<1024xi32> loc(#loc42)
    %y_t_1745 = tt.load %y_t_1744, %mask_6, %cst_1 : tensor<1024x!tt.ptr<f32>> loc(#loc43)
    %v_1746 = arith.mulf %v_1741, %cst_0 : tensor<1024xf32> loc(#loc54)
    %v_1747 = arith.addf %y_t_1745, %bias_10 : tensor<1024xf32> loc(#loc44)
    %v_1748 = arith.mulf %v_1747, %cst_0 : tensor<1024xf32> loc(#loc45)
    %v_1749 = arith.addf %v_1746, %v_1748 : tensor<1024xf32> loc(#loc46)
    %spike_1750 = arith.cmpf oge, %v_1749, %cst : tensor<1024xf32> loc(#loc47)
    %spike_1751 = arith.uitofp %spike_1750 : tensor<1024xi1> to tensor<1024xf32> loc(#loc48)
    %v_1752 = arith.subf %cst, %spike_1751 : tensor<1024xf32> loc(#loc49)
    %v_1753 = arith.mulf %v_1749, %v_1752 : tensor<1024xf32> loc(#loc50)
    %v_1754 = arith.mulf %spike_1751, %cst_1 : tensor<1024xf32> loc(#loc51)
    %v_1755 = arith.addf %v_1753, %v_1754 : tensor<1024xf32> loc(#loc52)
    %371 = tt.addptr %spike_ptr, %c99549184_i32 : !tt.ptr<f32>, i32 loc(#loc26)
    %372 = tt.splat %371 : !tt.ptr<f32> -> tensor<1024x!tt.ptr<f32>> loc(#loc22)
    %373 = tt.addptr %372, %ncl_idx_5 : tensor<1024x!tt.ptr<f32>>, tensor<1024xi32> loc(#loc22)
    tt.store %373, %spike_1751, %mask_6 : tensor<1024x!tt.ptr<f32>> loc(#loc23)
    %y_t_1756 = tt.addptr %y_ptr, %c100352000_i32 : !tt.ptr<f32>, i32 loc(#loc53)
    %y_t_1757 = tt.splat %y_t_1756 : !tt.ptr<f32> -> tensor<1024x!tt.ptr<f32>> loc(#loc42)
    %y_t_1758 = tt.addptr %y_t_1757, %ncl_idx_5 : tensor<1024x!tt.ptr<f32>>, tensor<1024xi32> loc(#loc42)
    %y_t_1759 = tt.load %y_t_1758, %mask_6, %cst_1 : tensor<1024x!tt.ptr<f32>> loc(#loc43)
    %v_1760 = arith.mulf %v_1755, %cst_0 : tensor<1024xf32> loc(#loc54)
    %v_1761 = arith.addf %y_t_1759, %bias_10 : tensor<1024xf32> loc(#loc44)
    %v_1762 = arith.mulf %v_1761, %cst_0 : tensor<1024xf32> loc(#loc45)
    %v_1763 = arith.addf %v_1760, %v_1762 : tensor<1024xf32> loc(#loc46)
    %spike_1764 = arith.cmpf oge, %v_1763, %cst : tensor<1024xf32> loc(#loc47)
    %spike_1765 = arith.uitofp %spike_1764 : tensor<1024xi1> to tensor<1024xf32> loc(#loc48)
    %v_1766 = arith.subf %cst, %spike_1765 : tensor<1024xf32> loc(#loc49)
    %v_1767 = arith.mulf %v_1763, %v_1766 : tensor<1024xf32> loc(#loc50)
    %v_1768 = arith.mulf %spike_1765, %cst_1 : tensor<1024xf32> loc(#loc51)
    %v_1769 = arith.addf %v_1767, %v_1768 : tensor<1024xf32> loc(#loc52)
    %374 = tt.addptr %spike_ptr, %c100352000_i32 : !tt.ptr<f32>, i32 loc(#loc26)
    %375 = tt.splat %374 : !tt.ptr<f32> -> tensor<1024x!tt.ptr<f32>> loc(#loc22)
    %376 = tt.addptr %375, %ncl_idx_5 : tensor<1024x!tt.ptr<f32>>, tensor<1024xi32> loc(#loc22)
    tt.store %376, %spike_1765, %mask_6 : tensor<1024x!tt.ptr<f32>> loc(#loc23)
    %y_t_1770 = tt.addptr %y_ptr, %c101154816_i32 : !tt.ptr<f32>, i32 loc(#loc53)
    %y_t_1771 = tt.splat %y_t_1770 : !tt.ptr<f32> -> tensor<1024x!tt.ptr<f32>> loc(#loc42)
    %y_t_1772 = tt.addptr %y_t_1771, %ncl_idx_5 : tensor<1024x!tt.ptr<f32>>, tensor<1024xi32> loc(#loc42)
    %y_t_1773 = tt.load %y_t_1772, %mask_6, %cst_1 : tensor<1024x!tt.ptr<f32>> loc(#loc43)
    %v_1774 = arith.mulf %v_1769, %cst_0 : tensor<1024xf32> loc(#loc54)
    %v_1775 = arith.addf %y_t_1773, %bias_10 : tensor<1024xf32> loc(#loc44)
    %v_1776 = arith.mulf %v_1775, %cst_0 : tensor<1024xf32> loc(#loc45)
    %v_1777 = arith.addf %v_1774, %v_1776 : tensor<1024xf32> loc(#loc46)
    %spike_1778 = arith.cmpf oge, %v_1777, %cst : tensor<1024xf32> loc(#loc47)
    %spike_1779 = arith.uitofp %spike_1778 : tensor<1024xi1> to tensor<1024xf32> loc(#loc48)
    %v_1780 = arith.subf %cst, %spike_1779 : tensor<1024xf32> loc(#loc49)
    %v_1781 = arith.mulf %v_1777, %v_1780 : tensor<1024xf32> loc(#loc50)
    %v_1782 = arith.mulf %spike_1779, %cst_1 : tensor<1024xf32> loc(#loc51)
    %v_1783 = arith.addf %v_1781, %v_1782 : tensor<1024xf32> loc(#loc52)
    %377 = tt.addptr %spike_ptr, %c101154816_i32 : !tt.ptr<f32>, i32 loc(#loc26)
    %378 = tt.splat %377 : !tt.ptr<f32> -> tensor<1024x!tt.ptr<f32>> loc(#loc22)
    %379 = tt.addptr %378, %ncl_idx_5 : tensor<1024x!tt.ptr<f32>>, tensor<1024xi32> loc(#loc22)
    tt.store %379, %spike_1779, %mask_6 : tensor<1024x!tt.ptr<f32>> loc(#loc23)
    %y_t_1784 = tt.addptr %y_ptr, %c101957632_i32 : !tt.ptr<f32>, i32 loc(#loc53)
    %y_t_1785 = tt.splat %y_t_1784 : !tt.ptr<f32> -> tensor<1024x!tt.ptr<f32>> loc(#loc42)
    %y_t_1786 = tt.addptr %y_t_1785, %ncl_idx_5 : tensor<1024x!tt.ptr<f32>>, tensor<1024xi32> loc(#loc42)
    %y_t_1787 = tt.load %y_t_1786, %mask_6, %cst_1 : tensor<1024x!tt.ptr<f32>> loc(#loc43)
    %v_1788 = arith.mulf %v_1783, %cst_0 : tensor<1024xf32> loc(#loc54)
    %v_1789 = arith.addf %y_t_1787, %bias_10 : tensor<1024xf32> loc(#loc44)
    %v_1790 = arith.mulf %v_1789, %cst_0 : tensor<1024xf32> loc(#loc45)
    %v_1791 = arith.addf %v_1788, %v_1790 : tensor<1024xf32> loc(#loc46)
    %spike_1792 = arith.cmpf oge, %v_1791, %cst : tensor<1024xf32> loc(#loc47)
    %spike_1793 = arith.uitofp %spike_1792 : tensor<1024xi1> to tensor<1024xf32> loc(#loc48)
    %380 = tt.addptr %spike_ptr, %c101957632_i32 : !tt.ptr<f32>, i32 loc(#loc26)
    %381 = tt.splat %380 : !tt.ptr<f32> -> tensor<1024x!tt.ptr<f32>> loc(#loc22)
    %382 = tt.addptr %381, %ncl_idx_5 : tensor<1024x!tt.ptr<f32>>, tensor<1024xi32> loc(#loc22)
    tt.store %382, %spike_1793, %mask_6 : tensor<1024x!tt.ptr<f32>> loc(#loc23)
    tt.return loc(#loc27)
  } loc(#loc)
} loc(#loc)
#loc1 = loc(unknown)
#loc2 = loc("/home/charlley/Code/Triton-Pass-Analysis/snn_compiler/kernels/fused.py":82:34)
#loc3 = loc("/home/charlley/Code/Triton-Pass-Analysis/snn_compiler/kernels/fused.py":82:28)
#loc4 = loc("/home/charlley/Code/Triton-Pass-Analysis/snn_compiler/kernels/fused.py":77:21)
#loc5 = loc("/home/charlley/Code/Triton-Pass-Analysis/snn_compiler/kernels/fused.py":75:24)
#loc6 = loc("/home/charlley/Code/Triton-Pass-Analysis/snn_compiler/kernels/fused.py":76:20)
#loc7 = loc("/home/charlley/Code/Triton-Pass-Analysis/snn_compiler/kernels/fused.py":76:45)
#loc8 = loc("/home/charlley/Code/Triton-Pass-Analysis/snn_compiler/kernels/fused.py":76:32)
#loc9 = loc("/home/charlley/Code/Triton-Pass-Analysis/snn_compiler/kernels/fused.py":85:34)
#loc10 = loc("/home/charlley/Code/Triton-Pass-Analysis/snn_compiler/kernels/fused.py":85:23)
#loc11 = loc("/home/charlley/Code/Triton-Pass-Analysis/snn_compiler/kernels/fused.py":99:40)
#loc12 = loc("/home/charlley/Code/Triton-Pass-Analysis/snn_compiler/kernels/fused.py":99:22)
#loc13 = loc("/home/charlley/Code/Triton-Pass-Analysis/snn_compiler/kernels/fused.py":104:56)
#loc14 = loc("/home/charlley/Code/Triton-Pass-Analysis/snn_compiler/kernels/fused.py":104:50)
#loc15 = loc("/home/charlley/Code/Triton-Pass-Analysis/snn_compiler/kernels/fused.py":104:35)
#loc16 = loc("/home/charlley/Code/Triton-Pass-Analysis/snn_compiler/kernels/fused.py":105:22)
#loc17 = loc("/home/charlley/Code/Triton-Pass-Analysis/snn_compiler/kernels/fused.py":105:31)
#loc18 = loc("/home/charlley/Code/Triton-Pass-Analysis/snn_compiler/kernels/fused.py":109:27)
#loc19 = loc("/home/charlley/Code/Triton-Pass-Analysis/snn_compiler/kernels/fused.py":109:21)
#loc20 = loc("/home/charlley/Code/Triton-Pass-Analysis/snn_compiler/kernels/fused.py":109:44)
#loc21 = loc("/home/charlley/Code/Triton-Pass-Analysis/snn_compiler/kernels/fused.py":109:36)
#loc22 = loc("/home/charlley/Code/Triton-Pass-Analysis/snn_compiler/kernels/fused.py":110:39)
#loc23 = loc("/home/charlley/Code/Triton-Pass-Analysis/snn_compiler/kernels/fused.py":110:48)
#loc24 = loc("/home/charlley/Code/Triton-Pass-Analysis/snn_compiler/kernels/fused.py":99:30)
#loc25 = loc("/home/charlley/Code/Triton-Pass-Analysis/snn_compiler/kernels/fused.py":104:31)
#loc26 = loc("/home/charlley/Code/Triton-Pass-Analysis/snn_compiler/kernels/fused.py":110:29)
#loc27 = loc("/home/charlley/Code/Triton-Pass-Analysis/snn_compiler/kernels/fused.py":98:4)
#loc33 = loc("c_idx"(#loc2))
#loc34 = loc("c_idx"(#loc3))
#loc35 = loc("mask"(#loc4))
#loc36 = loc("pid"(#loc5))
#loc37 = loc("ncl_idx"(#loc6))
#loc38 = loc("ncl_idx"(#loc7))
#loc39 = loc("ncl_idx"(#loc8))
#loc40 = loc("bias"(#loc9))
#loc41 = loc("bias"(#loc10))
#loc42 = loc("y_t"(#loc11))
#loc43 = loc("y_t"(#loc12))
#loc44 = loc("v"(#loc13))
#loc45 = loc("v"(#loc14))
#loc46 = loc("v"(#loc15))
#loc47 = loc("spike"(#loc16))
#loc48 = loc("spike"(#loc17))
#loc49 = loc("v"(#loc18))
#loc50 = loc("v"(#loc19))
#loc51 = loc("v"(#loc20))
#loc52 = loc("v"(#loc21))
#loc53 = loc("y_t"(#loc24))
#loc54 = loc("v"(#loc25))
